model/A2C_model_3.pt (torch, 7543 bytes, 5 tensors)

weight f4 [128, 4]
0.3082093 -0.049874555 -0.17485851 -0.108201265 -0.1615131 -0.398618 0.17227815 -0.32837856
-0.052023295 -0.16414952 -0.069039576 -0.4501183 -0.57402897 -0.3381052 -0.23663752 -0.1399494
-0.40671507 0.18482754 0.32555625 0.3766256 0.4777692 0.2673803 0.5153838 0.3767038
0.33233157 0.23862076 0.2993634 -0.30223837 0.3148143 0.3900288 0.14032567 0.31700855
0.21404213 0.21904495 -0.12037611 -0.4674205 0.16105716 -0.18398437 -0.2530436 -0.44025964
0.28048658 -0.20716557 -0.57421106 -0.250866 -0.11601812 -0.16525067 -0.6168055 -0.4277984
0.24488115 -0.26288113 0.17975603 0.22472279 -0.29803908 -0.31400853 0.26891878 0.3104271
-0.47268808 0.30380183 -0.30756968 -0.13703711 0.4185698 0.3413239 -0.1480403 -0.3859723
-0.23006605 0.026863812 -0.5303605 -0.26526105 -0.38996267 -0.08304622 -0.49934396 -0.50403714
-0.45684734 0.44638306 0.21648747 -0.22793165 -0.003755102 -0.22825244 0.13748774 -0.07523734
0.08116498 -0.28054103 -0.39510766 0.038690265 0.30269068 -0.41554058 -0.469858 -0.07510038
0.56261134 -0.4460238 0.17172548 0.20226797 -0.041895468 0.43296334 0.09826086 0.12492153
-0.37206405 -0.0077204225 -0.42609754 -0.4039622 0.2200353 0.45311955 0.026854841 -0.05462133
-0.118438505 -0.05745718 0.35357645 0.32978466 0.35884017 -0.34586045 0.57863367 0.46152607
0.440563 0.36464334 0.1653094 -0.12424784 -0.37041128 0.17482428 -0.31060892 -0.60463923
0.44134566 0.4560871 -0.3222131 -0.2532876 -0.24567865 -0.5909797 0.008717935 -0.5208196
-0.30577296 0.4776426 -0.2027035 0.40967888 0.3394285 0.41718438 -0.57894 -0.07496296
-0.19354968 -0.005507449 0.13728008 -0.46156058 -0.060751572 0.3380482 -0.54021335 0.06071061
-0.30806214 -0.34628186 -0.26875848 -0.08961401 0.23569207 -0.05354932 -0.3999803 -0.42108008
0.52923524 -0.31878698 0.51906794 0.45561397 -0.14821921 -0.014939306 -0.33032542 0.4661993
-0.066920914 -0.36562863 0.16287655 -0.2819109 0.15099521 0.039180245 -0.45037752 -0.08917105
-0.51253015 -0.14508773 0.07712592 0.5457499 -0.14500211 0.15260233 -0.17837262 0.32786742
-0.27080426 -0.15709865 0.31764808 0.52089375 0.57412636 -0.3185284 -0.5148145 -0.6085546
-0.28387618 0.53870296 -0.20013496 -0.073912896 0.10436302 -0.07261065 0.05701993 0.25525555
0.15703647 -0.12179583 0.0074808043 -0.39584526 0.23124248 0.37438214 0.16084988 0.376862
0.38481975 -0.21853401 -0.15165634 -0.37827283 -0.42980015 0.052803982 0.4817073 0.3167662
0.25538048 0.21906666 0.2412343 -0.52195084 -0.3123891 -0.59577966 -0.013392841 -0.040179066
0.56709355 -0.16966282 0.15503424 -0.58874464 0.25032905 0.42662728 -0.38972086 0.3111691
-0.035445187 0.2224795 -0.038156793 -0.07378334 0.37116072 -0.18133451 0.5475081 0.5754909
0.6145455 0.41527945 -0.08114195 -0.16157591 0.33496344 0.5659162 0.102973305 0.48557156
-0.30574584 -0.031159995 0.41727957 -0.28362203 -0.11620786 -0.2463978 -0.055925738 -0.04003223
0.59209204 -0.5157824 0.26198015 0.43410063 0.013384471 -0.08493279 0.3862542 0.16340873
00000000: 9ccd 9d3e 4349 4cbd 1c0e 33be a098 ddbd
00000010: b163 25be a917 ccbe af69 303e 3c21 a8be
00000020: 6116 55bd d016 28be 9f64 8dbd e875 e6be
00000030: 90f3 12bf 201c adbe 1b51 72be e54e 0fbe
00000040: f53c d0be 6e43 3d3e 4faf a63e 12d5 c03e
00000050: 2a9e f43e 12e6 883e 31f0 033f 52df c03e
00000060: 5d27 aa3e 0059 743e 2946 993e fdbe 9abe
00000070: 572f a13e dbb1 c73e 88b1 0f3e f24e a23e
00000080: dc2d 5b3e 524d 603e c087 f6bd bd51 efbe
00000090: 2bec 243e 6666 3cbe ee8e 81be b669 e1be
000000a0: f09b 8f3e 3623 54be 7fff 12bf 8271 80be
000000b0: e89a edbd 7937 29be f7e6 1dbf 6408 dbbe
000000c0: 20c2 7a3e 5b98 86be f711 383e bb1d 663e
000000d0: 9498 98be bac5 a0be b9af 893e 4df0 9e3e
000000e0: 2c04 f2be ea8b 9b3e c679 9dbe 7553 0cbe
000000f0: c84e d63e 02c2 ae3e e097 17be 299e c5be
00000100: 6f96 6bbe 7f11 dc3c b5c5 07bf 4cd0 87be
00000110: 30a9 c7be 2314 aabd 03aa ffbe 9408 01bf
00000120: e5e7 e9be 528c e43e e4ae 5d3e ea66 69be
00000130: 2818 76bb 02bb 69be 96c9 0c3e 0916 9abd
00000140: d339 a63d 13a3 8fbe 8d4b cabe af79 1e3d
00000150: 46fa 9a3e bcc1 d4be 3a91 f0be 3ace 99bd
00000160: 4c07 103f 3b5d e4be ced8 2f3e 561f 4f3e
00000170: 959a 2bbd 5fad dd3e fd3c c93d dcd6 ff3d
00000180: 2e7f bebe 99fb fcbb 7529 dabe 22d4 cebe
00000190: ef50 613e 49ff e73e affe db3c 9eba 5fbd
000001a0: e38f f2bd 3858 6bbd f907 b53e 89d9 a83e
000001b0: e6b9 b73e 9f14 b1be 5621 143f 254d ec3e
000001c0: 7991 e13e 88b2 ba3e de46 293e a775 febd
000001d0: 8ca6 bdbe 2305 333e 2208 9fbe a3c9 1abf
000001e0: 0ff8 e13e 4084 e93e 1ef9 a4be eaae 81be
000001f0: 2f93 7bbe 724a 17bf abd5 0e3c 6f54 05bf
00000200: 468e 9cbe 928d f43e 8291 4fbe 6ec1 d13e
00000210: 93c9 ad3e 3199 d53e 6935 14bf 2e86 99bd
00000220: e331 46be d577 b4bb 2693 0c3e ab51 ecbe
00000230: a4d6 78bd a714 ad3e 6c4b 0abf b0ab 783d
00000240: 52ba 9dbe db4b b1be b69a 89be 8d87 b7bd
00000250: 4359 713e 8856 5bbd 38ca ccbe cf97 d7be
00000260: f67b 073f 0c38 a3be a3e1 043f 3c46 e93e
00000270: c7c6 17be fec3 74bc 6a20 a9be adb1 ee3e
00000280: d50d 89bd ad33 bbbe 1cc9 263e a056 90be
00000290: 7d9e 1a3e 777b 203d e297 e6be 509f b6bd
000002a0: 2d35 03bf e191 14be 32f4 9d3d 44b6 0b3f
000002b0: 6f7b 14be c943 1c3e 50a7 36be 3dde a73e
000002c0: dba6 8abe 78de 20be c5a2 a23e 4b59 053f
000002d0: f2f9 123f 2816 a3be e2ca 03bf 3cca 1bbf
000002e0: 3858 91be 70e8 093f 2ef0 4cbe a55f 97bd
000002f0: 47bc d53d e4b4 94bd bb8d 693d dbb0 823e
00000300: 2bce 203e 1870 f9bd 8921 f53b 3bac cabe
00000310: d4ca 6c3e 04af bf3e d5b5 243e 0ef4 c03e
00000320: 1807 c53e 61c7 5fbe cd4b 1bbe faac c1be
00000330: c40e dcbe fd48 583d 57a2 f63e 2e2f a23e
00000340: 3bc1 823e 0353 603e 2006 773e 929e 05bf
00000350: 77f1 9fbe 0485 18bf a66d 5bbc ce92 24bd
00000360: 0b2d 113f 17bc 2dbe 4cc1 1e3e f8b7 16bf
00000370: 212b 803e e46e da3e 7e89 c7be 8e51 9f3e
00000380: f92e 11bd abd1 633e 4c4a 1cbd b81b 97bd
00000390: c708 be3e c1af 39be 7e29 0c3f 5f53 133f
000003a0: db52 1d3f 829f d43e c02d a6bd 2874 25be
000003b0: 5480 ab3e e2df 103f abe3 d23d d69c f83e
000003c0: b88a 9cbe 3f43 ffbc aba5 d53e e836 91be
000003d0: 63fe edbd b44f 7cbe 6312 65bd d6f8 23bd
000003e0: 5893 173f 510a 04bf 4322 863e 7042 de3e
000003f0: 8a4a 5b3c 3ef1 adbd 1cc3 c53e 9e54 273e

bias f4 [128]
0.39283115 -0.39372423 0.120616525 -0.38677073 -0.42185828 0.5372985 0.5766554 0.0057385038
-0.36208558 -0.30114695 0.25594285 0.24695599 -0.06415094 -0.09835296 0.25268516 0.011569317
0.17589664 0.4323068 0.19995384 0.32343248 -0.4233119 0.321469 -0.50342786 -0.011113195
0.17414728 -0.3175683 -0.3741091 0.059178054 0.4746376 0.026809532 0.12081974 -0.24515674
-0.10766831 0.07382577 0.40365303 -0.48516387 -0.13468315 0.38170153 0.4177844 -0.39146277
0.29854867 0.27949706 -0.25446174 0.16969308 0.119418845 0.14094934 0.3760678 0.60235393
0.10923332 0.10323778 -0.21334706 0.3846445 -0.152918 0.03640565 0.009168173 -0.17979242
-0.5253848 0.5266622 -0.18031467 0.53506607 -0.4839635 -0.10352522 0.4274158 0.4015641
0.21773031 -0.44655752 0.22273386 0.14355315 -0.35610119 0.43765947 0.12766798 0.41211376
-0.3340494 0.38030186 -0.4761247 -0.11337308 -0.4276892 -0.20201172 0.06862132 0.041596737
0.34147063 -0.06673969 0.22494462 0.21300274 -0.040764004 0.19373424 -0.3030727 0.49015117
0.2160069 -0.28715503 -0.2396355 -0.18669516 0.053492814 0.24997346 0.43675867 0.063574575
0.021843947 -0.22380818 -0.05908517 0.23986524 -0.36378393 0.4669191 0.39122775 0.20275484
0.07127217 -0.29698047 -0.060341462 -0.2292031 -0.2549341 -0.12871508 0.019152017 0.028581748
-0.26303148 -0.2634354 0.47462136 0.09590176 0.39142752 -0.29660287 -0.096381105 0.46165255
-0.1035463 -0.045549136 0.2185118 0.37390256 -0.247519 0.33359954 0.6258216 0.23677364
00000000: 2a21 c93e 3996 c9be cc05 f73d d006 c6be
00000010: cffd d7be 658c 093f b09f 133f 0f0a bc3b
00000020: 4863 b9be ef2f 9abe f10a 833e 08e2 7c3e
00000030: 9161 83bd 476d c9bd f35f 813e 3c8d 3d3c
00000040: 401e 343e 5157 dd3e b3c0 4c3e f198 a53e
00000050: 56bc d8be 9697 a43e a6e0 00bf 1e14 36bc
00000060: aa53 323e 5098 a2be 3a8b bfbe b064 723d
00000070: b303 f33e aa9f db3c 5770 f73d 5e0a 7bbe
00000080: 3481 dcbd f731 973d 9cab ce3e 6667 f8be
00000090: 61ea 09be 626e c33e d6e7 d53e cf6d c8be
000000a0: 5fdb 983e 3d1a 8f3e cf48 82be 06c4 2d3e
000000b0: de91 f43d 0655 103e f58b c03e de33 1a3f
000000c0: b8b5 df3d 546e d33d a777 5abe 20f0 c43e
000000d0: 8996 1cbe 171e 153d 1b36 163c 811b 38be
000000e0: 9e7f 06bf 55d3 063f 69a4 38be 17fa 083f
000000f0: 10ca f7be 0805 d4bd 3ed6 da3e cf99 cd3e
00000100: b2f4 5e3e 30a3 e4be 5814 643e 99ff 123e
00000110: e552 b6be e714 e03e 65bb 023e 9300 d33e
00000120: 8608 abbe edb6 c23e 9ec6 f3be 2530 e8bd
00000130: 14fa dabe 29dc 4ebe 5689 8c3d 5761 2a3d
00000140: 3dd5 ae3e d2ae 88bd e257 663e 641d 5a3e
00000150: 28f8 26bd 4562 463e 582c 9bbe 18f5 fa3e
00000160: ea30 5d3e fc05 93be 0263 75be 042d 3fbe
00000170: 481b 5b3d 0bf9 7f3e d59e df3e 6333 823d
00000180: 14f2 b23c f92d 65be 4b03 72bd 3c9f 753e
00000190: e341 babe 0510 ef3e 014f c83e f79e 4f3e
000001a0: 25f7 913d d30d 98be 9c28 77bd 38b4 6abe
000001b0: b986 82be e3cd 03be b1e4 9c3c 4524 ea3c
000001c0: 10ac 86be 01e1 86be 9201 f33e 2468 c43d
000001d0: 3069 c83e 55dc 97be 7563 c5bd b95d ec3e
000001e0: 1510 d4bd bb91 3abd 8fc1 5f3e 2870 bf3e
000001f0: 9f75 7dbe 8fcd aa3e d835 203f ca74 723e

weight f4 [2, 128]
0.06070857 0.13896513 0.15079364 0.12611401 0.042980347 -0.1059823 0.034929965 -0.08690903
0.14301153 0.042651538 0.119955875 0.1155234 0.0020299347 -0.10671251 0.15000768 0.11438139
0.18005376 0.038565442 0.13529445 0.030830968 0.020658733 0.08193673 0.029472494 -0.18481597
0.09370264 0.0014607098 -0.034448113 -0.11427779 0.05902451 0.09561775 0.1015771 0.0038700632
-0.09614525 0.07644312 0.07784993 0.019604849 0.0288605 0.055355847 -0.058497798 -0.06957527
0.05050241 0.054931764 -0.16712986 -0.11425475 -0.08248436 0.15037659 0.029215986 -0.06577257
0.16662458 -0.09477891 0.14258318 -0.074995056 0.10034293 0.018216753 0.10423135 -0.029085808
-0.013467303 -0.070363075 -0.07780988 -0.02744292 0.004974382 0.07952073 -0.033060987 -0.13478464
-0.008402837 0.08685849 -0.086303115 -0.067267835 0.036836155 0.03432122 -0.023171129 0.09979216
-0.06440228 0.09505083 -0.0452119 -0.087000266 -0.016604304 -0.12263182 0.10790039 0.12653695
-0.14349262 0.09424846 0.09669934 -0.04019925 -0.15892108 0.09505024 -0.10628607 -0.030029273
-0.052023306 0.15645891 0.061522607 -0.16863294 -0.15721425 0.052864924 -0.1137927 -0.13988186
-0.16632013 -0.04432314 -0.088334456 0.09747508 -0.13734372 0.08750622 -0.12344777 -0.11858544
-0.14887495 -0.008435765 0.15454036 -0.07380167 0.0129012 -0.011817009 0.17447548 0.05871657
0.06277223 -0.01938631 0.0816575 0.16084969 -0.109776 -0.12428904 -0.046615884 -0.023328323
-0.034852773 -0.019046715 0.089788675 0.14345832 -0.052971523 -0.09762527 -0.0917947 -0.030707506
-0.0541997 -0.115952015 -0.11894797 0.00085730164 -0.123030625 0.08632612 -0.113711126 0.20910351
-0.11273316 -0.13249554 -0.15438733 -0.10133739 0.08118268 0.03579122 -0.13011806 -0.14382541
-0.061755236 -0.07523862 -0.10758149 -0.013681968 0.08640263 -0.04873487 -0.0006575046 0.12648661
-0.18374647 0.06427839 -0.12237911 0.09857434 -0.063175656 -0.18337275 -0.06164795 -0.100501
0.0563886 -0.05273591 -0.082871474 -0.011426218 -0.0010122762 -0.06795576 0.030192202 -0.022421109
-0.11399825 -0.0458735 0.05132875 0.13952991 0.14350703 -0.027405161 -0.0571008 0.08212231
-0.10754017 0.14869688 -0.027533656 0.14876533 -0.09362646 0.03232187 -0.1211331 0.041900627
-0.028367274 0.15282355 0.07211592 0.113878295 -0.14628543 0.05363182 0.0054078605 0.08095877
-0.03716507 -0.11533136 0.02378354 0.036085963 0.008462234 -0.097534634 -0.03240775 -0.12495369
-0.010379114 -0.013065524 0.013203876 0.0357396 -0.079052545 0.084272265 -0.11258528 -0.052000783
0.014535587 -0.15602162 -0.09961907 0.18487409 0.12612192 -0.14496551 0.09600903 0.101050906
0.18005633 -0.045509275 -0.10375307 0.044951085 0.17135948 -0.099558465 0.15120827 0.2148594
0.09522126 0.10669916 0.0518955 -0.058097422 0.047639813 -0.12434174 0.0629611 0.07578371
0.15976603 0.09762082 -0.052867655 0.1636477 0.038624667 0.06500055 -0.09077844 0.0058097104
-0.150712 0.10543265 -0.058387045 -0.1211864 0.050999254 0.08728192 0.01185411 0.05102006
0.16493401 0.010020046 -0.06699216 -0.10786222 0.095818706 0.053463954 0.101985306 0.08485475
00000000: 8da9 783d e04c 0e3e a669 1a3e 0824 013e
00000010: 290c 303d 400d d9bd b912 0f3d 5dfd b1bd
00000020: 9d71 123e 61b3 2e3d 6dab f53d 8897 ec3d
00000030: a708 053b 178c dabd 9d9b 193e ca40 ea3d
00000040: 0360 383e ccf6 1d3d a18a 0a3e 3a91 fc3c
00000050: 813c a93c 72ce a73d 4d70 f13c 6640 3dbe
00000060: 2be7 bf3d 4a75 bf3a 7719 0dbd 790a eabd
00000070: afc3 713d 3dd3 c33d a807 d03d e3a0 7d3b
00000080: cde7 c4bd 368e 9c3d c96f 9f3d 599a a03c
00000090: db6c ec3c d0bc 623d 639b 6fbd 7b7d 8ebd
000000a0: 9ddb 4e3d 2100 613d 1724 2bbe 65fe e9bd
000000b0: 8fed a8bd 52fc 193e 5d56 ef3c c5b3 86bd
000000c0: a29f 2a3e 721b c2bd 5301 123e 0297 99bd
000000d0: 9880 cd3d 4d3b 953c 3f77 d53d 5c45 eebc
000000e0: f6a5 5cbc 841a 90bd c95a 9fbd f9cf e0bc
000000f0: 2400 a33b c4db a23d f56a 07bd fc04 0abe
00000100: 0eac 09bc dde2 b13d b0bf b0bd b8c3 89bd
00000110: 82e1 163d 6894 0c3d 61d1 bdbc d55f cc3d
00000120: 58e5 83bd 02aa c23d 1d30 39bd 322d b2bd
00000130: c005 88bc 6426 fbbd e1fa dc3d e792 013e
00000140: bbef 12be 5605 c13d 4e0a c63d f8a7 24bd
00000150: 35bc 22be b3a9 c23d 83ac d9bd f3ff f5bc
00000160: 6416 55bd c436 203e 21ff 7b3d 1dae 2cbe
00000170: c6fc 20be e488 583d 260c e9bd 313d 0fbe
00000180: d34f 2abe 2e8c 35bd b2e8 b4bd 04a1 c73d
00000190: d5a3 0cbe 7636 b33d 2fd2 fcbd ecdc f2bd
000001a0: ad72 18be 2a36 0abc d43f 1e3e 5425 97bd
000001b0: 8e5f 533c 219c 41bc b3a9 323e c980 703d
000001c0: ba8e 803d 0ad0 9ebc 0c3c a73d c8b5 243e
000001d0: 3dd2 e0bd 418b febd 4cf0 3ebd 0a1b bfbc
000001e0: c8c1 0ebd db07 9cbc 20e3 b73d bde6 123e
000001f0: abf8 58bd c2ef c7bd dcfe bbbd 4f8e fbbc
00000200: 8100 5ebd 4078 edbd fe9a f3bd 8abc 603a
00000210: 7bf7 fbbd c0cb b03d 61e1 e8bd 3b1f 563e
00000220: a5e0 e6bd e9ac 07be b617 1ebe fa89 cfbd
00000230: 1b43 a63d d099 123d ab3d 05be f846 13be
00000240: 0ff3 7cbd b516 9abd af53 dcbd 552a 60bc
00000250: ddf3 b03d 379e 47bd 635c 2cba b585 013e
00000260: 0928 3cbe 63a4 833d e6a1 fabd 58e1 c93d
00000270: 3d62 81bd 11c6 3bbe 9082 7cbd 78d3 cdbd
00000280: bcf7 663d 9c01 58bd 85b8 a9bd 0835 3bbc
00000290: 5aae 84ba 642c 8bbd a355 f73c 79ac b7bc
000002a0: ea77 e9bd dae5 3bbd 183e 523d eee0 0e3e
000002b0: 82f3 123e ca80 e0bc 87e2 69bd be2f a83d
000002c0: 053e dcbd ff43 183e 438e e1bc f055 183e
000002d0: 3bbf bfbd f063 043d a114 f8bd fe9f 2b3d
000002e0: 7c62 e8bc c77d 1c3e 83b1 933d 0639 e93d
000002f0: d9cb 15be 0aad 5b3d 6c34 b13b b6cd a53d
00000300: 673a 18bd d932 ecbd b3d5 c23c e0ce 133d
00000310: 2fa5 0a3c 3dc0 c7bd fdbd 04bd b8e7 ffbd
00000320: 290d 2abc c810 56bc 1255 583c b063 123d
00000330: 4de6 a1bd f096 ac3d 1c93 e6bd c6fe 54bd
00000340: ac26 6e3c 22c4 1fbe 1505 ccbd a24f 3d3e
00000350: 1b26 013e d771 14be 62a0 c43d c7f3 ce3d
00000360: b060 383e ef67 3abd 7d7c d4bd a11e 383d
00000370: dc78 2f3e 4fe5 cbbd 57d6 1a3e 1a04 5c3e
00000380: 5d03 c33d 1785 da3d 6090 543d 90f7 6dbd
00000390: f721 433d e2a6 febd c0f1 803d 7d34 9b3d
000003a0: b599 233e 6ded c73d c18b 58bd 4393 273e
000003b0: e634 1e3d 021f 853d 0cea b9bd 625f be3b
000003c0: 3f54 1abe 13ed d73d 4127 6fbd 9330 f8bd
000003d0: 98e4 503d ddc0 b23d be37 423c 69fa 503d
000003e0: 76e4 283e 1e2b 243c 3033 89bd dee6 dcbd
000003f0: 993c c43d 05fd 5a3d acdd d03d 54c8 ad3d

bias f4 [2]
0.034265228 0.028593108
00000000: b259 0c3d 183c ea3c

weight f4 [1, 128]
0.054668237 -0.037872873 0.103169575 0.12714577 0.026516888 0.19569018 0.18651919 0.1833398
0.16442916 0.0073479773 0.13427635 0.12964992 0.0826013 0.169343 0.0823833 0.091700315
0.15500703 0.10715287 0.13729088 0.09128887 -0.0038891274 0.15639429 0.014766568 0.15330707
0.0968702 0.06763493 0.09363065 0.1714733 0.08794337 0.16048646 0.19020033 0.14703937
0.06689626 0.17560124 0.07844261 0.04566905 0.044421237 0.14678329 0.042679146 0.10976312
0.18716381 0.1201595 0.12823357 0.10115793 0.019605685 0.19036351 0.082654506 0.1935338
0.06913106 0.069055825 -0.0019461035 0.08169536 0.15947853 0.10505042 0.1851441 0.03707054
0.0069016865 0.08635418 0.15298283 0.09445422 0.007040896 0.082349755 0.1934204 0.033410147
0.12026758 0.09494681 0.08838913 0.18218213 -0.017663833 0.13211621 0.034901634 0.021831248
0.115122624 0.15626341 0.002869594 0.0636358 0.043455694 0.16368021 0.18668301 0.10264718
0.06818525 0.05632434 0.04941109 0.1001801 0.109715015 0.13498613 0.12992199 0.13618873
0.13832724 0.016054017 0.17327595 0.11655679 0.12846804 0.023207989 0.14991169 0.12416606
0.1639691 0.10703362 0.09014536 0.06144142 -0.0058246045 0.19114718 0.08151586 0.023891913
0.04969775 0.011059772 0.13024682 0.18090177 0.07943151 0.011434037 0.19959079 0.06737785
0.05287842 0.003732443 0.1127998 0.15304683 0.11105678 0.09126844 0.1764054 0.09281151
0.04629291 0.1586914 0.062484138 0.120372415 0.08831989 0.09599552 0.12924105 0.0216685
00000000: cdeb 5f3d 9620 1bbd 924a d33d 8032 023e
00000010: f239 d93c 0263 483e e3fe 3e3e 6ebd 3b3e
00000020: 1e60 283e 4dc7 f03b bd7f 093e f3c2 043e
00000030: df2a a93d 4068 2d3e 93b8 a83d 60cd bb3d
00000040: 2aba 1e3e f772 db3d fb95 0c3e a9f5 ba3d
00000050: bbe0 7ebb d325 203e 7aef 713c 87fc 1c3e
00000060: e263 c63d 2f84 8a3d 6dc1 bf3d b296 2f3e
00000070: a71b b43d 9056 243e e0c3 423e 7d91 163e
00000080: e800 893d d0d0 333e 85a6 a03d 780f 3b3d
00000090: 0bf3 353d 5c4e 163e 54d0 2e3d 7dcb e03d
000000a0: dfa7 3f3e 2f16 f63d a94f 033e e42b cf3d
000000b0: 1a9c a03c a7ee 423e c446 a93d b92d 463e
000000c0: 9694 8d3d 246d 8d3d 6614 ffba e64f a73d
000000d0: 574e 233e ad24 d73d 6a96 3d3e 47d7 173d
000000e0: 8b27 e23b 76da b03d 88a7 1c3e 3771 c13d
000000f0: 51b7 e63b fda6 a83d ff0f 463e 14d9 083d
00000100: d94e f63d 7973 c23d 5c05 b53d f48d 3a3e
00000110: beb3 90bc 7949 073e 04f5 0e3d 72d7 b23c
00000120: 69c5 eb3d 8403 203e cc0f 3c3b 7c53 823d
00000130: 99fe 313d c99b 273e d529 3f3e af38 d23d
00000140: b5a4 8b3d 5ab4 663d 4863 4a3d 392b cd3d
00000150: 44b2 e03d ce39 0a3e 450a 053e 0f75 0b3e
00000160: a8a5 0d3e b783 833c 406f 313e 54b5 ee3d
00000170: 208d 033e ae1e be3c 7382 193e c64a fe3d
00000180: 84e7 273e 7134 db3d 219e b83d 00aa 7b3d
00000190: 53dc bebb 16bc 433e caf1 a63d f9b8 c33c
000001a0: de8f 4b3d 0c34 353c 6c5f 053e 503e 393e
000001b0: fdac a23d d455 3b3c 8761 4c3e 66fd 893d
000001c0: 0b97 583d 019c 743b 9503 e73d 4fb8 1c3e
000001d0: bd71 e33d f3ea ba3d 9ea3 343e f613 be3d
000001e0: a29d 3d3d 0080 223e 5eef 7f3d d085 f63d
000001f0: 0fe1 b43d 4d99 c43d c457 043e 2382 b13c
