model/A2C_model_1.pt (torch, 7543 bytes, 5 tensors)

weight f4 [128, 4]
-0.07275914 -0.09949104 0.56078285 0.26341188 0.43395448 0.42230728 -0.17768835 -0.3004117
0.32477424 0.25901982 0.10810104 0.5846638 0.2629487 -0.41450825 0.38417363 0.5179024
-0.4964593 0.013733112 -0.34632352 -0.3739565 -0.071088605 0.25558525 -0.32793897 -0.21473731
0.34765217 0.5055012 0.031502213 -0.16795944 -0.13376307 0.14328799 -0.22005129 -0.4755116
0.02695715 0.50860643 -0.3269201 -0.2781577 -0.24510472 0.27260205 0.27899957 0.20765468
0.060566783 -0.17448281 0.05524521 0.43433177 -0.40501574 -0.52471256 -0.30268615 0.50422376
0.24954192 0.002861525 0.294704 0.290021 0.53971225 0.32422936 -0.39520887 0.32319897
0.11214769 0.035536204 -0.08632325 0.23606545 -0.43656698 -0.11110247 -0.29065317 0.4294097
0.5164096 0.326908 -0.49699157 -0.1472409 -0.038975358 0.14107603 -0.4978068 0.016627073
0.27194655 -0.27079484 0.51103026 -0.037231836 -0.01155364 -0.4037085 -0.28621897 0.043662455
-0.027542463 0.1508814 -0.037936766 -0.35002097 0.358743 0.21015595 -0.33944547 -0.2231852
0.2787165 -0.048745334 -0.46209115 -0.007142842 0.5436159 0.116216004 0.061860576 -0.0925733
0.3010539 0.2511413 0.011955812 0.3886221 0.26834646 0.57638305 -0.028200006 0.18374936
0.41522083 0.064579435 -0.372156 0.5284655 -0.011437466 -0.015532005 0.33617422 -0.31286487
-0.43138817 0.27388614 0.30345622 -0.37956122 0.050752457 -0.49954855 -0.6336178 -0.517495
-0.1720879 0.049829353 -0.20296688 -0.56668496 0.5476771 -0.40980637 -0.5812467 -0.52009183
0.4058476 0.5359422 -0.33342546 -0.113057174 0.05488237 0.24752334 0.03582077 -0.20075387
0.31393993 0.3338493 -0.31855953 -0.15086642 -0.33725512 -0.46566138 0.26297814 -0.13780811
-0.24147773 -0.18512197 0.18242759 0.1556869 0.31621486 0.12330855 -0.4713274 -0.2610262
0.14780702 0.5027466 -0.003626834 -0.5408027 0.29237875 0.34177992 0.31882855 -0.37528166
0.13446608 -0.55769056 0.19403985 0.23512493 -0.29989725 -0.06525537 -0.25474823 -0.41671643
-0.2906885 -0.05937233 -0.04375996 -0.5229256 0.18338174 -0.16970319 0.14845747 -0.04115939
-0.2604649 0.18566819 -0.034031652 0.109139375 0.062004924 0.18821585 -0.028074402 0.43475986
0.5271217 0.5497253 -0.35552517 -0.3423868 0.36873627 -0.46406662 0.21911722 0.49412233
-0.43262383 0.07697484 -0.053145576 0.38476652 -0.4820999 -0.5303325 0.30044168 0.29370126
0.24753378 0.26555926 -0.021193855 0.44680795 0.032811522 0.09557259 -0.4296342 0.057470202
-0.15453096 0.3915365 -0.062241007 -0.24499972 -0.11163306 -0.48748165 0.1356935 -0.4505574
0.47496268 -0.5981812 0.52726144 0.33023334 -0.1634044 0.4407745 0.23042138 0.5530684
0.038183425 0.07056307 -0.023158036 0.60556084 -0.20544437 0.31835562 0.18135367 -0.0109942425
-0.5160973 -0.5903942 -0.3355728 0.26947623 -0.24249277 0.30120775 0.20990317 -0.3950964
-0.22401536 -0.50923884 -0.13917638 0.57495224 0.4254952 -0.13525894 0.18478765 -0.57561266
-0.23157655 0.1649928 -0.15630777 0.11989702 0.13573308 0.22114488 0.3800544 -0.3626229
00000000: be02 95bd f5c1 cbbd 778f 0f3f ecdd 863e
00000010: 482f de3e a938 d83e eff3 35be 90cf 99be
00000020: cf48 a63e 3f9e 843e 1464 dd3d 87ac 153f
00000030: 36a1 863e 6d3a d4be 68b2 c43e 4095 043f
00000040: ea2f febe d900 613c 5151 b1be 3a77 bfbe
00000050: e796 91bd 12dc 823e 9ee7 a7be 19e4 5bbe
00000060: 77ff b13e 8768 013f 7708 013d 8ffd 2bbe
00000070: 30f9 08be 16ba 123e 2055 61be 4276 f3be
00000080: 3ed5 dc3c 0834 023f 1262 a7be b06a 8ebe
00000090: bbfc 7abe 7f92 8b3e 08d9 8e3e 6ea3 543e
000000a0: e014 783d 9fab 32be cd48 623d bc60 de3e
000000b0: 395e cfbe 9053 06bf aef9 9abe cf14 013f
000000c0: eb87 7f3e 6c88 3b3b 71e3 963e a27d 943e
000000d0: 952a 0a3f 6401 a63e d158 cabe 567a a53e
000000e0: b0ad e53d 698e 113d 3eca b0bd 24bb 713e
000000f0: b585 dfbe b189 e3bd 7ed0 94be 97db db3e
00000100: 6b33 043f 7c60 a73e ae75 febe 52c6 16be
00000110: a0a4 1fbd 3c76 103e 88e0 febe 8035 883c
00000120: 943c 8b3e 9fa5 8abe e1d2 023f 6980 18bd
00000130: 7a4b 3dbc e1b2 cebe 4b8b 92be 67d7 323d
00000140: bba0 e1bc a780 1a3e 9563 1bbd f335 b3be
00000150: 2aad b73e 1f33 573e cccb adbe a98a 64be
00000160: eeb3 8e3e 30a9 47bd 3697 ecbe 800e eabb
00000170: 692a 0b3f a802 ee3d 8461 7d3d 1297 bdbd
00000180: bd23 9a3e 9895 803e 4fe2 433c 7af9 c63e
00000190: b564 893e d78d 133f b303 e7bc cb28 3c3e
000001a0: d397 d43e 3942 843d 3b8b bebe 8449 073f
000001b0: 3664 3bbc f379 7ebc 071f ac3e d32f a0be
000001c0: e9de dcbe ce3a 8c3e 9d5e 9b3e d955 c2be
000001d0: cfe1 4f3d d4c4 ffbe c734 22bf 8d7a 04bf
000001e0: cf37 30be dd19 4c3d 8dd6 4fbe 4412 11bf
000001f0: 9134 0c3f 24d2 d1be 95cc 14bf bd24 05bf
00000200: 42cb cf3e 8233 093f beb6 aabe 858a e7bd
00000210: 56cc 603d c276 7d3e cdb8 123d 6c92 4dbe
00000220: bcbc a03e 4cee aa3e 3c1a a3be ba7c 1abe
00000230: b4ac acbe 2b6b eebe 12a5 863e 921d 0dbe
00000240: f045 77be 9d90 3dbe 4cce 3a3e 636c 1f3e
00000250: eae6 a13e 3189 fc3d d351 f1be 3aa5 85be
00000260: b95a 173e 00b4 003f 2db0 6dbb 0c72 0abf
00000270: abb2 953e c7fd ae3e 7f3d a33e eb24 c0be
00000280: 7ab1 093e cfc4 0ebf 62b2 463e 97c4 703e
00000290: 228c 99be 9ca4 85bd 5c6e 82be db5b d5be
000002a0: 20d5 94be 6630 73bd a53d 33bd 74de 05bf
000002b0: 6cc8 3b3e acc6 2dbe 3c05 183e c096 28bd
000002c0: a85b 85be cd1f 3e3e c664 0bbd 7784 df3d
000002d0: e0f8 7d3d a8bb 403e 4afc e5bc d898 de3e
000002e0: 73f1 063f ccba 0c3f 6507 b6be 534d afbe
000002f0: 00cb bc3e 249a edbe 4460 603e 9afd fc3e
00000300: df80 ddbe fca4 9d3d 2daf 59bd 1e00 c53e
00000310: ccd5 f6be dfc3 07bf 7ed3 993e 0360 963e
00000320: 7f79 7d3e 62f7 873e bc9e adbc 03c4 e43e
00000330: 6065 063d 90bb c33d 04f9 dbbe e065 6b3d
00000340: 5d3d 1ebe 7977 c83e 6df0 7ebd 35e1 7abe
00000350: e09f e4bd 3297 f9be 3df3 0a3e 76af e6be
00000360: 4f2e f33e 6722 19bf 9bfa 063f 5814 a93e
00000370: 7c53 27be 32ad e13e 95f3 6b3e e495 0d3f
00000380: 3966 1c3d 5f83 903d ecb5 bdbc 0906 1b3f
00000390: 0260 52be 82ff a23e c7b4 393e 3221 34bc
000003a0: f41e 04bf 1324 17bf 33d0 abbe caf8 893e
000003b0: 0650 78be e737 9a3e dbf0 563e 134a cabe
000003c0: 4864 65be 7a5d 02bf 4184 0ebe 1230 133f
000003d0: 82da d93e 5281 0abe f938 3d3e 5a5b 13bf
000003e0: 6722 6dbe dff3 283e 250f 20be 928c f53d
000003f0: 9dfd 0a3e ce73 623e 7e96 c23e b5a9 b9be

bias f4 [128]
-0.20026374 0.33240965 0.20073462 -0.39028937 -0.06957789 0.015087245 0.34279594 0.46970794
0.23265173 0.2303513 -0.22721998 -0.031783115 0.47138047 -0.4374567 0.15741858 0.17157334
0.19218403 -0.3515001 0.35940176 -0.17577156 0.5444082 0.40872243 -0.42260003 0.16204095
-0.023489356 0.16494288 0.2937264 0.056892343 0.27528667 -0.12979382 -0.30516577 0.53979194
0.5119255 -0.11724149 0.2858706 0.35969183 0.30473706 0.08840611 0.10235043 -0.29853103
-0.30748713 0.25980878 0.4789824 -0.39509153 -0.32174155 0.2338587 0.008376197 -0.30340663
0.28762394 0.2261742 0.31038716 -0.46108657 0.2067896 0.0091412105 0.022553967 0.21336325
-0.34395897 -0.054361798 -0.08507889 0.4137695 -0.36205637 0.019837398 0.037565604 -0.17640467
0.39182478 -0.29833856 0.14182171 0.28808096 0.33761996 0.16979006 0.031973395 0.601841
-0.21252364 0.30653748 0.2776908 -0.31217426 -0.3339372 -0.43983784 -0.104530476 -0.037222415
-0.20271887 -0.12416309 0.12605587 0.30361706 -0.4284935 0.43899786 -0.20122685 -0.03104652
-0.34339666 0.2962485 0.33536774 -0.127019 0.22463615 0.35944977 0.47136575 0.09492866
-0.14024411 -0.06917013 -0.15415254 0.59295106 -0.12799785 0.44868368 -0.24141857 0.083835624
-0.3641472 0.033560503 0.24686721 0.1410934 0.037919838 0.069830105 -0.33793628 0.07471518
-0.029983304 0.46290863 0.041813403 0.18110341 0.33529648 0.23355123 -0.20350485 0.32313225
0.2294194 0.3676987 -0.29920384 -0.16691342 0.48130304 -0.24194124 0.0797426 -0.16335818
00000000: f011 4dbe 9931 aa3e 608d 4d3e 02d4 c7be
00000010: da7e 8ebd 7e30 773c f382 af3e 8f7d f03e
00000020: 413c 6e3e 36e1 6b3e 5bac 68be 032f 02bd
00000030: c858 f13e 53fa dfbe 5632 213e ecb0 2f3e
00000040: e4cb 443e d2f7 b3be 8203 b83e 76fd 33be
00000050: 565e 0b3f 1144 d13e 085f d8be 10ee 253e
00000060: c06c c0bc c9e6 283e 4f63 963e f207 693d
00000070: 60f2 8c3e ace8 04be b03e 9cbe ce2f 0a3f
00000080: 8d0d 033f 4e1c f0bd a25d 923e 8729 b83e
00000090: 7f06 9c3e 430e b53d 1a9d d13d 0fd9 98be
000000a0: f46e 9dbe a805 853e 2e3d f53e 7049 cabe
000000b0: 4fbb a4be a878 6f3e 513c 093c 1d58 9bbe
000000c0: 7243 933e 369a 673e 11eb 9e3e 8a13 ecbe
000000d0: a7c0 533e 04c5 153c 19c3 b83c e57b 5a3e
000000e0: 641b b0be 7aaa 5ebd d73d aebd 99d9 d33e
000000f0: 745f b9be 0a82 a23c 64de 193d 6da3 34be
00000100: 429d c83e d5bf 98be b639 113e 597f 933e
00000110: 86dc ac3e 72dd 2d3e 89f6 023d 4012 1a3f
00000120: cc9f 59be 7bf2 9c3e 7d2d 8e3e 4ed5 9fbe
00000130: d1f9 aabe 6d32 e1be 1314 d6bd 8876 18bd
00000140: 8995 4fbe 3849 febd ca14 013e b273 9b3e
00000150: 8063 dbbe 54c4 e03e 690e 4ebe 4655 febc
00000160: b0d1 afbe e2ad 973e 52b5 ab3e 4511 02be
00000170: 0507 663e cd09 b83e da56 f13e f569 c23d
00000180: 279c 0fbe 12a9 8dbd 2ada 1dbe a4cb 173f
00000190: de11 03be deb9 e53e 6e36 77be 03b2 ab3d
000001a0: 8071 babe bd76 093d c2ca 7c3e ca7a 103e
000001b0: d551 1b3d 1603 8f3d fc05 adbe 4604 993d
000001c0: 8c9f f5bc 5c02 ed3e 8844 2b3d 2c73 393e
000001d0: fbab ab3e 0e28 6f3e 9363 50be 9771 a53e
000001e0: ebec 6a3e 0143 bc3e 3f31 99be 5aeb 2abe
000001f0: 5a6d f63e 72bf 77be 1750 a33d 5e47 27be

weight f4 [2, 128]
-0.036418635 0.111277744 -0.08570529 -0.04255953 0.047020126 0.16237265 0.005123307 0.09873421
0.121202655 -0.14099127 -0.064404905 -0.08245154 -0.030958997 -0.07936667 -0.027449016 -0.049139157
0.095596924 0.02641809 -0.090390876 0.038648184 0.11507601 0.16397668 -0.02215895 -0.0024239768
-0.15640275 -0.034495912 -0.04702376 0.03753976 0.028219618 0.18086824 0.09608771 0.08216029
0.013244366 0.08293126 0.12654983 0.011866576 -0.16116661 0.05623295 0.09090726 0.163235
-0.10066701 0.08285633 0.07840136 -0.018322833 0.12570892 -0.19908862 0.02767932 -0.076392554
-0.15476492 -0.15148014 -0.15518887 -0.03964776 0.1258819 0.11572665 -0.13599698 -0.12860823
-0.040006887 -0.12151376 -0.11033434 0.15355748 -0.10120666 0.025405345 -0.047050007 0.12995553
0.064306535 0.052116666 -0.19846614 -0.17449088 0.008834274 -0.040197697 -0.08266499 0.09659406
-0.1402425 -0.08255183 0.2001876 -0.012129419 -0.052530907 0.09763398 -0.008559409 0.047334474
0.02151932 -0.10381174 0.17106047 -0.14376798 -0.0106437225 -0.13426262 0.027467968 -0.042380117
0.1317462 -0.13167022 -0.11662668 -0.02212376 -0.1454254 0.12986338 0.044488132 0.12803121
-0.023282237 0.15493487 -0.1885882 0.0939912 -0.21446812 0.07789554 -0.037945718 0.11610956
-0.054661322 0.09930973 -0.0724143 -0.06757077 -0.02013873 0.11427933 0.01640486 -0.11473657
-0.12822428 0.0665634 0.0076033333 0.116707504 -0.15986435 0.10520632 -0.12054769 0.026473897
-0.11897331 -0.022558017 -0.07842762 -0.032148276 -0.0495619 -0.096881166 0.051612884 -0.16331463
-0.01323802 -0.034284398 0.100994185 0.010749017 -0.12330701 -0.109183155 0.0027943968 -0.15705106
-0.122194916 0.032733012 0.05390299 0.006307396 0.12659903 0.12383283 0.034785774 0.15241458
-0.09383956 0.050554357 0.018609526 -0.056755867 -0.028850164 -0.07235347 0.0717661 0.0022591976
0.09257528 0.05565982 0.023669219 -0.039493125 -0.0106085185 -0.12627393 -0.12372387 -0.19090366
-0.03607616 -0.07269729 -0.09016995 0.010161053 0.1641832 -0.101769716 -0.13179469 -0.06870377
0.04545964 -0.03047007 -0.17652458 0.052982606 -0.12586103 0.051269077 0.0065644043 0.06955318
0.06784407 0.08312867 0.08206962 0.06172172 -0.13665804 -0.20990333 0.10815543 0.05876804
0.17427103 0.06703171 0.1625552 -0.04155822 0.1724743 -0.08495753 0.075574234 -0.06967446
-0.10768421 -0.031854782 0.17860013 0.057674248 -0.08110393 0.17317796 0.16192317 -0.0112037165
0.13269486 -0.060238484 -0.037058465 -0.008184634 -0.044009026 -0.012285629 -0.0344843 -0.10504454
-0.018177789 0.10553836 -0.14804506 0.07029245 -0.020319285 0.040950526 -0.041671157 0.03974033
-0.1706037 0.028446913 0.02045184 0.05941234 0.0562473 -0.013248161 0.017220689 -0.19650994
-0.06941379 -0.14959444 0.14981285 -0.08571857 0.0582335 -0.01719424 0.057550475 -0.0051747626
0.07613907 -0.09446247 0.078137495 0.17105466 0.07046157 -0.04287091 -0.051921386 0.09269445
0.12179106 -0.10356993 -0.098810844 -0.1836746 0.07589634 -0.051326174 0.019026315 -0.10869606
0.14379522 0.07294837 0.026896738 0.04837897 0.1671645 -0.015919939 -0.0930314 0.023792636
00000000: b52b 15bd 96e5 e33d 4186 afbd e752 2ebd
00000010: 2d98 403d 0445 263e 6ae1 a73b 2935 ca3d
00000020: 1939 f83d 0460 10be b8e6 83bd 5adc a8bd
00000030: b99d fdbc fe8a a2bd c2dc e0bc 2446 49bd
00000040: 52c8 c33d c06a d83c da1e b9bd 8f4d 1e3d
00000050: f9ac eb3d 81e9 273e b086 b5bc 95db 1ebb
00000060: 0b28 20be 964b 0dbd fc9b 40bd 4bc3 193d
00000070: d42c e73c 8635 393e a2c9 c43d a743 a83d
00000080: e6fe 583c ddd7 a93d 4796 013e 076c 423c
00000090: dc08 25be 8654 663d 962d ba3d 1327 273e
000000a0: 812a cebd 94b0 a93d e490 a03d c419 96bc
000000b0: d7b9 003e e3dd 4bbe bebf e23c b373 9cbd
000000c0: b27a 1ebe 9c1d 1bbe d5e9 1ebe b165 22bd
000000d0: 2fe7 003e 1802 ed3d cb42 0bbe e0b1 03be
000000e0: 43de 23bd 35dc f8bd f8f6 e1bd 2c3e 1d3e
000000f0: 7045 cfbd df1e d03c 82b7 40bd 1013 053e
00000100: 25b3 833d 4978 553d b53a 4bbe bdad 32be
00000110: a1bd 103c 57a6 24bd 434c a9bd 1bd3 c53d
00000120: bb9b 0fbe ef10 a9bd fafd 4c3e 78ba 46bc
00000130: a62a 57bd 53f4 c73d c33c 0cbc cbe1 413d
00000140: 4949 b03c 409b d4bd 7a2a 2f3e ea37 13be
00000150: 0263 2ebc 247c 09be 8104 e13c c696 2dbd
00000160: 7ae8 063e 8fd4 06be f8d9 eebd e33c b5bc
00000170: 65ea 14be e8fa 043e 3039 363d 9d1a 033e
00000180: 64ba bebc 3fa7 1e3e 441d 41be 757e c03d
00000190: 889d 5bbe b287 9f3d f86c 1bbd d9ca ed3d
000001a0: 8de4 5fbd e662 cb3d f34d 94bd 8b62 8abd
000001b0: faf9 a4bc 480b ea3d 7c63 863c 02fb eabd
000001c0: 3a4d 03be 6452 883d 6225 f93b 5804 ef3d
000001d0: 7bb3 23be 6976 d73d b5e1 f6bd c9df d83c
000001e0: 47a8 f3bd 97cb b8bc a99e a0bd e9ad 03bd
000001f0: 6b01 4bbd a269 c6bd 0868 533d f33b 27be
00000200: 48e4 58bc cc6d 0cbd 0ad6 ce3d a51c 303c
00000210: 6388 fcbd 6b9b dfbd 3322 373b fed1 20be
00000220: 5441 fabd 0d13 063d 62c9 5c3d 46ae ce3b
00000230: 2da3 013e 119c fd3d 877b 0e3d 9112 1c3e
00000240: f52e c0bd 1612 4f3d 0173 983c d778 68bd
00000250: 2e57 ecbc 0e2e 94bd 1bfa 923d 0c0f 143b
00000260: 1c98 bd3d 8dfb 633d f3e5 c13c 8bc3 21bd
00000270: 5acf 2dbc f44d 01be f162 fdbd 407c 43be
00000280: 98c4 13bd 51e2 94bd 06ab b8bd 8c7a 263c
00000290: a41f 283e a46c d0bd 30f5 06be 90b4 8cbd
000002a0: e333 3a3d 5e9c f9bc dcc2 34be 4a04 593d
000002b0: b7e1 00be 86ff 513d 371a d73b e671 8e3d
000002c0: d5f1 8a3d 5d3f aa3d 1e14 a83d eacf 7c3d
000002d0: 16f0 0bbe e6f0 56be 9880 dd3d c2b6 703d
000002e0: 1b74 323e ec47 893d df74 263e f438 2abd
000002f0: 1a9d 303e 37fe adbd aac6 9a3d 7cb1 8ebd
00000300: 8a89 dcbd 297a 02bd f4e2 363e d53b 6c3d
00000310: d119 a6bd 9055 313e 30cf 253e cb8f 37bc
00000320: 29e1 073e a1bc 76bd 9eca 17bd d818 06bc
00000330: cf42 34bd aa49 49bc 693f 0dbd 9721 d7bd
00000340: 96e9 94bc 7f24 d83d 2099 17be 7df5 8f3d
00000350: a174 a6bc bdbb 273d 60af 2abd c2c6 223d
00000360: bdb2 2ebe 8009 e93c 9e8a a73c 5b5a 733d
00000370: 9263 663d d10e 59bc 6712 8d3c e739 49be
00000380: d128 8ebd 492f 19be 8a68 193e 388d afbd
00000390: 4086 6e3d efda 8cbc 0cba 6b3d 0e91 a9bb
000003a0: cdee 9b3d 8a75 c1bd 8d06 a03d f428 2f3e
000003b0: 284e 903d 6899 2fbd 85ab 54bd 96d6 bd3d
000003c0: 976d f93d 791c d4bd 575d cabd 3215 3cbe
000003d0: 8a6f 9b3d 653b 52bd 13dd 9b3c 0a9c debd
000003e0: 0e3f 133e f465 953d 8c56 dc3c 0729 463d
000003f0: 2c2d 2b3e 886a 82bc 3f87 bebd c6e8 c23c

bias f4 [2]
-0.06430433 0.13680688
00000000: fdb1 83bd 1a17 0c3e

weight f4 [1, 128]
0.09548368 0.15855508 0.18308464 0.07783658 0.05718881 0.15639047 0.10361991 0.17769192
0.200171 0.16067548 0.004451898 0.091753416 0.16900612 0.02004788 0.044270933 0.13021235
0.07462791 0.015683696 0.18908945 0.14557262 0.08892009 0.042568248 -0.023128979 0.090530716
0.05331066 0.18228826 0.17336875 0.20522603 0.05331093 0.20569958 0.08971078 0.17568952
0.12079327 0.13184664 0.04125091 0.14066462 0.045729827 0.07068325 0.034848534 0.19044644
0.09111969 0.09884941 0.10910801 -0.0082146 0.031048296 0.06721188 0.18190554 0.12035712
0.042933725 0.03944758 0.0606218 -0.066642135 0.07764545 0.08868208 0.12950464 0.09518055
0.15482092 0.13149142 0.19176334 0.17961207 0.15799451 0.17476122 0.04484361 0.06739734
0.11866213 -0.00895752 0.033004962 0.05420743 0.02735421 0.07336341 0.07948353 0.19477746
0.14409979 0.15726432 0.15729554 -0.077746265 0.09624455 0.023960492 0.21694747 0.10687723
0.044887386 0.104812115 0.10039293 0.15638526 0.015492082 0.15101634 0.088910624 0.18958503
-0.016156256 0.14163771 0.058696244 0.17151792 0.03960549 0.20194626 0.085155435 0.15761834
0.17102557 0.1631102 0.08423205 0.19450434 0.1208404 0.07562061 0.06765378 0.03548003
-0.02531442 0.1466093 0.040335584 0.14956371 0.12358973 0.18950626 0.10830191 0.08030582
0.101052105 0.1509953 0.123354025 0.040973842 0.08702439 0.13938488 0.10598134 0.0980577
0.083351195 0.12733653 0.17562762 0.14792551 0.1722254 -0.030799448 0.16003306 0.15737633
00000000: f38c c33d 435c 223e 8a7a 3b3e c968 9f3d
00000010: d03e 6a3d d324 203e ad36 d43d dff4 353e
00000020: a0f9 4c3e 1d88 243e 3ae1 913b 37e9 bb3d
00000030: f10f 2d3e 743b a43c 7055 353d 6356 053e
00000040: 85d6 983d 187b 803c aaa0 413e fd10 153e
00000050: bc1b b63d 0b5c 2e3d fc78 bdbc 2b68 b93d
00000060: 475c 5a3d c6a9 3a3e 9487 313e c626 523e
00000070: 905c 5a3d e9a2 523e 49ba b73d f4e7 333e
00000080: 7662 f73d ce02 073e b7f6 283d 630a 103e
00000090: 334f 3b3d 61c2 903d 56bd 0e3d 6404 433e
000000a0: f69c ba3d 8f71 ca3d 0574 df3d 8896 06bc
000000b0: ff58 fe3c 62a6 893d 7245 3a3e cb7d f63d
000000c0: 46db 2f3d c993 213d 914e 783d ac7b 88bd
000000d0: 9404 9f3d f39e b53d dd9c 043e 05ee c23d
000000e0: 6089 1e3e b0a5 063e 9c5d 443e 3aec 373e
000000f0: 50c9 213e 9bf4 323e efad 373d 9e07 8a3d
00000100: 2105 f33d 90c2 12bc 3630 073d 9c08 5e3d
00000110: f015 e03c 8e3f 963d 43c8 a23d be73 473e
00000120: e58e 133e e609 213e 1512 213e 6f39 9fbd
00000130: dd1b c53d cb48 c43c 7a27 5e3e 73e2 da3d
00000140: d6db 373d bca7 d63d cf9a cd3d 7523 203e
00000150: 80d2 7d3c 07a4 1a3e c616 b63d 9422 423e
00000160: 205a 84bc 7a09 113e 796b 703d 65a2 2f3e
00000170: 5e39 223d 00cb 4e3e f965 ae3d b466 213e
00000180: 5421 2f3e 5c06 273e da81 ac3d 252c 473e
00000190: 2c7b f73d fade 9a3d 118e 8a3d 8253 113d
000001a0: 3060 cfbc c020 163e ed36 253d 3b27 193e
000001b0: 9d1c fd3d ee0d 423e 64cd dd3d 6177 a43d
000001c0: 68f4 ce3d 839e 1a3e 09a1 fc3d 30d4 273d
000001d0: d839 b23d e9ba 0e3e bf0c d93d 7ad2 c83d
000001e0: 08b4 aa3d 8264 023e bad7 333e c979 173e
000001f0: db5b 303e 204f fcbc b5df 233e 4327 213e
