model/A2C_model_2.pt (torch, 7543 bytes, 5 tensors)

weight f4 [128, 4]
0	0x3e8beac6	0.27327555
1	0x3ed9ff8a	0.42577773
2	0xbe9319ff	-0.2873077
3	0x3da5d3e0	0.080970526
4	0x3e12af6a	0.14324728
5	0xbf100e78	-0.5627208
6	0x3eaa8e32	0.3331161
7	0x3ee8407d	0.453617
8	0xbe923b63	-0.28560933
9	0x3e166e2b	0.14690463
10	0x3dbec69b	0.09315225
11	0x3e05592a	0.13022295
12	0xbd11d8a3	-0.03560699
13	0xbdc0783c	-0.09397933
14	0x3ee86b9f	0.45394608
15	0x3ea3511b	0.31897816
16	0x3e6da1b5	0.23206218
17	0xbf04e8a1	-0.51917464
18	0xbd1c2c17	-0.038127985
19	0x3f1ba6c3	0.60801333
20	0xbea29a33	-0.3175827
21	0xbf206857	-0.6265921
22	0x3ea9237d	0.33034888
23	0xbf113792	-0.5672542
24	0x3ec01b93	0.37521037
25	0xbeb7abf5	-0.3587338
26	0x3df58ca1	0.119897135
27	0x3f13431f	0.57524294
28	0x3ef27b89	0.47359875
29	0xbf059bb2	-0.521907
30	0x3e1b5d11	0.15172221
31	0x3efd4205	0.4946443
32	0xbea3d8fd	-0.32001486
33	0x3f0ec81c	0.5577409
34	0xbf102991	-0.56313425
35	0xbe85b205	-0.2611238
36	0xbdc85dc1	-0.09783507
37	0xbec14302	-0.37746435
38	0x3d8a80d6	0.06762855
39	0x3defb456	0.11704318
40	0xbd2c7532	-0.042103954
41	0x3eab7cc2	0.3349362
42	0x3e6a3bfd	0.22874446
43	0x3ecaa4a5	0.3957874
44	0xbe17cedf	-0.14825009
45	0x3eb908d6	0.36139554
46	0x3f04dfd4	0.51904035
47	0xbeefbc98	-0.46823573
48	0xbd0d387a	-0.03447769
49	0xbded20a3	-0.115784906
50	0xbf0218e6	-0.5081924
51	0xbec3bc8a	-0.3822978
52	0xbecae8a8	-0.39630628
53	0xbe5997cb	-0.2124931
54	0x3e15b3cb	0.14619367
55	0x3d849c83	0.06475165
56	0x3e8b653e	0.2722568
57	0xbe735f0e	-0.23766729
58	0xbed6633d	-0.41872588
59	0x3e846c6b	0.25863966
60	0xbde5d66a	-0.11222537
61	0x3e0f9f10	0.14025521
62	0x3ec009e4	0.37507546
63	0xbf067044	-0.52515054
64	0xbf0c0f94	-0.5471127
65	0xbf0c4207	-0.5478825
66	0x3e66a171	0.22522523
67	0xbeecaa1f	-0.46223542
68	0x3ce96f0c	0.028495334
69	0x3eb03b78	0.3442037
70	0x3ea576eb	0.3231729
71	0xbe30a2e2	-0.17249635
72	0x3eca7ebe	0.39549822
73	0x3ee755af	0.4518256
74	0x3e60552f	0.21907495
75	0xbe157ae5	-0.14597662
76	0xbe9f3c38	-0.3110063
77	0xbe1d4f31	-0.1536224
78	0x3d37fe5e	0.044920318
79	0x3f076913	0.52894706
80	0x3f0433d8	0.5164161
81	0xbe44482c	-0.19168156
82	0x3caee3e5	0.021348903
83	0x3ebba30d	0.36647835
84	0xbedf751c	-0.43644035
85	0x3e058d0c	0.13042086
86	0xbe993576	-0.299236
87	0x3dd3be8d	0.10339079
88	0x3e92b0a9	0.28650406
89	0x3e140ebc	0.14458746
90	0xbd741db9	-0.05959866
91	0x3ec689c4	0.38776982
92	0x3e6ee9c0	0.23331356
93	0x3da8dab7	0.082448415
94	0xbe13fff7	-0.14453112
95	0x3e6e4e5d	0.2327208
96	0x3f1044cf	0.56354994
97	0x3e64ce5a	0.22344342
98	0x3f0dff65	0.55467826
99	0x3e984e45	0.29747215
100	0xbed17617	-0.40910408
101	0xbd4b0f28	-0.049575
102	0x3d69114b	0.056901257
103	0x3ed11e91	0.40843633
104	0xbea3bd7f	-0.31980512
105	0xbee90807	-0.45513937
106	0xbdeda9f1	-0.116046794
107	0x3e8c3c57	0.27389786
108	0x3d378986	0.044808887
109	0x3ed403d8	0.41409183
110	0x3eaa4e65	0.33262935
111	0xbdf4486c	-0.11927876
112	0xbeb32754	-0.34990942
113	0x3efa5c75	0.48898664
114	0xbe968980	-0.2940178
115	0xbdc03df0	-0.09386814
116	0x3ede0f2e	0.43370956
117	0x3f037ff9	0.51367146
118	0xbe9568e0	-0.29181576
119	0xbe63135b	-0.22175352
120	0x3ebefa31	0.37300256
121	0x3d7d77c5	0.0618818
122	0x3ec49002	0.3839112
123	0x3eb2bf89	0.34911755
124	0xbe836bbc	-0.25668132
125	0xbf1344e8	-0.5752702
126	0xbe884a38	-0.26619124
127	0x3e8c56e1	0.27410033
128	0x3d9037ec	0.07041916
129	0x3eda5113	0.4263998
130	0xbe83c437	-0.25735638
131	0xbe697db2	-0.22801855
132	0x3e5d2c9d	0.2159905
133	0xbd53ec5a	-0.051739074
134	0xbeb58183	-0.35450372
135	0x3ec7e83f	0.39044377
136	0xbe35c6d0	-0.17751622
137	0xbd9cd054	-0.07656923
138	0xbc62f9e8	-0.013853528
139	0xbecf6914	-0.40509856
140	0x3e9f86d8	0.31157565
141	0x3d9d6055	0.076843895
142	0x3eada425	0.33914295
143	0xbf17b5bc	-0.5926168
144	0x3dbd303c	0.092377156
145	0xbef00374	-0.46877635
146	0x3e904a0e	0.281815
147	0xbeb240fd	-0.34815207
148	0x3e73a97a	0.23795119
149	0x3f0a9638	0.54135466
150	0xbd1906ac	-0.03735988
151	0x3f0742ac	0.5283611
152	0xbe55ddf6	-0.20885453
153	0x3efb5b16	0.4909293
154	0xbe7d552e	-0.24739525
155	0xbebf784d	-0.3739647
156	0x3dbe5b31	0.09294737
157	0xbd600f11	-0.05470187
158	0x3e505521	0.20344974
159	0xbefa677b	-0.48907074
160	0x3e57107d	0.21002384
161	0xbeade7e9	-0.33965996
162	0xbe15be6e	-0.14623424
163	0x3e9cdcf1	0.30637315
164	0x3f0abc74	0.54193807
165	0x3cae46de	0.021274026
166	0xbe21205c	-0.15735
167	0x3ef3c7d3	0.4761339
168	0x3eacb706	0.33733386
169	0x3ebc6dd7	0.3680255
170	0x3dc4d015	0.09610001
171	0xbf11b3ed	-0.5691517
172	0xbd594099	-0.05304012
173	0xbddb7bdd	-0.107169844
174	0xbafc4bd3	-0.0019248672
175	0xbebb85b2	-0.3662544
176	0x3ec485c2	0.383833
177	0x3e8d2143	0.2756444
178	0xbdf1e51e	-0.11811279
179	0x3eb9c712	0.3628469
180	0xbdb5b554	-0.08872476
181	0xbf0b8bd4	-0.54510236
182	0x3ea37fde	0.31933492
183	0x3e15ab94	0.14616233
184	0x3e3314ba	0.17488375
185	0xbef0ccf6	-0.47031373
186	0x3d013053	0.031540226
187	0x3e82ed4c	0.25571668
188	0x3ed215e8	0.41032338
189	0x3ec1896d	0.3780016
190	0x3e5cafb3	0.21551399
191	0xbd0d754c	-0.03453569
192	0x3ef9a2ba	0.48756963
193	0x3e3b5be4	0.18296772
194	0xbd5326e7	-0.051550772
195	0xbed6e0d3	-0.41968402
196	0x3ebe374e	0.3715157
197	0x3ed25904	0.4108354
198	0x3ed54c0b	0.4165958
199	0x3e49b924	0.19699532
200	0x3daa33d0	0.08310664
201	0xbe9e3527	-0.30899927
202	0xbef89fe0	-0.48559475
203	0xbf01214d	-0.5044144
204	0xbe813f53	-0.25243625
205	0xbe9c352b	-0.30509314
206	0x3de583e2	0.11206795
207	0x3e6cb6b3	0.23116569
208	0xbd883cf6	-0.066522524
209	0x3de13a00	0.10997391
210	0x3e949062	0.29016405
211	0x3ea49243	0.3214284
212	0x3ecffb51	0.40621427
213	0x3e11b412	0.14228848
214	0xbdc249e7	-0.09486752
215	0xbeddbb0b	-0.43306765
216	0xbc91c10d	-0.01779225
217	0x3e4727e6	0.19448814
218	0x3f05246f	0.5200872
219	0x3f1b1260	0.60574913
220	0xbf18d4ae	-0.59699523
221	0xbecf05c0	-0.40434074
222	0x3d8cd216	0.06876008
223	0xbec02a77	-0.37532398
224	0xbf0009df	-0.5001506
225	0xbeae2e29	-0.34019592
226	0xbe9612ba	-0.29311162
227	0x3ec169fa	0.37776166
228	0xbdc9b118	-0.09848231
229	0xbe0cc9ff	-0.1374893
230	0x3c2185ae	0.009858532
231	0xbf000b15	-0.5001691
232	0xbe5bb0fe	-0.21454236
233	0x3d5e704d	0.054306317
234	0x3e8d46de	0.2759313
235	0xbe8805e8	-0.26567006
236	0x3e53ef6f	0.20696805
237	0xbe875967	-0.26435396
238	0x3da34a2d	0.07973132
239	0x3ecb5cd0	0.39719248
240	0xbe86ae14	-0.26304686
241	0xbec5ef1e	-0.38658994
242	0xbe323863	-0.17404322
243	0xbedaa715	-0.42705598
244	0xbed2b2d8	-0.41152072
245	0x3ec2db57	0.38057968
246	0xbe969b5d	-0.29415408
247	0xbf00d178	-0.50319624
248	0xbe3e5d01	-0.18590166
249	0x3e7e1e2f	0.24816202
250	0xbd3a0dc7	-0.045423295
251	0xbd5765c1	-0.052587274
252	0xbe3ed7a8	-0.18636954
253	0x3dc71498	0.09720725
254	0xbe9687b8	-0.2940042
255	0x3de8d260	0.11368251

bias f4 [128]
0	0x3ef34bd5	0.47518793
1	0x3ee74c27	0.45175287
2	0x3eb60fe0	0.35558987
3	0x3e7b8183	0.24561124
4	0xbb8f4bcf	-0.0043730508
5	0xbd86e534	-0.06586686
6	0x3ebd6f70	0.36999083
7	0xbdc1ce99	-0.094632335
8	0xbe93861f	-0.28813264
9	0xbe3460a2	-0.17614987
10	0x3e34071d	0.17580839
11	0x3e0b1694	0.13582832
12	0x3e81c1b7	0.25343105
13	0x3cbb4867	0.022861673
14	0xbea40c11	-0.32040456
15	0xbdeedf7b	-0.11663719
16	0x3ee00e98	0.43761134
17	0xbeb5b06d	-0.35486165
18	0xbe447c42	-0.19188026
19	0xbe9fc6d2	-0.31206375
20	0x3d24350e	0.04008966
21	0xbf001d01	-0.50044256
22	0xbe0bd52d	-0.13655539
23	0xbbfbc6e3	-0.0076836213
24	0x3f02a473	0.5103218
25	0xbe45a134	-0.19299775
26	0x3e9c07c2	0.3047467
27	0x3e801197	0.2501342
28	0xbebc3141	-0.36756328
29	0xbd62906a	-0.055313505
30	0x3f1927cb	0.59826344
31	0xbeb3aa05	-0.35090652
32	0x3f14c950	0.5811968
33	0x3e62ce8c	0.22149104
34	0x3e95c0b8	0.29248595
35	0x3eaa65c4	0.33280766
36	0x3f096ba6	0.53679883
37	0xbeddca4a	-0.43318397
38	0x3ee07aab	0.43843588
39	0x3d91cb3d	0.07118843
40	0x3ee8ab8a	0.45443374
41	0x3d881e0c	0.06646356
42	0x3f13e9bd	0.5777853
43	0x3eb205ca	0.34770042
44	0x3e88f80c	0.26751745
45	0x3e7f3649	0.24923052
46	0xbee4fe3e	-0.4472522
47	0xbdfcfb15	-0.123525776
48	0xbe4f83d9	-0.2026514
49	0xbe2b28ed	-0.1671483
50	0x3ec474af	0.38370273
51	0x3d54c9ea	0.051950373
52	0x3d4d585e	0.0501331
53	0x3ec3d913	0.38251552
54	0xbe243ae3	-0.16038089
55	0xbdef7e20	-0.11693978
56	0x3ec682a9	0.3877156
57	0x3de4582d	0.11149631
58	0x3ec0440d	0.3755192
59	0x3efa18f0	0.4884715
60	0x3ef4d4f6	0.47818726
61	0x3e261066	0.16217193
62	0xbd379a4f	-0.044824895
63	0xbec24cd4	-0.3794924
64	0x3ea7552a	0.32682163
65	0x3ed63fa8	0.4184544
66	0x3d817996	0.06322019
67	0x3eadcf2d	0.33947125
68	0xbc303a68	-0.010756113
69	0x3caa6764	0.020801254
70	0xbedbac2c	-0.42904794
71	0xbec41184	-0.38294613
72	0x3e29da62	0.16587213
73	0xbd052fbf	-0.032516237
74	0x3ee0f65e	0.43937963
75	0x3ef36be1	0.47543243
76	0xbda4c225	-0.08044843
77	0xbe114c03	-0.14189152
78	0x3edb5eb1	0.4284568
79	0x3e367359	0.17817439
80	0xbcdaf25d	-0.026726896
81	0x3e1227dc	0.14273018
82	0xbeff2d17	-0.49839088
83	0x3c55fdf2	0.013061034
84	0x3dbaf62d	0.091289856
85	0x3ee182fa	0.4404524
86	0xbe80b765	-0.2513992
87	0xbd9a9d8b	-0.0754958
88	0xbe8e5821	-0.27801612
89	0x3dde372a	0.108503655
90	0xbace8f9a	-0.0015759349
91	0x3e4cadaf	0.1998813
92	0x3d993944	0.07481626
93	0xbe924e57	-0.28575394
94	0xbd5487f6	-0.051887475
95	0xbe877861	-0.2645903
96	0x3eea9b0a	0.4582141
97	0xbe8a3f10	-0.27001238
98	0x3ee5fde8	0.44920278
99	0x3e7984e9	0.24367107
100	0x3e546823	0.2074285
101	0xbe02e40c	-0.12782305
102	0x3f181a53	0.5941517
103	0x3ed73de0	0.42039394
104	0xbe5ff9b6	-0.21872601
105	0xbe452aa9	-0.19254555
106	0x3e257c1f	0.1616063
107	0xbe308d9e	-0.17241523
108	0x3e9c0302	0.30471045
109	0x3d7bcc75	0.061474282
110	0x3ce346d8	0.027743742
111	0xbe66fa35	-0.22556384
112	0x3e990342	0.29885298
113	0xbe68c224	-0.22730309
114	0xbeb7de17	-0.3591163
115	0x3ee5c903	0.44879922
116	0x3f14396a	0.57900107
117	0x3db47451	0.08811248
118	0x3e82afb1	0.25524667
119	0x3eb71823	0.35760602
120	0xbea46300	-0.3210678
121	0xbe74203b	-0.2384042
122	0xbccfbcd4	-0.025358595
123	0x3ec90b5c	0.3926648
124	0x3df03a2b	0.11729845
125	0x3d280051	0.041015927
126	0xbe663663	-0.22481684
127	0xbef2b918	-0.4740684

weight f4 [2, 128]
0	0xbc0d5869	-0.008627036
1	0xbe16b19f	-0.14716195
2	0xbcc4e6e4	-0.024035878
3	0xbdb4445d	-0.08802102
4	0xbd5402a2	-0.051760323
5	0x3d95aeae	0.07308708
6	0xbda244b5	-0.07923261
7	0xbe2641f9	-0.16236104
8	0x3e0d1294	0.13776618
9	0xbdbc8073	-0.09204187
10	0xbe083cfb	-0.13304512
11	0xbb00a316	-0.0019628457
12	0x3d5f9a2f	0.0545904
13	0xbd7b3f77	-0.06133982
14	0xbda57bc0	-0.08080244
15	0x3df1d330	0.11807859
16	0x3d1e263d	0.038610686
17	0xbc366697	-0.011132858
18	0xbcf066d2	-0.029345904
19	0xbd7bfdf4	-0.061521485
20	0xbcd765ea	-0.026293714
21	0xbc3d672c	-0.011560243
22	0xbe110b7d	-0.14164539
23	0xbcdf6235	-0.027268508
24	0xbd4717ff	-0.04860687
25	0xbc336b4c	-0.010950875
26	0xbd7e18b7	-0.06203529
27	0x3d05a3b6	0.03262683
28	0x3cd986e7	0.026553584
29	0x3df7aad9	0.120931335
30	0xbccb7628	-0.024836615
31	0xbd3a87a4	-0.045539513
32	0x3ba3004d	0.004974401
33	0xbdf707f7	-0.12062066
34	0x3e3e080c	0.18557757
35	0x3e2c1d74	0.1680811
36	0x3cd1ea0b	0.025624296
37	0xbd9e6ea5	-0.077359475
38	0x3d5e488f	0.054268416
39	0x3dd552e2	0.10416199
40	0xbb947cc6	-0.0045314757
41	0xbdbfcca1	-0.09365202
42	0x3da0b888	0.078476965
43	0x3e3c0aaa	0.18363443
44	0xbd8acac7	-0.06776958
45	0xbe0d4d1e	-0.13798949
46	0xbd1e76de	-0.03868758
47	0x3c08df2f	0.008353992
48	0x3c6d63fa	0.014489168
49	0xbd9c5c42	-0.07634784
50	0x3e0a9df9	0.13536824
51	0xbe2521d6	-0.16126189
52	0xbddccbb8	-0.10781044
53	0x3dbf05fa	0.09327312
54	0xbe21e977	-0.15811716
55	0x3da6a71c	0.08137342
56	0xbbc6e10f	-0.0060693095
57	0x3e2ef674	0.17086202
58	0x3e2be8aa	0.16787973
59	0xbdb7aee9	-0.08968908
60	0x3d36b074	0.044601873
61	0x3e38d13a	0.18048564
62	0xbc97228d	-0.018449092
63	0x3c913f74	0.017730452
64	0x3e1fbaca	0.15598598
65	0x3e2f3049	0.17108263
66	0xbd831087	-0.06399637
67	0x3da3e738	0.08003086
68	0x3d204391	0.039126936
69	0xbe0709b3	-0.13187294
70	0x3bebdbb3	0.007197821
71	0x3d961cef	0.073297374
72	0x3dbf88c7	0.0935226
73	0xbd9588cc	-0.073014826
74	0xbe30e820	-0.17276049
75	0xbdb3a5cb	-0.08771857
76	0x3d0123a8	0.031528145
77	0xbd5ec499	-0.05438671
78	0xbd295e1c	-0.041349515
79	0xbe066cdc	-0.13127464
80	0x3d61539b	0.055011373
81	0xbe0c2dce	-0.13689348
82	0x3b2fc778	0.0026821773
83	0xbd6c6983	-0.05771781
84	0x3e03e1be	0.12879083
85	0x3d4b0080	0.049561024
86	0x3db750e6	0.08950977
87	0x3d92240d	0.071357824
88	0x3e31470a	0.17312256
89	0x3d882e1b	0.06649419
90	0x3cbb00d7	0.022827549
91	0xbe289791	-0.16464068
92	0xbe0cb13b	-0.13739483
93	0xba807e34	-0.0009803236
94	0xbe1af090	-0.1513083
95	0xbdac4e5d	-0.08413384
96	0xbe01435a	-0.12623349
97	0x3e3f3bd5	0.18675168
98	0xbe306bf0	-0.17228675
99	0x3d0a27c9	0.03372935
100	0x3e33ad8f	0.17546676
101	0xbbd9f9c3	-0.0066520884
102	0xbb9cb603	-0.0047824397
103	0x3e0740ed	0.13208361
104	0x3da6390c	0.081163496
105	0x3d342add	0.04398619
106	0x3da6dff5	0.08148185
107	0x3daeb3bc	0.08530375
108	0xbdf64bc0	-0.12026167
109	0xbe19e433	-0.15028457
110	0xbdbe0a5e	-0.09279321
111	0x3d0d7a5e	0.034540527
112	0xbdb935e5	-0.09043483
113	0xbe2b576d	-0.16732569
114	0x3da785bb	0.08179804
115	0x3d05fdaf	0.032712635
116	0xbe1709b3	-0.14749794
117	0x3daaf3f9	0.08347315
118	0xbc0bd306	-0.008534199
119	0x3dbf9217	0.09354036
120	0xbd599386	-0.053119205
121	0xbd611fea	-0.054962076
122	0x3d95c585	0.073130645
123	0x3ca23deb	0.019804915
124	0xbd2758ab	-0.040856045
125	0x3de45eca	0.11150892
126	0x3d05f7c0	0.032706976
127	0x3a0b396d	0.00053109863
128	0x3c137415	0.008999844
129	0x3b718fdc	0.0036859429
130	0x3cef3fd2	0.029205237
131	0x3e0f76c1	0.14010145
132	0x3dd45cb1	0.10369242
133	0xbdcfd2e4	-0.10147646
134	0x3db6f3fc	0.08933255
135	0x3dd1a2e3	0.10236146
136	0xbc145d22	-0.009055408
137	0x3dba2d28	0.09090644
138	0x3e032187	0.12805758
139	0xbc86e16e	-0.016464915
140	0xbe337707	-0.17525874
141	0xbc94423b	-0.018097987
142	0xbb4f330d	-0.0031616122
143	0xbbb705eb	-0.0055854223
144	0xbda45557	-0.0802409
145	0x3cb1ce6a	0.021704871
146	0x3cf3ccef	0.029760806
147	0x3d381e38	0.044950694
148	0x3dbe4b1b	0.09291669
149	0x3c140027	0.009033239
150	0x3e202c56	0.15641913
151	0x3da14ce1	0.078759916
152	0x3df1103c	0.117706746
153	0x3d4b94ad	0.049702335
154	0x3cf55528	0.029947832
155	0x3d626093	0.05526788
156	0xbcd3c1c6	-0.025849234
157	0x3c4a79b6	0.01235812
158	0x3d932970	0.07185638
159	0x3ddf537d	0.10904596
160	0xbe0612eb	-0.13093154
161	0x3df5c669	0.12000734
162	0xbd68f5ae	-0.056874923
163	0xbdf51f4e	-0.119688615
164	0xbddfad87	-0.109217696
165	0x3e3f749f	0.18696831
166	0xbe094472	-0.13405016
167	0xbe1ff9f4	-0.15622693
168	0x3e03dfa2	0.12878278
169	0x3e055e63	0.13024287
170	0xbdb0bdaa	-0.086299255
171	0xbdff44a8	-0.12464267
172	0x3e2be010	0.16784692
173	0x3d6d8e88	0.057997257
174	0x3d616bdb	0.0550345
175	0x3c82a036	0.015945535
176	0xbd853ce6	-0.06505756
177	0x3d5727ba	0.05252812
178	0xbd873d3a	-0.06603475
179	0x3cf9fced	0.030516112
180	0x3e3bb73c	0.18331617
181	0xbce61b34	-0.028089143
182	0x3d9493c8	0.072547495
183	0xbda21ee5	-0.07916049
184	0x3da4e2e5	0.08051089
185	0xbdd0347b	-0.1016626
186	0xb8096a1e	-3.2762175e-05
187	0x3cb16544	0.021654733
188	0xbd7ff7f0	-0.06249231
189	0xbe213567	-0.15743028
190	0xbd17808a	-0.03698782
191	0xbc5351a8	-0.012897886
192	0xbe1a9e96	-0.15099558
193	0xbba9a365	-0.005176949
194	0x3d99a87d	0.0750284
195	0xbe0d3b93	-0.13792257
196	0xbe48639d	-0.1956925
197	0x3e0efeaf	0.13964342
198	0xbda24512	-0.0792333
199	0xbd06b17b	-0.032884102
200	0xbe1294b5	-0.1431454
201	0x3c92baa3	0.017911261
202	0x3ceabedd	0.028655464
203	0x3de640a2	0.112427965
204	0xbde190a0	-0.11013913
205	0x3c8169ba	0.015797485
206	0x3e141141	0.14459707
207	0x3d542281	0.051790718
208	0xbe323246	-0.1740199
209	0x3c8e9e94	0.0174096
210	0xbd69c1ce	-0.057069592
211	0x3dfc6211	0.12323392
212	0xbe4ab862	-0.19796899
213	0xbd9d3778	-0.076765954
214	0xbe0a2d0f	-0.13493751
215	0x3d1c8214	0.03820999
216	0xbd74df3a	-0.059783198
217	0xbcc5e270	-0.024155825
218	0xbe101097	-0.14068829
219	0x3d766ce3	0.060162436
220	0x3d45a686	0.048254512
221	0xbe17806e	-0.14795086
222	0x3e018c7e	0.1265125
223	0x3e136e98	0.14397657
224	0x3ca4a6f3	0.020099139
225	0xbd0f09d5	-0.034921486
226	0x3ce575ff	0.028010366
227	0xbd8878f1	-0.06663693
228	0xbd0fe71e	-0.03513252
229	0xbdd917dd	-0.10600255
230	0xbdc742aa	-0.09729512
231	0xbd592afb	-0.053019505
232	0xbcc6a6a0	-0.024249375
233	0xbdacc8be	-0.08436726
234	0x3d12b0c9	0.035813127
235	0xbd8c3320	-0.06845689
236	0x3d65cdbc	0.056104407
237	0x3de38afb	0.11110493
238	0x3d663fb9	0.056213114
239	0xbca61642	-0.020274285
240	0x3d5d013d	0.05395626
241	0x3c953c74	0.018217303
242	0x3c448821	0.011995346
243	0xbd93ce59	-0.07217092
244	0x3db50441	0.08838702
245	0xbd3cc9f2	-0.046091028
246	0x3e16d1e8	0.1472851
247	0xbe3213ae	-0.1739032
248	0xbd8b5955	-0.06804148
249	0xbb35517c	-0.0027666977
250	0xbda09b87	-0.078421645
251	0xbe04ec7d	-0.12980838
252	0x3de7e991	0.11323846
253	0xbd8e7991	-0.06956781
254	0xbde191bc	-0.11014125
255	0x3d26972a	0.040671505

bias f4 [2]
0	0x3da8d43f	0.08243608
1	0x3da2a6bb	0.079419576

weight f4 [1, 128]
0	0x3e2eafd5	0.17059262
1	0x3e0ed828	0.13949645
2	0x3de766fa	0.11298938
3	0x3d801eba	0.062558606
4	0x3ded8378	0.11597341
5	0x3e3249fc	0.17411035
6	0x3d8f4841	0.06996203
7	0x3d019d93	0.031644415
8	0x3d459d39	0.048245642
9	0x3d99f0e4	0.07516649
10	0x3d8f95da	0.07011004
11	0x3df32d6e	0.118738994
12	0x3e32b5bf	0.17452143
13	0x3d575aa4	0.052576676
14	0x3d60af98	0.05485496
15	0x3d64e1e9	0.055879507
16	0x3da60994	0.08107296
17	0x3e256b38	0.16154182
18	0x3e11240d	0.14173909
19	0x3d48fc8c	0.049068972
20	0x3e2e29bc	0.17008108
21	0xbd51443e	-0.05109047
22	0x3e21d7e8	0.15805018
23	0x3d19ae21	0.037519578
24	0x3e395120	0.18097353
25	0x3dd63af3	0.104604624
26	0x3e439245	0.19098766
27	0x3dd19cfe	0.10235022
28	0x3e30b24f	0.1725552
29	0x3e470d86	0.19438753
30	0x3dd17227	0.10226851
31	0x3d8bc014	0.06823745
32	0x3db87f49	0.09008653
33	0x3d1385a3	0.036016118
34	0x3e3bc421	0.18336536
35	0x3d22a706	0.039710067
36	0x3dba4fca	0.0909725
37	0x3d83a3d4	0.06427732
38	0x3e43e470	0.1913011
39	0x3ceb5e7c	0.028731577
40	0x3e09876b	0.13430564
41	0x3dda25cf	0.10651743
42	0x3da11ead	0.07867179
43	0x3d82c13e	0.06384514
44	0x3e38458d	0.17995282
45	0x3e3b2c94	0.18278724
46	0x3cc3e09b	0.023910811
47	0x3d6663fa	0.05624769
48	0x3ddcbddd	0.10778401
49	0x3db34b64	0.08754614
50	0x3de56234	0.112003714
51	0x3e3e414e	0.185796
52	0x3de114fd	0.10990331
53	0x3e06b258	0.1315397
54	0x3e42536a	0.18977132
55	0x3e3b3e6f	0.18285535
56	0x3dca7375	0.09885303
57	0x3d328c05	0.043590564
58	0x3e3388e3	0.17532687
59	0x3d95552a	0.072916344
60	0x3df6a459	0.120430656
61	0x3d8152f6	0.06314652
62	0x3d3a01ab	0.045411747
63	0xbd70c92e	-0.05878561
64	0x3dfae6fa	0.122510865
65	0x3d157129	0.03648487
66	0x3e3362be	0.17518136
67	0x3dd5eabf	0.10445165
68	0x3e376068	0.1790787
69	0x3e3346eb	0.17507522
70	0x3cb1d8c8	0.021709815
71	0x3e017f4a	0.12646213
72	0x3de78a23	0.11305644
73	0x3e1decd7	0.15422378
74	0x3e0609ce	0.13089678
75	0x3d3cc2d6	0.046084248
76	0x3e2fec63	0.17180018
77	0x3e2a6852	0.16641358
78	0x3d9c0667	0.07618409
79	0x3d806bc2	0.06270553
80	0x3e1f5794	0.15560752
81	0x3cdb10b7	0.026741369
82	0xbc326e72	-0.01089059
83	0x3e1b8e99	0.15191115
84	0x3e2d28a9	0.16910042
85	0x3e09d129	0.13458695
86	0x3e170947	0.14749633
87	0x3cd719d8	0.02625744
88	0x3e4ee030	0.20202708
89	0x3d882cde	0.06649183
90	0x3e155e3e	0.14586732
91	0x3dafaa97	0.08577459
92	0x3e33edd2	0.1757119
93	0x3c29e963	0.010370585
94	0x3d640977	0.05567309
95	0x3e2cfbb2	0.16892889
96	0x3df051ee	0.11734377
97	0xbcb42ef0	-0.021995038
98	0x3d5384ed	0.05164044
99	0x3d0554c3	0.03255154
100	0x3e0bdaed	0.13657732
101	0x3c7b3a5b	0.015333737
102	0x3df42724	0.11921528
103	0x3d7518c3	0.059838068
104	0x3e25f7b3	0.16207771
105	0x3d48075a	0.048835136
106	0x3e3d5dc4	0.184928
107	0x3e2f8d90	0.17143846
108	0x3d60b6f6	0.054861985
109	0x3d39d538	0.045369357
110	0x3dfb9784	0.12284759
111	0xbc0367f2	-0.008020388
112	0x3de5593d	0.111986615
113	0x3df1144e	0.11771451
114	0x399b691f	0.00029642225
115	0x3e33ab41	0.17545797
116	0x3de70358	0.11279935
117	0x3cb84964	0.022495933
118	0x3d933042	0.07186939
119	0x3dfc7705	0.12327389
120	0x3d5ad943	0.053429853
121	0x3e322202	0.17395785
122	0x3e115940	0.14194202
123	0x3dd4bcf7	0.10387605
124	0x3c9e0232	0.019288156
125	0x3e356f0e	0.17718145
126	0x3d9431ef	0.072360866
127	0x3c3d7665	0.011563872
