model/A2C_model_0.pt (torch, 7543 bytes, 5 tensors)

weight f4 [128, 4]
00000000: f1dc cbbd 3eb3 c8bd 7b41 6abc 7cd9 c9be
00000010: f098 8bbe 23df 913e 4246 80be 7cfd 35be
00000020: 09ee fcbe 51bf e5be 9fc5 0b3f c6dd 003f
00000030: 0050 dcb9 7c0e 313e 8227 fa3e 60b8 00bd
00000040: bd0d ed3d 7776 b5be 7b33 513e de34 0bbf
00000050: 87c1 57be 5996 df3e c81e 70be 07c8 76be
00000060: 142f 913d 4f2c 43be adc3 8bbe efbe 10bd
00000070: 5080 15be c098 ddbd 4ffb c03e 93b0 dcbe
00000080: a94f fc3d eda8 9fbe fb14 e53e fad5 f53e
00000090: bee2 f23c ad59 de3d 8bb8 abbe fda8 03bf
000000a0: 5146 bb3e 74eb fdbd 9a6d 0abf 38e5 b7be
000000b0: db99 2f3e 25e8 463e 29ac c7be a8ff 90be
000000c0: a983 10be 4b36 bd3e 4cb3 b93d b6e1 46be
000000d0: c05b 53be 0023 ad3e 9c1a bbba 1d06 10bf
000000e0: 0d48 bebe 3aa9 cfbd 111b d23d a3b5 c4be
000000f0: 1814 ccbe e558 953d f370 a73e 1edc 3fbe
00000100: f86f 8abe 2ed9 a5ba 5e52 9abc 8bab 053f
00000110: 8738 b3be 701e bd3e fad0 9b3e 9d1a e1be
00000120: 0bbd bfbe 2143 593d 3ef3 803e 6722 e5be
00000130: 23af 33bd 156f 193f ca76 073e 279d 2fbd
00000140: 3735 bb3d 95b0 44be 3fdc dabd d12f fb3e
00000150: 8a87 10bf ad4e b73e c603 e73d 499c 213f
00000160: d062 c83e 8b4d f23e 103a 873d e662 5b3d
00000170: 39be aa3e 3351 073f 20c9 553e 82de 8ebd
00000180: 098c 853e 0072 063f b9b6 093e 3941 c3bd
00000190: c6ac 303e 296d 413d 43a7 423e de3b 5dbe
000001a0: de46 49bd 34e2 09be b2f5 e43e fa2e 273e
000001b0: 3be0 2f3e f722 97bd 87f1 16be f6ae a63e
000001c0: cc1b 18bd 11fd b63e cf69 4abc 0055 52bc
000001d0: 0fde 9fbe 8001 f9be 9dfb 1bbe fe6f f23e
000001e0: 831f ccbe d3fa cc3e e0b7 34be afc1 96be
000001f0: d092 8c3e 070f 86be c499 b7be 322e f9be
00000200: 977a 66be a98b 16bf 1e42 cbbe 7788 ffbe
00000210: 6c7b da3d 8b74 e13d 4258 663e 057d 5fbe
00000220: a195 a53e 107c d33e afac 093e fc5d eebe
00000230: 63fb c8be cd7e 893e ea7e de3d b927 c43e
00000240: 3934 abbe 62d8 07bf 4612 7fbe c25a d2be
00000250: e628 63be 236d c83e c141 d63c ad3f d5be
00000260: 2f11 7b3e 284a 0b3f 5a6f 3e3c 998a 0bbf
00000270: d05f 69be 4871 4d3e 8879 9abe 880f e53d
00000280: 3ee7 e33e 85d0 163e 2888 003e c58a abbe
00000290: 1ad2 143f 015a a93e e33d b53d 6197 e9be
000002a0: 8b93 b43e cd27 d1be a160 013f fab2 823e
000002b0: 8003 0fbf 7ad4 f3bd 8da6 adbc efc4 673e
000002c0: f11c 363e c232 163f 73f0 f73d b58d b6be
000002d0: 1089 9f3d d921 44be e695 133f 0f9d 3b3e
000002e0: 1248 79be d0b4 1e3c 09c6 b5be 12b4 d83e
000002f0: 4b92 a33e 31d3 cd3e eda9 433e 6e44 0abf
00000300: 4752 023f f3e5 d13e dfb1 09bf 3211 26be
00000310: bcf1 813e 6b61 ea3e 24c8 e3bd 60d8 02bf
00000320: 5a1b ccbe 8868 15bf 0b08 ff3e 9d93 d7bd
00000330: 685f e8be 0d0f a3bd 1542 4bbe 0266 993e
00000340: 540f 78be 99ef 91bd d42d 093e 5d04 92be
00000350: d3d2 81bd 41bf 343e b47f 5a3e 0122 febe
00000360: 9ca3 e1be 5859 1e3e 5003 ddbe e07c a63c
00000370: 0393 e73d 754d ee3e e179 56be 1e12 803d
00000380: ee07 463c 4ff1 81be 3bb1 653e dc02 fe3e
00000390: 038d 00bf 2aed c5be f06e 863e 6925 b13e
000003a0: dccb 323e b6db 82be a9a3 b9bd 436d 863e
000003b0: 9d2f acbc 4156 abbe 40a7 e73e fbc7 5ebe
000003c0: 9c08 3cbe 5b5d 693e 2bf6 cebe fe3e 3cbd
000003d0: cfc4 71be d9d6 ffbe 0ef3 053f 3ba8 a83e
000003e0: 5e75 5c3d 74c6 8b3e 6ef3 d1be 894e 0abf
000003f0: aea7 8ebe a0c3 d33e 9818 c53d f893 ca3d
-0.099542506 -0.09799813 -0.014297838 -0.3942374 -0.2726512 0.28490552 -0.25053602 -0.17772478
-0.49400356 -0.44872525 0.5459842 0.503384 -0.00042021275 0.17290682 0.48858267 -0.031425834
0.11574886 -0.35441944 0.20429794 -0.54377544 -0.21069919 0.43669394 -0.23449242 -0.24099742
0.070890576 -0.19059871 -0.27297726 -0.03533834 -0.14599729 -0.108201504 0.37691733 -0.43103465
0.123198815 -0.31183568 0.4474257 0.48014814 0.029649135 0.10856948 -0.33539233 -0.5142973
0.36577085 -0.12398425 -0.5407349 -0.35917068 0.17148535 0.19424494 -0.38998535 -0.2832005
-0.14112724 0.36955485 0.09067401 -0.1942204 -0.20640469 0.33815765 -0.0014274898 -0.5625933
-0.37164345 -0.10139699 0.10259069 -0.38419828 -0.3985908 0.07292346 0.3270336 -0.18736312
-0.2703855 -0.0012653226 -0.018838104 0.5221488 -0.35004064 0.36937284 0.30432874 -0.43965617
-0.37448916 0.053042535 0.2518558 -0.4475281 -0.043868195 0.5993512 0.13228908 -0.04287448
0.09141009 -0.19207986 -0.1068654 0.4905992 -0.56456816 0.35802212 0.112800166 0.631291
0.39137888 0.47324786 0.066028714 0.053561114 0.33348253 0.52858275 0.20877504 -0.06976034
0.260834 0.525177 0.1344861 -0.095339246 0.17253408 0.047223244 0.19009118 -0.21604869
-0.04913985 -0.13465196 0.447187 0.16326514 0.17175381 -0.07379716 -0.14740573 0.3255536
-0.037135884 0.3573995 -0.012354328 -0.012837648 -0.31224105 -0.48633957 -0.15232702 0.47351068
-0.39867792 0.40035114 -0.17648268 -0.29444644 0.2745576 -0.2618334 -0.358595 -0.48668057
-0.22507702 -0.58806854 -0.3969888 -0.49908802 0.10668072 0.11008557 0.22494605 -0.21825035
0.3234072 0.4130559 0.1344478 -0.4655608 -0.39254293 0.26854554 0.10864051 0.38311556
-0.3343828 -0.5306455 -0.24909315 -0.41084868 -0.2218357 0.39145765 0.0261544 -0.41650143
0.24518274 0.5441003 0.011623228 -0.5450836 -0.22790456 0.20062745 -0.30170846 0.11184603
0.4451236 0.14727981 0.1255194 -0.3350431 0.5813309 0.3307648 0.088496946 -0.45623305
0.35268816 -0.40850678 0.5053807 0.25527173 -0.55864716 -0.11905761 -0.021197582 0.22633718
0.17784478 0.586712 0.12106409 -0.3565499 0.077898145 -0.19153537 0.576506 0.18321632
-0.24343899 0.009686664 -0.3550265 0.42324883 0.3194755 0.4020019 0.1910779 -0.54010665
0.50906795 0.4099575 -0.53787035 -0.16217497 0.2537974 0.4577745 -0.11122158 -0.5111141
-0.39864618 -0.5836263 0.49810824 -0.10526202 -0.4538529 -0.07961855 -0.19849427 0.29960638
-0.24224597 -0.07125778 0.13396388 -0.28518954 -0.0633904 0.17651083 0.21337777 -0.49635318
-0.44070137 0.1546377 -0.4316659 0.020323217 0.11307337 0.4654347 -0.2094493 0.062534556
0.0120868515 -0.25379416 0.2243089 0.49611557 -0.50215167 -0.38657504 0.26256514 0.34598854
0.17460579 -0.2555825 -0.09064419 0.26255235 -0.021018798 -0.33464244 0.4524479 -0.21755974
-0.18362659 0.22789519 -0.40422186 -0.04595851 -0.23610233 -0.49968603 0.52324 0.3294085
0.053822868 0.27299845 -0.41006035 -0.54026085 -0.27862304 0.41360188 0.096238315 0.09891504

bias f4 [128]
00000000: e148 6bbe ea68 bf3d e0cb a1be ce2a ccbe
00000010: 858a 793d f742 993e f640 43be f17a b9be
00000020: 0a58 c33e 22b6 fe3e 98a2 eb3e 9e20 183e
00000030: 59db 9fbe cae5 b83e d6f7 d53e ccc3 59bc
00000040: a72f 493d 1876 15be c420 76be e81a b4bd
00000050: c280 aabc d628 f53e aa50 203f 40ce c53e
00000060: 048e e23d a041 fabe 98af bdbd 0043 a83e
00000070: f141 693e 8b1c 063f b559 103e 30e4 363e
00000080: 44e3 c8bb 2d79 803e 8a77 ed3d a71b ab3e
00000090: 65a0 cabd 4044 8f3d ac72 94be f000 c3be
000000a0: eb39 94be 0063 943b d0b1 d93e 977f d13d
000000b0: 56b9 153f 3211 e1bd f938 60bd 6cf8 aa3e
000000c0: 2e6a 183f f3d7 f33d cca6 0e3f 61f1 a93d
000000d0: ad0d eebe f649 2e3d 0690 aebe f6eb db3d
000000e0: 4a92 423e 7af5 9abe a45d b83e b90c 14bd
000000f0: 3110 053f 3538 94be 5a1c f73e b867 ffbe
00000100: 9e55 533e 3023 ea3d 624c cbbb 61ac 1e3e
00000110: 6456 f73e 25d3 033e 326a 173f 17b3 223f
00000120: 6ec1 803e e4ec 36bd 80e2 693e 2893 b6be
00000130: d9a0 ac3e abec 5d3e 9456 12be 95a2 c83d
00000140: 11d9 fbbc 2357 7c3e 9be3 b0bb c3ed 003f
00000150: 0f96 133f 2862 a33e 0fb0 163e 3e12 793e
00000160: 5874 e53e d116 d93e 17c9 813e e766 38be
00000170: cf7c 99be ae24 6d3e 082d 09bf 5475 263e
00000180: 6f43 de3d a671 513e bf82 cf3e 0a92 cb3d
00000190: 3e6c 1bbe a5a1 173f 43bd 133f 4832 b93c
000001a0: ad32 80be e156 003f be05 413d 3bde eebe
000001b0: ea93 0abd a68e 82be 8131 533e bc09 1cbe
000001c0: 7cef cebe d73b 98be c828 93be f480 863e
000001d0: 653f 51be cab1 fbbd 502c 1cbe 189e b03e
000001e0: afe2 593e cdb8 c1be adb1 ce3d 4a72 4c3e
000001f0: bfb6 6b3e 25fe dc3e 1fa3 bdbe c65a 45be
-0.2297702 0.09346183 -0.31600857 -0.39876407 0.06092312 0.29933903 -0.1906775 -0.3622661
0.38153106 0.4974833 0.46022487 0.14856192 -0.31222036 0.36112815 0.41790646 -0.0132913105
0.04911771 -0.1459583 -0.24035937 -0.087941945 -0.02081335 0.47882718 0.62623084 0.3863392
0.110622436 -0.48878193 -0.092620075 0.32863617 0.22779061 0.52387303 0.1409672 0.17860484
-0.006130608 0.2509245 0.11595066 0.33419535 -0.09893874 0.069954395 -0.28993738 -0.38086653
-0.28950438 0.0045284033 0.42518473 0.10229414 0.58485925 -0.10989608 -0.054741833 0.33392656
0.5953702 0.119064234 0.5572326 0.082979925 -0.4649481 0.042551003 -0.34094256 0.10738365
0.19001117 -0.3026541 0.36008942 -0.036144946 0.5197783 -0.28949133 0.48263818 -0.4988382
0.20638129 0.11432493 -0.006204174 0.15495445 0.48308098 0.12873514 0.59146416 0.6355452
0.25147575 -0.04465951 0.22840309 -0.35659146 0.33716467 0.21672313 -0.1429084 0.09796635
-0.030743154 0.24642615 -0.0053982264 0.50362796 0.57650846 0.31910825 0.14715599 0.24323365
0.44815326 0.4240022 0.25348732 -0.18008004 -0.29978034 0.23158523 -0.5358434 0.16255695
0.10852706 0.2045351 0.4052944 0.09939964 -0.1517801 0.59231025 0.57710665 0.022606984
-0.25038663 0.50132567 0.047124617 -0.46653923 -0.033832468 -0.25499457 0.20624353 -0.15238088
-0.40417087 -0.29733154 -0.2874205 0.26270258 -0.2043434 -0.1228977 -0.15251279 0.34495616
0.21277879 -0.37836304 0.10092483 0.19965473 0.23018931 0.43162647 -0.37038514 -0.19272909

weight f4 [2, 128]
00000000: e23d 443a 6e90 0c3e f1a7 ccbd e820 d63c
00000010: edd2 8f3d 9df8 0f3d cf7e a73b 6360 5dbb
00000020: 9cde a8bd 322d 293d 64f5 ac3d 9b23 4e3d
00000030: 77d7 263e 8390 113e 7e33 0c3e 242d 353d
00000040: dd38 2fbe 4d61 143e e860 0d3e b4b6 91bc
00000050: 46f1 d6bc 147b a2bd 5121 c53b 0b5a 8abd
00000060: db75 1abc b19f a63d 4dd9 09be 325a 48be
00000070: a7a6 4a3d a35b 0ebe 9c80 8c3d e8c9 e63d
00000080: 6c41 a73d f65f 9f3d 585f 5e3d 8752 31be
00000090: 0f8e 563d ab9a be3d 5e89 9f3c 288e 91bc
000000a0: 66e4 aa3d 4588 9c3c 18d4 a8bd dfa0 16be
000000b0: e1e0 f13d 1e7b 95bd 905e 78bd 8dcb c83d
000000c0: bada 1d3e 47a4 e43d 32a3 18be 9a88 17bd
000000d0: 1138 1cbc dbde 003d 709e 723c 178b 643d
000000e0: b4ce acbd 75c0 a6bd 2b5e 30bd 79b3 67bc
000000f0: d179 513d b061 03bd eb2f a73d f824 88bd
00000100: fd7e 12be e8fc 4b3e c31f 803d 304a bdbd
00000110: f107 0dbe df03 27be bbb1 b93d dd00 983d
00000120: 1a6b a4bd c879 4abd 06ba 0e3e c061 37bd
00000130: 9e36 c73d 586f dbbd 1b0c 873d bd1e 22be
00000140: 24c9 6fbd 1105 523e 4deb a5bd a6d7 33be
00000150: 18a8 14be 8f85 27be d8fe 983d 0457 c5bd
00000160: 4915 d23d 5c25 c73c 6e50 fcbd d190 92bd
00000170: 80d6 2bbe 8317 0e3e bab1 0bbd d7d7 293e
00000180: 8229 503e c51c 24be 861b 9cbd a949 243d
00000190: d50d 183e ec52 2cbe f9e9 71bd e24a 3e3e
000001a0: d3ef fbbd 4318 053d 4c8e 2f3e 8aac 433d
000001b0: 60dd 333e 8249 343d e49b 39be 80a5 aebd
000001c0: b202 92bd 27f1 543d 1508 833d aa9c 083d
000001d0: 425b bfbd f249 2b3e 2c65 573e 36bb 583d
000001e0: 408f 2e3e e2dd 3ebd 9c00 cf3c 411d c33d
000001f0: ce58 85bd 304d 70bd cdda 69bd 10aa 0d3e
00000200: a42e 0dbe 304f c4bd 4236 823d 7ef1 6dbd
00000210: 9ed1 81bd ad9d e9bd 4859 9d3c bc1b e6bd
00000220: bcc4 343d 41e8 e2bd 1125 c7bd f07f 30be
00000230: 974c fabc e58e fcbd 9a76 4cbd c1a5 47bd
00000240: ab9d d03d ea53 bfbd cc49 18be d4de 8f3d
00000250: 7547 943d 5ce6 213e 3fb1 3dbd 7fac a8bd
00000260: 3b66 d7bd 6189 b3bd 89ea 283e 3e77 7a3d
00000270: d1cb 03bd d888 583d 3465 2fbe df55 2bbe
00000280: 7421 45be 87c9 19bd 57fb fcbd 41eb f63d
00000290: 0b01 0abe 7847 c1bd c2b0 0ebc 0c33 e43c
000002a0: 5cbd a9bc e462 51bd 3e5e 283d b119 383e
000002b0: 9249 dfbc b13c b33d 4772 013e 8a8b 80bd
000002c0: 67cc 95bd 1a22 c6bd beeb 833d ad36 973d
000002d0: 7405 18bd 6621 0ebe 4ce0 9dbd 31a3 653d
000002e0: 33ce ea3c c626 093d 0cb5 d73d 9949 91bd
000002f0: 68a4 483c 0a1f 053e b41d 14be 50c7 8e3b
00000300: 9dda fe3d 637d a8bd 19f7 83bd 97d0 c73d
00000310: dd40 283e e43d 4a3e 5d5b 3fbe 693f 593d
00000320: 1932 433e 2a79 f43d ed0a e5bc cb51 e43d
00000330: 9eab 64bd 0a28 bc3d 4896 a0bd 0fe1 b93d
00000340: 2d40 db3a a1c9 f8bc 9d40 be3d f254 ec3d
00000350: ac1e c53d e3f3 103e 258e 08be 1b9a 9d3d
00000360: 3874 8ebd 68e1 dcbd f3d8 e43d 3f60 bc3c
00000370: 4adb 353e dd9f d8bd cc7d 423d 2396 2cbe
00000380: b881 28bd d1c5 303e 92dd f53d c3a2 2e3c
00000390: c15f c4bd 7916 9a3d c81d 133e dd40 d9bd
000003a0: bd9f ce3d af8d ebbc 9cad 2fbe 289b 98bb
000003b0: 3006 42be c095 023c 7e64 413e 87c8 1f3e
000003c0: f8b3 0bbc 27da 53bd 4a41 3fbd f42d 42bc
000003d0: d28b b93d 1a99 9ebd ac2a efbd bc5d 12be
000003e0: c3f4 f9bd 384d c73c da2c acbd b527 4c3c
000003f0: 6d9a 213e e112 fa3d e24f 103d 4066 76bb
0.0007486028 0.1372697 -0.0999297 0.026138738 0.07022653 0.035149205 0.0051115523 -0.0033779375
-0.08245584 0.041302867 0.08445242 0.050326925 0.16293131 0.14215283 0.13691518 0.044232503
-0.17111535 0.14490242 0.13806498 -0.017787315 -0.026238095 -0.079336315 0.0060159345 -0.067554556
-0.009427513 0.081359275 -0.134618 -0.19565657 0.04947534 -0.13902144 0.06860468 0.11268979
0.08166775 0.07781975 0.054290146 -0.17316638 0.05238157 0.09306844 0.019474681 -0.01776798
0.08344345 0.019107947 -0.08243579 -0.14709805 0.1181047 -0.07298873 -0.060637057 0.09804449
0.15415469 0.11164146 -0.14906004 -0.036995508 -0.009534852 0.03146253 0.014808282 0.05579671
-0.08437863 -0.08142177 -0.043058556 -0.014141911 0.051141564 -0.032075584 0.081634365 -0.06647676
-0.14306255 0.19920695 0.06256058 -0.09242666 -0.1377256 -0.1631007 0.090671025 0.0742204
-0.080282405 -0.049432546 0.1393815 -0.044770956 0.09727214 -0.107145965 0.06594106 -0.15832038
-0.058541432 0.20509745 -0.08101521 -0.17562732 -0.14517248 -0.16359542 0.074704826 -0.096357375
0.10257966 0.024309807 -0.12320028 -0.07156528 -0.16781044 0.13876157 -0.03410504 0.16586243
0.20328334 -0.160266 -0.07622437 0.04010931 0.14849027 -0.16828507 -0.059061024 0.18583253
-0.12301602 0.03249384 0.17144126 0.047771968 0.17564917 0.044015415 -0.18125874 -0.0852766
-0.0712942 0.051987793 0.06398026 0.03335253 -0.09343578 0.16727427 0.21034688 0.052912913
0.17046833 -0.046598323 0.025268845 0.09527064 -0.06511079 -0.05866736 -0.05709343 0.13834405
-0.13787323 -0.09585416 0.06358005 -0.058091633 -0.063388094 -0.114070274 0.019207612 -0.11235759
0.044132933 -0.11079455 -0.09723867 -0.17236304 -0.030554099 -0.123319425 -0.049917795 -0.04874206
0.10186323 -0.09342177 -0.14871901 0.07024923 0.07240192 0.15810531 -0.046311613 -0.08236026
-0.10517546 -0.08766437 0.16495718 0.061148874 -0.032176796 0.05286488 -0.1712845 -0.16731976
-0.19251043 -0.037545707 -0.12352627 0.1205659 -0.1347696 -0.0943746 -0.0087091345 0.027856372
-0.020720176 -0.0511197 0.0411055 0.1797855 -0.02725676 0.0875181 0.1264125 -0.06276615
-0.07314377 -0.09674473 0.06441449 0.073834755 -0.037114576 -0.13879928 -0.07708797 0.056063835
0.028662777 0.033484243 0.10532579 -0.07094116 0.012246229 0.13000122 -0.14464456 0.004357256
0.12444041 -0.082270406 -0.064436145 0.09756582 0.16430993 0.19750172 -0.18687196 0.05303899
0.1906208 0.11937173 -0.027959311 0.11148413 -0.05582773 0.09187324 -0.07841164 0.0907613
0.00167275 -0.030369582 0.09289668 0.115396395 0.09624991 0.14155535 -0.13335474 0.07695409
-0.06955761 -0.1078518 0.11174192 0.022995112 0.17759433 -0.105773665 0.04748325 -0.16854148
-0.041139334 0.17262961 0.12005152 0.010658923 -0.09588576 0.075238176 0.1436683 -0.10608075
0.100890614 -0.028754083 -0.1715607 -0.004657168 -0.18947673 0.0079702735 0.18885991 0.15603839
-0.008526795 -0.05172172 -0.046693124 -0.011851776 0.09059872 -0.077440456 -0.11678061 -0.1429357
-0.12204888 0.024328813 -0.08406992 0.012460639 0.15781565 0.12210632 0.035232432 -0.0037597567

bias f4 [2]
00000000: be39 5e3c 6a4d 8b3d
0.0135635715 0.06801875

weight f4 [1, 128]
00000000: bccd 923b f655 873d 7080 183e c00c f43a
00000010: b383 e23d 23b2 303e 0808 a23d b73d af3c
00000020: d4b8 3c3e f439 cf3d 24ea 543e d545 193d
00000030: ce9b f8b9 57c7 023e 1ab4 a93d 87f7 1e3e
00000040: f3fe 053e eae1 443e ff60 0a3e 247c 133e
00000050: 617c 953d 1898 c53d 0e43 3d3e 9150 403e
00000060: d503 4e3d bc82 a9bb 76f7 d03c 44d4 4e3e
00000070: 3584 613d 7b82 f33d a3e4 4c3e e0ac a13d
00000080: 6b8a 333e e0f9 4e3e fe5f e93c a4bf e83d
00000090: 080b 423e 2407 1a3d 2066 e53d d8c3 913c
000000a0: 378c 113e 62c1 fd3d 97e3 2d3d d2ae e23d
000000b0: bb99 183e 561b 603e 37ce 6f3d 87a2 923d
000000c0: 1c57 543e 9329 983d b3db 1d3e 374b 2e3d
000000d0: cffb 7f3d 9394 f53d 609c c83b 3951 193d
000000e0: 7d15 eb3d 2995 103e ee23 303e 2a2c cb3c
000000f0: fee8 263e dfbc b33d a2a6 0b3e 3078 d03b
00000100: 81e1 193e 996a 3e3e bb48 f63c 26e3 443e
00000110: 1a96 593d 6152 e13d 6f9d 0c3e 5f58 073e
00000120: 3ab8 523e 9a75 6b3e 3030 2d3e 438d 933d
00000130: 3f36 dc3d 119c 993d c21a 2f3e 5e67 553d
00000140: 19ce 373e 0fcc 5b3e 3b07 383e 39d9 943d
00000150: 9873 e83d d35d a13d 8c36 b23d fa67 113d
00000160: 8cc2 223e 2097 513d b076 433e adb8 493e
00000170: 4d8a 933c a855 d33d fe73 483b e109 d53d
00000180: 40b2 c73d 5028 453e adfe 9e3d 3144 5e3e
00000190: 13d4 0f3e 84ba 323e 2aa0 263e c7d6 1d3e
000001a0: 5bc1 8c3d e028 4e3e 2ae0 073d c466 1c3d
000001b0: e922 373d 087d b3bc 246f 403e f2b2 ef3d
000001c0: 7eb8 3d3d 03d9 f93d 7c2a a6bd 3606 413e
000001d0: 0889 4b3d 7fa9 fe3c 6e52 e13d 8106 363e
000001e0: 9adb 8e3d 60bb 193e 5ff5 2b3e cb3e 753d
000001f0: 9baa 413e db2c 323e 1400 7d3d f9d7 803d
0.004480092 0.066081926 0.14892745 0.0018619522 0.11060276 0.17255454 0.07911688 0.021391733
0.18429881 0.101184756 0.20792443 0.037420113 -0.0004741833 0.12771355 0.08286305 0.15524112
0.13085537 0.19226804 0.13513564 0.14402825 0.07299114 0.0964815 0.1848261 0.18780734
0.050296623 -0.0051730555 0.025508624 0.2019816 0.055057723 0.118901215 0.20009093 0.078943014
0.17533271 0.20212507 0.028488155 0.113646775 0.1894952 0.037604466 0.112011194 0.01779358
0.14213644 0.123904005 0.042453375 0.110685006 0.14902394 0.21885428 0.05854627 0.07159906
0.20736355 0.07429805 0.1541584 0.0425522 0.062496003 0.11991229 0.006122157 0.037430976
0.11478708 0.141194 0.17201206 0.024801333 0.16299817 0.08776259 0.13637784 0.0063619837
0.15027429 0.18595351 0.030063977 0.19227275 0.053121664 0.11002041 0.13731931 0.13217305
0.2057809 0.2299408 0.16912913 0.07204678 0.10752534 0.075004704 0.17100051 0.05210053
0.17949714 0.21464561 0.17971508 0.072679944 0.11350173 0.07879224 0.0870181 0.03549955
0.15894526 0.051169515 0.19088244 0.19699354 0.018010283 0.10319072 0.0030586715 0.10402275
0.09750795 0.19253659 0.07763419 0.217057 0.14045744 0.17453963 0.16272035 0.15413962
0.06872817 0.2013278 0.033172764 0.038183942 0.044711027 -0.021910205 0.18792397 0.11704053
0.046318524 0.12199595 -0.08113572 0.18850026 0.04969123 0.031086681 0.1100205 0.17775919
0.069754794 0.15012884 0.1679282 0.059874337 0.18912737 0.17399924 0.061767653 0.062911935
