model/A2C_model_4.pt (torch, 7543 bytes, 5 tensors)

weight f4 [128, 4]
-0.30164194 0.2818557 -0.18439348 -0.30225495 -0.37721604 0.33273274 0.1471404 -0.46262583
0.57247084 -0.39276195 -0.3756576 -0.08298904 0.24754441 0.46098956 0.2558207 0.061877288
0.24359937 -0.4342742 0.16638231 -0.1519489 0.49511275 0.31862262 -0.46486694 -0.2802979
0.07555942 -0.35952616 0.47792277 0.04043219 0.33064654 -0.1329148 -0.059262108 -0.24645384
0.52615815 0.17744084 0.29761174 0.079591975 -0.37486044 0.028022364 -0.45105806 0.35618162
-0.009054049 -0.3872011 -0.52838516 -0.09389586 0.47316322 -0.16794491 0.38440076 -0.27029106
-0.58730435 -0.4301897 -0.31545645 0.4295459 0.324279 -0.124378234 -0.02044948 0.22881033
0.5410143 -0.057606824 -0.5065913 -0.13345371 0.5582565 -0.21053874 -0.5712003 -0.47264755
-0.30580255 0.2943452 -0.25613195 0.24721195 -0.37716097 -0.21591835 -0.36070797 0.37084207
0.16587992 -0.044660147 0.33373395 0.08931647 -0.11245254 -0.4287461 0.450989 0.24419816
0.17670165 0.06690422 0.51873624 0.043379143 -0.053098332 0.017749025 -0.33505076 -0.3900324
0.36587343 0.27910787 0.45835176 -0.16770132 0.44279918 0.13965203 0.41209215 0.50657034
0.027119149 0.20947999 0.2654829 -0.33712095 -0.03825048 -0.12579122 -0.41455114 0.010127321
0.17753942 0.5046902 -0.35993284 -0.29001278 -0.35407075 -0.124849334 -0.5018928 -0.3771133
0.29210973 -0.5195732 -0.129767 -0.49722952 -0.39523393 -0.044408444 -0.15747654 -0.20888442
0.42174816 0.116696306 0.23635408 0.23780547 -0.09009916 -0.43094987 0.25243214 0.42798814
0.122855626 0.14499573 -0.1353672 0.34411272 0.04842481 0.010204659 0.17612714 -0.5039117
0.26577407 0.006369577 -0.29904428 -0.4263153 0.54536754 -0.23147592 -0.32657 -0.4905693
-0.03184815 0.17032552 -0.042932093 -0.5143667 0.4193628 0.2068998 -0.3493376 0.577154
-0.59845096 -0.41125658 -0.21378587 -0.27886814 0.4201833 -0.3139629 0.37204868 0.2877426
0.35220367 -0.302769 -0.19118555 0.32051688 0.29097906 0.2862666 0.19842502 -0.07270826
-0.33732304 0.026913946 0.3182162 0.4634622 0.0476894 -0.44410792 0.3587719 0.35668072
-0.4297549 0.49109882 0.0051329858 0.2863374 0.35672808 0.43248498 0.414471 0.36070994
0.41453058 0.24177273 -0.18380928 0.20592612 0.54904413 0.21031235 0.5550543 0.5546482
0.46204975 0.38987657 0.14722829 0.27298567 -0.5673003 -0.461948 -0.31876102 0.12618105
-0.07378463 0.021004379 0.42728418 0.23779492 -0.18089604 0.02023759 -0.14793818 0.39253277
0.40475854 -0.13235475 0.041813746 -0.11070106 -0.20650314 -0.57105565 0.23181187 0.22697727
-0.16752051 -0.47680518 0.37734848 0.36001235 -0.41658866 0.15534842 0.5097156 0.5438698
-0.21973567 -0.041561518 -0.048445724 -0.51464134 -0.35412073 0.4727572 0.02633738 0.25296372
0.41318148 0.07646431 -0.18903998 0.03417803 0.34437907 -0.4548908 0.46750203 -0.051015116
0.07026199 -0.18239887 -0.016049396 -0.4215389 -0.26582846 0.43806773 -0.019359041 0.25530005
-0.21730599 -0.4841911 0.23111582 0.24524868 -0.13089246 0.4063437 -0.4430797 0.21680155
00000000: d070 9abe 644f 903e a5d1 3cbe 29c1 9abe
00000010: 7622 c1be f25b aa3e f9ab 163e 4bdd ecbe
00000020: 738d 123f 1818 c9be 3156 c0be 28f6 a9bd
00000030: 487c 7d3e d306 ec3e eefa 823e 0a73 7d3d
00000040: 1d72 793e 3059 debe 2060 2a3e 7e98 1bbe
00000050: 6b7f fd3e 8122 a33e 0a03 eebe 3583 8fbe
00000060: e6be 9a3d d013 b8be 4bb2 f43e 399c 253d
00000070: 814a a93e d11a 08be d3bc 72bd 655e 7cbe
00000080: 4db2 063f 0db3 353e 9160 983e 1e01 a33d
00000090: b5ed bfbe 288f e53c 15f1 e6be 705d b63e
000000a0: 6f57 14bc 393f c6be 4044 07bf 794c c0bd
000000b0: 7342 f23e c0f9 2bbe 2dd0 c43e 9763 8abe
000000c0: 9459 16bf d341 dcbe 8283 a1be 71ed db3e
000000d0: e607 a63e 04ba febd ab85 a7bc 414d 6a3e
000000e0: ea7f 0a3f 22f5 6bbd f8af 01bf 17a8 08be
000000f0: e6e9 0e3f 7897 57be 2f3a 12bf dcfe f1be
00000100: 2792 9cbe 6ab4 963e ba23 83be 2125 7d3e
00000110: 3e1b c1be b319 5dbe b7ae b8be 03df bd3e
00000120: 6ddc 293e 8fed 36bd 2ddf aa3e 8eeb b63d
00000130: 844d e6bd 9c84 dbbe 08e8 e63e 150f 7a3e
00000140: 47f1 343e 1405 893d e6cb 043f 54ae 313d
00000150: a37d 59bd 6766 913c c68b abbe 54b2 c7be
00000160: c353 bb3e 3ae7 8e3e 15ad ea3e e5b9 2bbe
00000170: 93b6 e23e f100 0f3e befd d23e 98ae 013f
00000180: fa28 de3c ec81 563e 60ed 873e 1e9b acbe
00000190: 89ac 1cbd 6acf 00be 0c40 d4be 10ed 253c
000001a0: e5cc 353e 6033 013f 1e49 b8be 8e7c 94be
000001b0: c348 b5be 02b1 ffbd 0c7c 00bf ff14 c1be
000001c0: 688f 953e c002 05bf a4e1 04be de94 febe
000001d0: 1a5c cabe a1e5 35bd 8841 21be cce5 55be
000001e0: 60ef d73e 79fe ee3d ce06 723e 4783 733e
000001f0: e985 b8bd 76a5 dcbe c93e 813e 4321 db3e
00000200: bb9b fb3d c379 143e b39d 0abe 8b2f b03e
00000210: 1859 463d 7131 273c ac5a 343e 5b00 01bf
00000220: 8a13 883e e2b7 d03b 551c 99be 0046 dabe
00000230: 359d 0b3f 0608 6dbe 2f34 a7be e62b fbbe
00000240: 3573 02bd d069 2e3e 90d9 2fbd 89ad 03bf
00000250: b9b6 d63e 8bdd 533e 61dc b2be 5dc0 133f
00000260: 1534 19bf 3990 d2be afea 5abe cec7 8ebe
00000270: 4422 d73e bfbf a0be 2a7d be3e 0053 933e
00000280: 0a54 b43e 8a04 9bbe 25c6 43be ca1a a43e
00000290: 35fb 943e 8991 923e ee2f 4b3e 11e8 94bd
000002a0: 9bb5 acbe a37a dc3c 3ced a23e eb4a ed3e
000002b0: f655 433d 1d62 e3be f3b0 b73e db9e b63e
000002c0: d608 dcbe 4e71 fb3e 9b32 a83b d19a 923e
000002d0: 10a5 b63e ac6e dd3e 8b35 d43e f9ae b83e
000002e0: 5a3d d43e 4593 773e 8038 3cbe 4cde 523e
000002f0: 288e 0c3f 1f5c 573e 0a18 0e3f 6dfd 0d3f
00000300: c991 ec3e e79d c73e 03c3 163e c7c4 8b3e
00000310: 983a 11bf 7384 ecbe a534 a3be 9b35 013e
00000320: 651c 97bd 6011 ac3c fec4 da3e 8380 733e
00000330: d03c 39be 4dc9 a53c 1b7d 17be 0efa c83e
00000340: 833c cf3e 0188 07be e444 2b3d 3db7 e2bd
00000350: 8f75 53be b430 12bf 1760 6d3e bb6c 683e
00000360: 7f8a 2bbe cf1f f4be d233 c13e 8a53 b83e
00000370: 1c4b d5be a813 1f3e b97c 023f 0d3b 0b3f
00000380: 6302 61be 693c 2abd 066f 46bd 89bf 03bf
00000390: 504f b5be 3b0d f23e 7dc1 d73c 7684 813e
000003a0: 868c d33e 5299 9c3d b293 41be 43fe 0b3d
000003b0: 7452 b03e 72e7 e8be 6d5c ef3e 3af5 50bd
000003c0: 85e5 8f3d c5c6 3abe 067a 83bc f2d3 d7be
000003d0: ab1a 88be 6a4a e03e da96 9ebc b0b6 823e
000003e0: 7685 5ebe e5e7 f7be a0a9 6c3e 7822 7b3e
000003f0: ac08 06be 480c d03e 58db e2be 3a01 5e3e

bias f4 [128]
0.52411413 -0.3104254 0.46811485 0.36775267 0.53752536 0.35196224 0.35038942 0.12428518
-0.23286724 0.23247807 0.14580245 -0.27061188 0.16439158 -0.29112834 0.07937441 -0.1793214
0.3992787 0.39921936 0.059236556 -0.0730633 -0.25187123 -0.17336854 -0.47151718 -0.11697414
-0.5236222 0.22209391 -0.25897607 0.35004717 -0.31586283 0.045005996 0.013871402 -0.104969166
0.5056278 0.4459193 0.15263659 0.38770458 -0.14990138 -0.18392703 -0.36439753 0.5310486
-0.23449914 0.26259625 -0.21578051 0.42114285 0.07823003 0.084498376 -0.345389 0.057994448
0.4251016 -0.06715374 0.51176876 -0.0404263 0.25973326 0.021577468 0.5209396 0.19459099
-0.18564726 0.4708049 0.20348458 -0.34973538 -0.050242666 -0.39722157 -0.24927206 0.48014504
0.46568722 0.4605234 0.38196495 -0.3300202 -0.061262462 0.32374662 -0.3964117 -0.11491443
0.063413784 0.37101424 -0.24475694 0.071892686 -0.18623383 -0.444508 0.37849137 -0.31158307
-0.24977732 -0.46193382 0.5786845 -0.17078967 0.40681678 -0.33899042 0.30644307 0.15292189
0.13221018 -0.31328663 -0.20295534 -0.31109455 0.04687326 -0.11656185 0.10569088 -0.39172298
0.53419846 -0.2734855 0.059446223 0.53046465 0.21251452 0.5256293 0.2017483 -0.36798477
0.4994848 -0.26748362 -0.070595205 0.21201521 0.47751498 0.102195285 0.009454333 -0.19176693
-0.17702207 -0.21774872 0.24620767 0.2325543 0.4345113 -0.3680471 0.38644975 0.17457429
0.43134126 -0.010542461 0.018182814 -0.1565825 0.22706059 0.4369693 -0.032607563 0.13641565
00000000: 582c 063f 14f0 9ebe c0ac ef3e 144a bc3e
00000010: 439b 093f 6534 b43e 3e66 b33e 3a89 fe3d
00000020: c074 6ebe bb0e 6e3e 3d4d 153e a48d 8abe
00000030: 4456 283e c60e 95be 0d8f a23d 07a0 37be
00000040: 426e cc3e 7b66 cc3e 08a2 723d 36a2 95bd
00000050: 44f5 80be 8687 31be b36a f1be 2390 efbd
00000060: 1b0c 06bf 966c 633e 8398 84be 6239 b33e
00000070: c6b8 a1be 3558 383d e044 633c 13fa d6bd
00000080: d370 013f 894f e43e c44c 1c3e 3781 c63e
00000090: bf7f 19be 5e57 3cbe 5092 babe cdf2 073f
000000a0: 8b20 70be 0473 863e 91f5 5cbe 09a0 d73e
000000b0: 1137 a03d 7c0d ad3d d4d6 b0be 968b 6d3d
000000c0: eba6 d93e e687 89bd 4703 033f 0c96 25bd
000000d0: c2fb 843e 3bc3 b03c 4c5c 053f dc42 473e
000000e0: 511a 3ebe 570d f13e 435e 503e 8410 b3be
000000f0: 41cb 4dbd a060 cbbe 2d41 7fbe 92d5 f53e
00000100: 8e6e ee3e b9c9 eb3e e990 c33e 68f8 a8be
00000110: 59ee 7abd 1ec2 a53e 79f6 cabe 4258 ebbd
00000120: 16df 813d 94f5 bd3e 90a1 7abe 793c 933d
00000130: 15b4 3ebe 8d96 e3be 9fc9 c13e d187 9fbe
00000140: a0c5 7fbe 9782 ecbe ab24 143f 7de3 2ebe
00000150: 4a4a d03e 2790 adbe 1be6 9c3e 8e97 1c3e
00000160: 1b62 073e 1b67 a0be 86d3 4fbe c947 9fbe
00000170: 2dfe 3f3d fbb7 eebd 7674 d83d ea8f c8be
00000180: 3bc1 083f 4b06 8cbe e27d 733d 88cc 073f
00000190: 689d 593e a48f 063f 1b97 4e3e 8068 bcbe
000001a0: 79bc ff3e 9df3 88be 3894 90bd 841a 593e
000001b0: d87c f43e c34b d13d 59e6 1a3c 8d5e 44be
000001c0: 4645 35be 85f9 5ebe dd1d 7c3e b722 6e3e
000001d0: 4478 de3e ab70 bcbe bedc c53e 9ac3 323e
000001e0: c3d8 dc3e 49ba 2cbc 20f4 943c 2a57 20be
000001f0: 9282 683e 71ba df3e 828f 05bd 8bb0 0b3e

weight f4 [2, 128]
0.14823534 0.02060898 0.07364368 -0.010317117 0.10835298 0.10876148 0.044177253 0.14531405
-0.13403316 0.0037348475 0.0838863 -0.0046039685 0.001985722 0.048955396 0.16210589 0.13978843
0.012152105 -0.065017976 -0.117548734 0.003041644 -0.10012749 -0.0006204706 -0.07310544 -0.13107419
0.026922734 0.13496713 0.13310497 0.10011149 0.09583393 0.121797815 0.0032605494 -0.011630756
-0.10663686 0.047461923 0.09982351 0.023799935 0.14757521 -0.09289757 0.05677589 0.03188752
-0.049493454 0.056559496 -0.09938151 -0.107513756 -0.104971394 -0.012199926 -0.15234618 -0.16428362
-0.10179086 0.024973784 -0.0063020685 -0.14557657 0.11467728 0.019785836 -0.065392144 -0.114315875
0.024512691 -0.090547115 0.066178195 0.005458128 -0.0048479685 0.020862956 0.032982327 0.05468066
0.16961856 -0.06390068 -0.01950372 -0.12151245 -0.015685713 0.15853247 -0.11318755 0.012956254
-0.030090038 -0.080541894 -0.027417956 0.08088972 -0.10531266 0.057031713 0.015899329 -0.09854496
0.025094267 0.06797281 0.032160386 0.15423626 0.10976095 -0.04451941 -0.1460099 0.15970802
-0.04084382 -0.016883345 0.022036493 0.033710726 -0.066509776 0.06219454 0.13446134 -0.049740415
-0.0158138 -0.13013695 -0.023052705 0.034954827 -0.05367922 0.11070282 -0.108550645 -0.11419065
-0.01762995 0.11901711 -0.17511225 -0.08943882 -0.083973505 0.020421095 -0.14284016 -0.0413718
-0.07056789 -0.13719238 -0.13670255 0.16470556 0.047601614 0.028152239 -0.05772214 0.040821426
-0.01412748 -0.060611688 -0.014837042 0.1567381 0.0757583 0.1299137 -0.049593855 -0.073025376
-0.12554467 -0.09454887 -0.055745147 0.058226123 -0.032950383 0.010728417 0.06868341 -0.13600306
0.14435923 0.018461091 -0.13953574 -0.116048075 0.080350906 0.06959927 -0.15369011 -0.13812864
0.055582654 0.10760742 0.07503731 0.0555692 0.027915088 -0.014418029 -0.042012826 0.09852598
0.018182537 -0.0034745645 -0.13814533 -0.13751134 -0.07010569 -0.07078502 0.057842005 0.07241962
0.059771735 -0.12284672 -0.08637545 -0.14904414 -0.008211609 0.056867745 -0.04058554 0.12102747
0.09910709 -0.0119076 0.010475612 0.04188054 0.09313488 0.15901686 -0.002863917 0.054641295
0.034877036 -0.07418224 0.136145 0.08472645 -0.034923267 0.05000066 0.08747607 0.07769455
-0.009458864 0.021253536 0.040489838 0.06053335 -0.004860491 0.057846412 0.071582094 0.08021365
-0.16748838 0.14013486 0.0940084 0.14719658 0.10555219 -0.08176076 0.113483615 -0.039010804
0.17549343 0.031826057 0.05041837 -0.11302838 -0.0069998833 0.061321564 -0.09235944 0.06847283
0.019776627 0.08104879 -0.09366318 -0.12134261 -0.057682827 0.11070924 0.11263985 -0.1066797
0.057215724 -0.022600548 -0.04027764 -0.030462287 0.04174049 -0.05159034 -0.054057017 0.06400432
0.098044924 0.11448704 0.14481877 -0.07201889 0.04179477 -0.10089881 0.06248074 0.12780498
0.003078632 -0.025002958 0.03306673 0.02942726 0.16117315 0.13772391 0.13880251 0.12820928
0.059531134 0.1386216 0.12651883 -0.08084568 -0.09557963 -0.04979171 0.082278155 -0.10505231
0.071538694 0.027359297 -0.119630404 -0.0297684 -0.07597162 -0.07657452 0.033009034 -0.0028305051
00000000: 01cb 173e 2ad4 a83c 7fd2 963d 2009 29bc
00000010: 2be8 dd3d 57be de3d 35f3 343d 35cd 143e
00000020: fd3f 09be 58c4 743b 95cc ab3d e3dc 96bb
00000030: e322 023b 7485 483d 16ff 253e b324 0f3e
00000040: 9f19 473c 2528 85bd 64bd f0bd 5256 473b
00000050: a40f cdbd 14a7 22ba 4eb8 95bd 5038 06be
00000060: 118d dc3c d334 0a3e ab4c 083e 4107 cd3d
00000070: 9444 c43d 2271 f93d f1ae 553b ed8e 3ebc
00000080: 6d64 dabd 6f67 423d 4570 cc3d 15f8 c23c
00000090: f51d 173e 1541 bebd d68d 683d 7d9c 023d
000000a0: a6b9 4abd eeaa 673d 8888 cbbd 2c30 dcbd
000000b0: 3efb d6bd 33e2 47bc a300 1cbe f739 28be
000000c0: ba77 d0bd d295 cc3c 9581 cebb 0612 15be
000000d0: ecdb ea3d e815 a23c 51ec 85bd 711e eabd
000000e0: d7ce c83c c470 b9bd 6f88 873d 19da b23b
000000f0: b5db 9ebb cae8 aa3c 7a18 073d d4f8 5f3d
00000100: 7db0 2d3e 5cde 82bd 44c6 9fbc 85db f8bd
00000110: 537f 80bc 5656 223e e0ce e7bd 7846 543c
00000120: 627f f6bc 26f3 a4bd 9f9b e0bc 82a9 a53d
00000130: 2aae d7bd 169a 693d 4f3f 823c f1d1 c9bd
00000140: 7e92 cd3c 5435 8b3d 9cba 033d 1cf0 1d3e
00000150: 59ca e03d fc59 36bd 9f83 15be 808a 233e
00000160: d94b 27bd f14e 8abc e085 b43c 4214 0a3d
00000170: 4736 88bd b4bf 7e3d 3cb0 093e 9bbc 4bbd
00000180: f18b 81bc 9f42 05be 07d9 bcbc cb2c 0f3d
00000190: bede 5bbd 29b8 e23d cd4f debd cadc e9bd
000001a0: af6c 90bc 3ebf f33d a050 33be b32b b7bd
000001b0: 4dfa abbd 244a a73c b144 12be 7a75 29bd
000001c0: e685 90bd 297c 0cbe c1fb 0bbe 93a8 283e
000001d0: e9f9 423d 869f e63c 0d6e 6cbd 5e34 273d
000001e0: f276 67bc f643 78bd 1117 73bc f47f 203e
000001f0: 2b27 9b3d 1908 053e ed22 4bbd 548e 95bd
00000200: c88e 00be d7a2 c1bd 0655 64bd 847e 6e3d
00000210: fbf6 06bd 3ec6 2f3c e3a9 8c3d 6344 0bbe
00000220: e8d2 133e b73b 973c 75e2 0ebe 9daa edbd
00000230: 048f a43d 108a 8e3d f160 1dbe 9871 0dbe
00000240: a3aa 633d 4761 dc3d 29ad 993d 889c 633d
00000250: 2fae e43c 9939 6cbc a415 2cbd fdc7 c93d
00000260: 8bf3 943c 85b5 63bb f875 0dbe c6cf 0cbe
00000270: 9293 8fbd bdf7 90bd bdeb 6c3d bd50 943d
00000280: 35d3 743d 1097 fbbd 9de5 b0bd 079f 18be
00000290: fc89 06bc 27ee 683d 063d 26bd 40dd f73d
000002a0: a8f8 ca3d 1818 43bc e7a1 2b3c ee8a 2b3d
000002b0: 80bd be3d 51d5 223e 8eb0 3bbb 8dcf 5f3d
000002c0: 39db 0e3d dcec 97bd 9869 0b3e 1085 ad3d
000002d0: b30b 0fbd 7ecd 4c3d a726 b33d 521e 9f3d
000002e0: 5af9 1abc e51b ae3c acd8 253d d1f1 773d
000002f0: c144 9fbb 5cf0 6c3d a299 923d 0e47 a43d
00000300: 1382 2bbe 837f 0f3e 7a87 c03d b3ba 163e
00000310: bf2b d83d 2f72 a7bd 196a e83d cbc9 1fbd
00000320: 8db4 333e 0a5c 023d 7e83 4e3d 6c7b e7bd
00000330: 475f e5bb 522c 7b3d f226 bdbd 7c3b 8c3d
00000340: 9802 a23c e8fc a53d 7bd2 bfbd 7982 f8bd
00000350: d444 6cbd 87bb e23d b9af e63d e37a dabd
00000360: 095b 6a3d c924 b9bc 2bfa 24bd 0c8c f9bc
00000370: 13f8 2a3d 6450 53bd e46a 5dbd b214 833d
00000380: c7cb c83d 2e78 ea3d 5f4b 143e a47e 93bd
00000390: fe30 2b3d 09a4 cebd ceeb 7f3d 4fdf 023e
000003a0: e0c2 493b 01d3 ccbc fb70 073d 7011 f13c
000003b0: 930a 253e 7f07 0d3e 3f22 0e3e 4b49 033e
000003c0: ebd6 733d d2f2 0d3e 278e 013e 6b92 a5bd
000003d0: 41bf c3bd 64f2 4bbd 7381 a83d aa25 d7bd
000003e0: e182 923d 9b20 e03c c900 f5bd dcdc f3bc
000003f0: 0297 9bbd 1ad3 9cbd 7b34 073d ff7f 39bb

bias f4 [2]
0.003078046 -0.08864164
00000000: 0bb9 493b c089 b5bd

weight f4 [1, 128]
0.17237306 0.06181326 0.12307955 0.17156367 0.075669 0.12593913 0.052171774 0.006151797
0.10778779 0.12770882 0.12761179 0.026216272 0.101092 0.058341667 0.13905387 0.09542188
0.0039218557 0.07040011 0.0076950802 0.14130495 0.06392197 -0.008856751 0.042394783 0.088351734
-0.0028432799 0.14205267 0.018613283 0.014004431 0.14272813 0.18597385 0.02778882 0.12221776
0.1483774 0.14424811 0.07685655 0.058550123 0.093098156 0.10384576 0.11661125 0.12516235
0.05772721 0.027152903 0.11582586 0.028399855 0.1787898 0.03142715 0.17255561 0.074811816
0.16718994 0.11403625 0.117754854 0.17711312 0.12723614 0.12219553 0.14108239 0.1602837
0.16880651 0.1086897 0.09273091 0.029849762 0.105263434 0.056047812 0.075468734 0.06306154
0.048940804 0.07750736 0.04070823 0.18289414 0.12114127 0.08628271 0.058849905 0.10093609
0.037437174 0.10169458 0.17436248 0.16936587 0.18212147 0.034359805 0.03291027 0.032096367
0.07210566 0.05376682 0.14796624 0.15406367 0.10836737 -0.006448898 0.054134943 0.0042208363
0.033221286 0.09693892 -0.0052360417 0.08462143 0.10024171 0.12490677 0.10053917 0.013454363
0.088784315 -0.020841932 0.002089695 0.060687475 0.14054653 0.16430742 0.04135767 0.033459887
0.05850504 0.07184943 0.14979145 0.16261278 0.06470311 0.03942834 0.05795703 0.15243965
0.07206968 0.054327957 0.043092586 0.106980346 0.055219617 0.049507458 0.16221091 0.1153107
0.11778201 0.16956395 0.18221517 0.17068708 0.09436893 0.020903474 0.13621236 0.025462927
00000000: 9082 303e e72f 7d3d 2211 fc3d 63ae 2f3e
00000010: 59f8 9a3d 30f6 003e 12b2 553d 0395 c93b
00000020: d8bf dc3d 1ac6 023e aaac 023e 82c3 d63c
00000030: 5309 cf3d acf7 6e3d 2364 0e3e 8c6c c33d
00000040: e982 803b ef2d 903d 0327 fc3b 3fb2 103e
00000050: 86e9 823d e81b 11bc 27a6 2d3d c1f1 b43d
00000060: 5256 3abb 4176 113e e27a 983c d772 653c
00000070: 5327 123e ee6f 3e3e 61a5 e33c 4e4d fa3d
00000080: 3ff0 173e c7b5 133e f866 9d3d 41d2 6f3d
00000090: 3faa be3d 16ad d43d e1d1 ee3d 8f2a 003e
000000a0: 5e73 6c3d c46f de3c 1c36 ed3d d0a6 e83c
000000b0: ac14 373e c1b9 003d 6bb2 303e f036 993d
000000c0: d733 2b3e d68b e93d 7529 f13d 245d 353e
000000d0: 314a 023e a641 fa3d e777 103e 6921 243e
000000e0: 9ddb 2c3e b598 de3d b4e9 bd3d 7d87 f43c
000000f0: 5b94 d73d 6492 653d 5a8f 9a3d 6926 813d
00000100: 2776 483d 2ebc 9e3d acbd 263d 9a48 3b3e
00000110: ea18 f83d fdb4 b03d 990c 713d 95b7 ce3d
00000120: b957 193d 3f45 d03d 148c 323e 3f6e 2d3e
00000130: 0d7e 3a3e debc 0c3d ebcc 063d 7b77 033d
00000140: 22ac 933d 993a 5c3d 7684 173e dec2 1d3e
00000150: b6ef dd3d 4751 d3bb 9abc 5d3d f14e 8a3b
00000160: 0b13 083d ea87 c63d 1a93 abbb 004e ad3d
00000170: 874b cd3d 1fcf ff3d 7be7 cd3d b06f 5c3c
00000180: 8dd4 b53d b3bc aabc 44f3 083b 6e93 783d
00000190: 6eeb 0f3e 3440 283e a966 293d 3c0d 093d
000001a0: fba2 6f3d cb25 933d ee62 193e f783 263e
000001b0: 1083 843d 9c7f 213d 5a64 6d3d 2419 1c3e
000001c0: 4599 933d fe86 5e3d da81 303d 8318 db3d
000001d0: f72d 623d 55c8 4a3d 9e1a 263e 0428 ec3d
000001e0: b237 f13d 2ca2 2d3e 9d96 3a3e 98c8 2e3e
000001f0: 7f44 c13d c33d ab3c 417b 0b3e a197 d03c
