model/DQN_model_1.pt (torch, 73079 bytes, 6 tensors)

weight f4 [128, 4]
0	0x3eaaa62e	0.3332991
1	0x3e80bbfa	0.25143415
2	0xbeb65d02	-0.35617834
3	0x3ee860cf	0.4538636
4	0xbd59f612	-0.053213187
5	0x3e490c3d	0.19633575
6	0xbf1e38c0	-0.61805344
7	0xbeb28e1f	-0.34874055
8	0x3ec99333	0.39370117
9	0x3b877982	0.004134358
10	0x3ebeac3d	0.37240782
11	0x3e86a1d2	0.26295334
12	0xbed4ad8e	-0.41538662
13	0xbd3f9abb	-0.04677842
14	0x3e695535	0.2278641
15	0xbec7516c	-0.38929307
16	0xbebc7e53	-0.36815128
17	0xbf07cccc	-0.5304687
18	0xbf1185f1	-0.56845003
19	0x3e7fbafe	0.24973676
20	0x3e3d5567	0.1848961
21	0xbe659348	-0.22419465
22	0x3e6c9646	0.231042
23	0xbe3c3fec	-0.1838376
24	0xbe7b404e	-0.24536249
25	0x3da03edc	0.078244895
26	0xbe803aea	-0.25044948
27	0xbe1ccefc	-0.15313333
28	0xbe17b772	-0.14816073
29	0xbe90d9d7	-0.282912
30	0x3e79bd3e	0.24388596
31	0xbf056407	-0.52105755
32	0x3e94926b	0.29017958
33	0xbec4d80f	-0.3844609
34	0xbe751cf5	-0.23936827
35	0x3e62c753	0.22146349
36	0xbe6305f6	-0.22170243
37	0xbc084b1e	-0.008318691
38	0xbe11b89f	-0.14230584
39	0xbd81e620	-0.06342721
40	0x3e7d243c	0.24720854
41	0x3d3e37fa	0.046440102
42	0xbea4d676	-0.3219487
43	0x3eb3cda2	0.35117823
44	0xbedaa51d	-0.42704096
45	0x3e846258	0.2585628
46	0xbe482329	-0.19544663
47	0x3e30d6ca	0.17269436
48	0x3ed20db8	0.41026092
49	0x3bb55a14	0.00553442
50	0xbe691257	-0.22760902
51	0x3df77487	0.12082773
52	0x3f1d0b7f	0.61345667
53	0xbe1616b7	-0.14657103
54	0xbed98176	-0.42481583
55	0xbed63307	-0.41835806
56	0x3edb172b	0.42791113
57	0x3e783e9a	0.2424263
58	0xbe58c019	-0.2116703
59	0x3eea8407	0.45803854
60	0x3f00608e	0.5014733
61	0x3d3f9347	0.046771314
62	0x3ea63797	0.32464287
63	0x3f014681	0.50498205
64	0x3e651049	0.22369494
65	0xbda4729c	-0.080296725
66	0xbf4a9ff6	-0.7915033
67	0xbd9d9a0d	-0.076953985
68	0x3d61e7b6	0.055152617
69	0x3ea4321f	0.3206949
70	0x3eb1731d	0.34658137
71	0xbe70052d	-0.23439474
72	0xbd2babb8	-0.04191181
73	0x3e5ec348	0.21754181
74	0x3e8ca115	0.27466646
75	0x3e864c76	0.2623021
76	0x3d527aed	0.051386762
77	0xbe267def	-0.16258977
78	0xbeb24b17	-0.34822914
79	0x3ec1564b	0.3776115
80	0xbeec9187	-0.4620478
81	0x3eed3a87	0.46333715
82	0x3ef2c945	0.4741918
83	0x3f01f430	0.50763226
84	0xbd8abe78	-0.0677461
85	0xbe8cefe8	-0.27526784
86	0xbf1d21b2	-0.6137954
87	0x3d56c969	0.052438173
88	0xbea62e6f	-0.324573
89	0x3e861b1f	0.26192567
90	0x3de8d074	0.11367884
91	0x3ec95eff	0.3933029
92	0xbee1273c	-0.43975246
93	0x3cbebdd5	0.023283878
94	0xbe230ff5	-0.15924056
95	0x3d4993a2	0.04921306
96	0x3d97b177	0.074068956
97	0xbe234943	-0.15945916
98	0xbe68c8f7	-0.22732912
99	0x3e593676	0.21212181
100	0x3db9e936	0.090776846
101	0xbf01c285	-0.5068744
102	0xbf259727	-0.64683765
103	0xbe4d3513	-0.20039777
104	0x3ec78023	0.38964948
105	0xbedaf11c	-0.42762077
106	0xbf21b273	-0.63162917
107	0x3e848788	0.25884652
108	0x3e2863f5	0.1644438
109	0x3d94e1ab	0.07269605
110	0xbeef58d0	-0.46747446
111	0xbbc4f39e	-0.0060104867
112	0x3d915c9b	0.07097741
113	0x3e1ba341	0.15198995
114	0x3eb6c5a8	0.35697675
115	0xbe5373eb	-0.20649688
116	0xbe0f4e56	-0.13994727
117	0x3e006b71	0.12540986
118	0xbef1f4f4	-0.47257197
119	0x3d7ee930	0.062234104
120	0xbecf4117	-0.40479347
121	0x3e618330	0.220227
122	0xbeea6b8e	-0.45785183
123	0x3d2380df	0.039917823
124	0xbe64ee36	-0.22356495
125	0x3e8f5a5f	0.27998635
126	0xbe53a83e	-0.20669648
127	0x3ec678bd	0.3876399
128	0x3ddcc0d3	0.10778966
129	0x3eb16271	0.34645417
130	0xbe231e01	-0.15929414
131	0x3d803a56	0.06261127
132	0x3e3f8767	0.18703996
133	0xbef4ba99	-0.47798613
134	0x3ecfe533	0.40604553
135	0xbce1ebe1	-0.027578296
136	0xbd85ebee	-0.06539141
137	0xbd31bec9	-0.043394838
138	0x3f27168f	0.65268797
139	0x3eccce7c	0.40001285
140	0xbe5d1dc6	-0.21593389
141	0x3dac4605	0.08411793
142	0xbf2006f9	-0.6251064
143	0x3e2fe6fa	0.17177954
144	0x3e62e07f	0.22155951
145	0x3e146fca	0.14495769
146	0xbe004059	-0.12524547
147	0xbe65c8b1	-0.22439839
148	0xbe28af16	-0.1647304
149	0x3c8d9737	0.017284019
150	0x3e8ddff9	0.2770994
151	0x3ec9aa5d	0.3938779
152	0x3ea46e15	0.32115236
153	0x3ee44bfd	0.44589224
154	0x3e9739d4	0.29536307
155	0x3eec608c	0.4616741
156	0xbeed3e48	-0.4633658
157	0x3e8a7561	0.27042678
158	0xbf007ed7	-0.5019354
159	0x3e4ae6ee	0.19814655
160	0xbf129933	-0.57265013
161	0x3eaeff84	0.34179318
162	0x3db2ec7d	0.08736513
163	0x3e7e6221	0.2484212
164	0xbe3d77ae	-0.18502685
165	0x3da5f067	0.08102494
166	0xbecbbd73	-0.39792976
167	0x3e681448	0.22663987
168	0x3e147b67	0.145002
169	0x3dfab349	0.12241227
170	0x3e4b2c1e	0.19841048
171	0xbc634b86	-0.013872987
172	0x3f21b180	0.6316147
173	0xbe570f04	-0.21001822
174	0x3c312508	0.010812052
175	0xbea7d339	-0.32778338
176	0xbe0a8de6	-0.13530692
177	0xbed1d23c	-0.4098071
178	0xbecaeab2	-0.39632183
179	0x3ecbd0da	0.3980778
180	0x3f09dc62	0.538519
181	0x3df3c325	0.11902455
182	0xbedb2c25	-0.42807117
183	0xbe4eca75	-0.20194419
184	0x3e89e4be	0.2693233
185	0x3d8449d3	0.06459393
186	0x3e86061e	0.26176542
187	0xbe8e3551	-0.27775052
188	0x3e4ca2c3	0.19983964
189	0x3f08a194	0.5337155
190	0xbec98b6a	-0.39364177
191	0xbe7fdf8b	-0.24987619
192	0x3eaf9067	0.34289858
193	0xbe1a43f2	-0.15064982
194	0xbf529ae3	-0.8226759
195	0xbedf89f0	-0.43659925
196	0xbec70a9c	-0.38875282
197	0xbd89075a	-0.06690855
198	0x3dfcc4bf	0.12342214
199	0xbd298805	-0.041389484
200	0x3f01a803	0.5064699
201	0xbe969226	-0.29408377
202	0x3e59a1fc	0.21253198
203	0x3eeec9ee	0.46638435
204	0xbeafc854	-0.34332526
205	0x3ea18ea4	0.3155414
206	0xbe805500	-0.2506485
207	0x3eb231ba	0.34803563
208	0xbe0983a0	-0.13429117
209	0x3d81e835	0.06343118
210	0x3e09eebe	0.13469979
211	0x3e9310ec	0.28723848
212	0x3e802bfb	0.25033554
213	0xbed7546b	-0.42056593
214	0xbefbcd28	-0.4917996
215	0x3ed59fa1	0.4172335
216	0xbe0186df	-0.12649105
217	0xbeb252f1	-0.34828904
218	0x3e780f3c	0.24224561
219	0x3ec63082	0.38708884
220	0x3ef29079	0.4737585
221	0xbc660304	-0.014038805
222	0x3e337912	0.17526653
223	0xbde2edbd	-0.11080501
224	0x3e44b19a	0.19208375
225	0xbebfee20	-0.37486362
226	0x3eaf485a	0.34234887
227	0xbd2b2852	-0.0417865
228	0xbe273b95	-0.16331322
229	0x3ed522fb	0.4162825
230	0x3e728a8d	0.23685665
231	0x3edb27d0	0.42803812
232	0xbe5c144f	-0.21492122
233	0xbe6c6812	-0.23086575
234	0x3dcce6ee	0.10004984
235	0x3e0bfd94	0.13670951
236	0x3e7fb26c	0.24970406
237	0x3c87b439	0.016565429
238	0x3ef797f9	0.48358133
239	0xbd091ec0	-0.03347659
240	0xbe37dcf1	-0.17955376
241	0x3f000ab4	0.5001633
242	0xbf10ec02	-0.5661012
243	0xbe531e0b	-0.20616929
244	0x3d932cf9	0.07186312
245	0xbe6805c9	-0.22658457
246	0xbf05a070	-0.52197933
247	0xbef11295	-0.4708449
248	0xbd2c7e0b	-0.04211239
249	0xbea9a06c	-0.33130205
250	0xbe712a37	-0.2355126
251	0xbd9792f4	-0.07401076
252	0xbe8aa4eb	-0.27078947
253	0xbe5fb1b0	-0.21845126
254	0x3e8fd883	0.28094873
255	0x3eae2b3c	0.3401736

bias f4 [128]
0	0xbeaf4a20	-0.3423624
1	0xbe948aa0	-0.29012012
2	0x3ef7bcc0	0.48386192
3	0x3ec53ee7	0.38524553
4	0xbdd9d25b	-0.10635825
5	0x3eef8773	0.46783027
6	0x3f09d878	0.5384593
7	0xbed900f6	-0.42383546
8	0xbee41885	-0.44549957
9	0x3eb58975	0.35456434
10	0x3efe2eb6	0.49645013
11	0xbe4af646	-0.19820508
12	0xbe8df01a	-0.27722245
13	0xbee8bfa2	-0.45458704
14	0x3e91cdff	0.28477475
15	0x3e47c441	0.19508459
16	0xbd9faa92	-0.077962056
17	0x3eeaeb5a	0.45882684
18	0xbefa472b	-0.48882422
19	0x3e98c5b4	0.29838336
20	0xbeab5fa6	-0.3347141
21	0xbde82f65	-0.11337165
22	0x3eb1e5c3	0.34745607
23	0x3f068936	0.5255312
24	0x3eb8c918	0.36090922
25	0x3e9c840c	0.30569494
26	0x3ce1f092	0.027580533
27	0x3f17a873	0.5924141
28	0x3ed19b48	0.40938783
29	0x3ef9fab1	0.48824075
30	0xbe7a37df	-0.24435376
31	0xbeb0cadd	-0.34529772
32	0x3e500fdc	0.2031855
33	0x3ebe86dd	0.37212268
34	0xbe16413b	-0.14673321
35	0xbdd9532d	-0.10611568
36	0x3eafd20a	0.34339935
37	0xbe26b5f5	-0.16280349
38	0xbe8ddca6	-0.27707404
39	0xbeb48105	-0.35254684
40	0xbd3d0857	-0.04615053
41	0x3ef03cd6	0.46921414
42	0x3eebd348	0.46059632
43	0xbea20ed5	-0.3165194
44	0xbee3056a	-0.44340068
45	0xbed04439	-0.4067705
46	0x3eecd2e5	0.4625465
47	0xbeacf4a7	-0.33780405
48	0xbe04662c	-0.129296
49	0x3f18544e	0.5950364
50	0x3f24db59	0.643972
51	0xbee1d556	-0.44108075
52	0xbe9796db	-0.2960728
53	0xbe90709c	-0.28210914
54	0xbf05f776	-0.5233072
55	0xbe492160	-0.19641638
56	0x3f0b848e	0.5449914
57	0xbe20cf21	-0.15704013
58	0xbea85cd3	-0.3288332
59	0xbe92268a	-0.28545028
60	0xbeefab48	-0.46810365
61	0xbe9732fb	-0.29531083
62	0xbe2f4750	-0.17117047
63	0x3eaf6146	0.342539
64	0x3eda3df8	0.42625403
65	0x3e965df6	0.29368562
66	0x3edd7488	0.4325297
67	0xbef7009f	-0.4824266
68	0x3f1ec13e	0.62013614
69	0x3e0148e0	0.12625456
70	0x3e5886da	0.21145192
71	0x3e573108	0.21014798
72	0xbd8826cf	-0.06648027
73	0x3d9f41b3	0.07776203
74	0xbe7639f2	-0.24045542
75	0x3f263210	0.6492014
76	0xbd546f2b	-0.05186383
77	0x3d0fce66	0.035108946
78	0x3ed3a65b	0.41337857
79	0xbeec41a5	-0.46143833
80	0xbee8b08b	-0.45447192
81	0xbedcc9c7	-0.43122694
82	0xbe786b98	-0.24259794
83	0x3e768fb9	0.24078263
84	0x3e92ecf4	0.28696406
85	0x3f06a613	0.5259716
86	0xbee9a8e5	-0.4563667
87	0xbedb66c8	-0.42851853
88	0x3e86c345	0.26320854
89	0x3ec76bcb	0.38949427
90	0x3e781659	0.24227275
91	0xbe9cca55	-0.30623117
92	0x3edd1aba	0.43184453
93	0xbee41f34	-0.44555056
94	0xbeb56829	-0.3543103
95	0xbe8d8987	-0.27643988
96	0x3e6715c9	0.22566904
97	0xbcbaea8e	-0.022816923
98	0xbd9b60d0	-0.07586825
99	0xbef257f4	-0.47332728
100	0x3e42fd1d	0.19041868
101	0xbec508c4	-0.3848325
102	0xbea8cb6e	-0.32967705
103	0x3f084fcb	0.53246754
104	0x3e34b60a	0.17647567
105	0xbeadef8d	-0.33971825
106	0xbdb4ae25	-0.08822278
107	0x3e5a0986	0.21292695
108	0x3f1a019d	0.6015871
109	0x3ecdfbfc	0.4023131
110	0x3f1ad44b	0.60480183
111	0x3ea522e4	0.32253182
112	0x3e8f3322	0.279687
113	0x3f091ac7	0.53556484
114	0xbea3dc22	-0.32003886
115	0xbe918027	-0.28418085
116	0xbdc3e3e3	-0.0956495
117	0x3f172003	0.5903322
118	0xbcb57a75	-0.022153119
119	0xbef3bb3f	-0.47603795
120	0xbeaf5588	-0.34244943
121	0xbe4584d0	-0.19288945
122	0xbebca143	-0.36841783
123	0x3e8c62f9	0.2741926
124	0xbe1a8e6b	-0.1509339
125	0xbe678fe1	-0.22613479
126	0xbe0177b7	-0.12643324
127	0xbd8db7bc	-0.0691981

weight f4 [128, 128]
0	0x3c1a4aa0	0.009417206
1	0xbe21a2a7	-0.15784703
2	0x3d892afa	0.0669765
3	0x3e322d0f	0.17400001
4	0x3c758031	0.0149841765
5	0x3dcf91e8	0.10135251
6	0x3df98927	0.12184363
7	0xbca9dd7b	-0.020735493
8	0xbe117f3d	-0.14208694
9	0x3e304654	0.17214328
10	0x3dd4fac7	0.103993945
11	0xbd624a18	-0.055246443
12	0xbdbb4ef7	-0.09145921
13	0xbe87e173	-0.26539192
14	0x3cfda5c6	0.030962836
15	0xbd70e592	-0.058812685
16	0xbebbdef8	-0.3669355
17	0x3d025fd9	0.03182969
18	0xbd7f939d	-0.062396634
19	0x3d8b1792	0.06791605
20	0xbe686597	-0.22695003
21	0xbe1e1f60	-0.15441656
22	0x3d8f0cdd	0.06984875
23	0x3da4cbb4	0.08046666
24	0x3e1c0918	0.15237844
25	0x3dfd3406	0.12363438
26	0x3da55394	0.08072582
27	0x3cea7b67	0.028623296
28	0x3ddbaa68	0.10725862
29	0x3d934359	0.0719058
30	0x3cf72ccf	0.030172734
31	0x39a3097f	0.00031096858
32	0x3dbfe2e4	0.09369448
33	0x3de00674	0.10938731
34	0xbde0a106	-0.10968213
35	0xbd828dc3	-0.06374695
36	0x3dc58b62	0.09645726
37	0xbdd9e8ac	-0.10640082
38	0x3d8d765d	0.06907342
39	0xbd669160	-0.056290984
40	0xbd0dc40d	-0.034610797
41	0x3e644fa3	0.22296004
42	0x3cf9e1fd	0.030503267
43	0xbe4bc98f	-0.19901107
44	0x3cb9d5a8	0.022684887
45	0xbe681dd0	-0.22667623
46	0x3d955368	0.07291299
47	0xbde81ec7	-0.11333995
48	0xbe8a1b5d	-0.26974002
49	0x3df8d299	0.12149543
50	0x3c8fbd24	0.017546244
51	0xbcdbe612	-0.026843105
52	0x3dc43978	0.09581274
53	0xbd99f18e	-0.07516776
54	0x3ce198ba	0.027538646
55	0xbd336bea	-0.043804087
56	0x3d65d933	0.05611534
57	0xbd0df626	-0.034658574
58	0x3cde4739	0.027133571
59	0xbe458c76	-0.19291863
60	0xbda3c26a	-0.07996066
61	0xbe285c0a	-0.1644136
62	0xbe09c383	-0.13453488
63	0x3e07baac	0.13254803
64	0x3dfcbf5b	0.12341186
65	0x3caef700	0.021358013
66	0x3e393ace	0.18088838
67	0x3cd57a69	0.026059346
68	0x3dea5c23	0.11443355
69	0x3e00f8d7	0.12594925
70	0x3e589693	0.2115119
71	0x3e1d32d9	0.15351428
72	0xbd1bbc85	-0.038021583
73	0x3ddc88a3	0.10768249
74	0xbdb6e818	-0.08930987
75	0x3df4dcaf	0.119561546
76	0xbdbe8199	-0.093020625
77	0x3d56d380	0.052447796
78	0x3e6eda84	0.23325545
79	0xbd9838af	-0.074326865
80	0xbdec3914	-0.11534324
81	0xbe987bb6	-0.29781884
82	0xbd372ad4	-0.04471858
83	0x3d9cc8b9	0.07655472
84	0x3e33ff13	0.17577772
85	0x3e1e3cb1	0.1545284
86	0xbc809ebd	-0.015700692
87	0xbd2a64c1	-0.041599993
88	0x3d84e175	0.06488315
89	0x3ddc25a5	0.107493676
90	0x3d9919af	0.07475602
91	0xbe01ab5b	-0.12663023
92	0x3df1b353	0.118017815
93	0x3d008058	0.0313724
94	0xbdfc7da6	-0.12328653
95	0xbdcfb65a	-0.10142203
96	0x3d8b3581	0.067973144
97	0xbd414839	-0.047188018
98	0x3d2d9d26	0.042386197
99	0xbb1762ba	-0.0023099617
100	0xbd5b57ce	-0.053550534
101	0xbe3833f1	-0.17988564
102	0xbd9ffb46	-0.078115985
103	0x3e2d62a9	0.16932167
104	0xbbbd68f8	-0.0057803355
105	0xbcdb6617	-0.026782079
106	0xbc9df377	-0.019281132
107	0x3db2e7f3	0.08735647
108	0x3c3fc58b	0.011704813
109	0x3dd269d9	0.10274095
110	0x3e158ffa	0.14605704
111	0x3e7ac4f3	0.24489193
112	0x3e489f14	0.19591933
113	0x3e398822	0.18118337
114	0xbe3fc9e5	-0.1872936
115	0xbd11aa7f	-0.03556299
116	0xbe9c01a0	-0.3046999
117	0x3dbf4e07	0.093410544
118	0xbdcb77b4	-0.09934941
119	0xbe4a0373	-0.19727878
120	0xbe1a6dc9	-0.15080942
121	0xbc70c86e	-0.014696224
122	0xbe46477f	-0.19363211
123	0x3dcfc652	0.101452485
124	0xbd9441f3	-0.07239141
125	0xbdb2306a	-0.087006405
126	0x3e181a7e	0.14853856
127	0xbcb363ff	-0.021898268
128	0x3e1d29d6	0.1534799
129	0x3e5e5c79	0.21714963
130	0x3c2b41a6	0.0104526635
131	0x3cd7ae85	0.026328335
132	0x3d6dba4b	0.05803899
133	0xbb165e70	-0.0022944473
134	0xbe392a1b	-0.18082468
135	0x3d91444d	0.070931055
136	0x3cefc49c	0.029268555
137	0xbc543946	-0.012953108
138	0x3cd9cdda	0.026587415
139	0x3d8fc4c4	0.07019952
140	0x3be4fafc	0.0069879275
141	0x3e8f2278	0.27955985
142	0x3d5ea0a8	0.054352432
143	0x3d793aaf	0.06084698
144	0x3eecb78a	0.4623378
145	0xbd5a1942	-0.053246744
146	0x3cf7335d	0.03017586
147	0xbd4e7375	-0.050403077
148	0xbdfbc1e1	-0.12292839
149	0xbdbf8718	-0.09351939
150	0xbedc5808	-0.43035913
151	0xbced2e1d	-0.028952653
152	0xbe46f2c2	-0.19428542
153	0x3e270905	0.16312034
154	0xbe34a2b3	-0.1764019
155	0xbc79c05b	-0.015243615
156	0x3c072219	0.008247876
157	0x3d4b3285	0.049608726
158	0xbd745e6e	-0.059660368
159	0x3d1457d4	0.036216572
160	0x3dc24211	0.094852574
161	0xbdab5a61	-0.08366848
162	0xbd4186d7	-0.047247734
163	0xbc57cfc3	-0.013172093
164	0x3c1ea3de	0.009682624
165	0xbdad0447	-0.084480815
166	0x3c0df3bb	0.008664067
167	0xbd457e30	-0.048216045
168	0xbdda1d5a	-0.106501296
169	0xbe506325	-0.2035032
170	0x3d245965	0.040124316
171	0x3e45dc03	0.19322209
172	0xbd00c336	-0.031436168
173	0x3e2bcf19	0.1677822
174	0x3d4c9f4a	0.049956597
175	0x3df4eb50	0.11958945
176	0x3e7e65cf	0.24843524
177	0x3d16222a	0.036653675
178	0xbe06fd7d	-0.13182636
179	0x3da8a995	0.0823547
180	0x3d9f6415	0.07782761
181	0xbd94aea7	-0.07259875
182	0xbdf0f69f	-0.11765789
183	0x3e164c28	0.14677489
184	0xbba43ea2	-0.005012349
185	0xbdc0060c	-0.09376153
186	0xbd291c76	-0.041286908
187	0x3da473cf	0.08029901
188	0x3d532eee	0.051558428
189	0x3e80b8d6	0.2514102
190	0x3ce65529	0.02811678
191	0xbdb6751c	-0.089090556
192	0xbd7593dd	-0.059955467
193	0x3d8d973c	0.06913611
194	0xbea35d6c	-0.31907213
195	0x3d8e4979	0.069476075
196	0x3dd3ecab	0.10347875
197	0xbbe9f795	-0.00714011
198	0xbe18ae90	-0.1491034
199	0xbd98cd59	-0.07461042
200	0xbc2544fe	-0.01008725
201	0xbb45e059	-0.0030193536
202	0xbe3cb316	-0.18427691
203	0x3cb859b2	0.022503708
204	0xbbfada67	-0.00765543
205	0xbd17b327	-0.037036087
206	0xbe0a19fa	-0.13486472
207	0x3c707cc5	0.014678185
208	0x3d10ddb7	0.035367694
209	0x3e012ce9	0.12614788
210	0x3e33cc4b	0.175584
211	0xbdd0a42f	-0.101875655
212	0xbe5e7027	-0.2172247
213	0x3dd1fa63	0.102528356
214	0xbd25a5ec	-0.04044144
215	0x3cb6c2cf	0.022309689
216	0x3d843b99	0.0645668
217	0xbce4a03a	-0.027908433
218	0xbd8626f3	-0.06550398
219	0xbb69c034	-0.003566754
220	0xbeba02d6	-0.3633029
221	0xbc5c6ae8	-0.013453223
222	0xbca0677b	-0.019580593
223	0xbd8f1124	-0.06985691
224	0x3c2ed2a4	0.010670338
225	0xbd37f894	-0.044914797
226	0xbd2ff074	-0.042953923
227	0xbd7360ba	-0.059418418
228	0x3bc04a4f	0.0058682333
229	0x3d8cc7d3	0.06874051
230	0x3d2a74a3	0.04161514
231	0x3b8a8bab	0.0042280755
232	0xbb188fec	-0.0023279143
233	0x3d31a0ba	0.04336617
234	0x3d4d9247	0.05018833
235	0xbceeb634	-0.029139616
236	0x3e0618e6	0.13095436
237	0x3d5d2f0d	0.05399995
238	0xbc89a47f	-0.01680207
239	0xbd9f889d	-0.07789729
240	0xbdd90482	-0.10596563
241	0xbe8761db	-0.26441845
242	0x3cfbc85c	0.030735187
243	0x3d6ab2bc	0.05729936
244	0x3e4e5ed0	0.20153356
245	0x3cd59389	0.026071327
246	0xbda1c2a8	-0.07898456
247	0xbd1a3454	-0.03764756
248	0xbcd79dcc	-0.02632036
249	0xbd8f196f	-0.06987273
250	0x3db3c6c2	0.087781444
251	0xbdd97c43	-0.10619404
252	0x3d2dbe3c	0.04241775
253	0x3dd566b8	0.10419983
254	0x3d53bbf9	0.051692937
255	0x3c57d998	0.013174437

bias f4 [128]
0	0x3daad22f	0.083408706
1	0xbd9b2413	-0.0757524
2	0x3dac684f	0.08418333
3	0x3d9b5234	0.075840384
4	0x3db1447b	0.0865564
5	0xbd83c20e	-0.06433497
6	0xbb8a517e	-0.0042211404
7	0xbd12f1db	-0.035875183
8	0x3e45c936	0.19315037
9	0x3dc8c485	0.09803108
10	0xbdba0efa	-0.09084888
11	0xbd4548cd	-0.04816513
12	0x3daf9d84	0.085749656
13	0x3e585766	0.2112709
14	0x3e3a7e86	0.18212327
15	0x3e1201e0	0.14258528
16	0xbdd989f5	-0.10622016
17	0xbdb61e54	-0.088925034
18	0x3d90f61a	0.0707819
19	0xbd71ccbf	-0.05903315
20	0x3e36422b	0.17798679
21	0x3dfd9869	0.123825856
22	0x3db0fa62	0.08641507
23	0xbd9496ea	-0.07255347
24	0xbc5d0908	-0.013490923
25	0xbd1145f8	-0.035467118
26	0x3e608dff	0.21929167
27	0x3d7b4a60	0.061350226
28	0x3e260343	0.16212182
29	0x3e1e93d8	0.15486085
30	0x3d896e9a	0.06710549
31	0x3e2b4579	0.1672572
32	0xbd07b014	-0.033126906
33	0x3e2250ce	0.15851137
34	0x3e468a33	0.19388656
35	0xbda31af0	-0.07964122
36	0x3dde2410	0.10846722
37	0x3d0e0035	0.034668166
38	0xbd895a33	-0.06706657
39	0x3d2d6281	0.04233027
40	0x3e5a5994	0.21323234
41	0x3e2903b7	0.16505323
42	0x3e2ceabf	0.16886424
43	0xbd805c86	-0.062676474
44	0x3e5762ea	0.21033826
45	0xbd731015	-0.05934151
46	0x3e437f68	0.1909157
47	0x3e2997e7	0.16561852
48	0xbdb7c563	-0.089731954
49	0xbd981283	-0.07425406
50	0x3dea5844	0.114426166
51	0x3cd6e4bc	0.026232116
52	0x3d77e289	0.060518775
53	0x3e2a2739	0.16616525
54	0xbdaa568d	-0.083172895
55	0xbe013a80	-0.12619972
56	0x3daf4ad3	0.085591935
57	0xbd2fe184	-0.042939678
58	0xbc908d8c	-0.01764562
59	0xbbfb97a8	-0.007677991
60	0x3e0a5779	0.1350993
61	0xbd3e91c8	-0.046525747
62	0x3d042b6c	0.032267973
63	0xbdd97570	-0.106181026
64	0x3e40df04	0.18835074
65	0x3d911e07	0.070858054
66	0x3d5f57f0	0.054527223
67	0x3e0aa762	0.13540414
68	0xbda2d5d0	-0.07950938
69	0xbd208177	-0.039185967
70	0x3e542242	0.20716193
71	0x3e3f4e46	0.18682203
72	0x3e4aa7d5	0.19790585
73	0x3e589118	0.21149099
74	0x3e4155c4	0.18880373
75	0x3e3ce493	0.18446569
76	0x3dd47040	0.103729725
77	0x3b802f40	0.0039118826
78	0x3d939d76	0.07207768
79	0x3de451a2	0.11148383
80	0xbcf1a4d7	-0.029497547
81	0xbd57440c	-0.05255513
82	0x3c8cf0e7	0.017204715
83	0xbbdb9dde	-0.006702169
84	0x3e5132f0	0.20429587
85	0x3e1304c3	0.14357285
86	0x3e19e072	0.15027025
87	0x3d6e4de7	0.058179762
88	0x3d4b8935	0.049691398
89	0x3e2f098f	0.1709349
90	0x3c566ca3	0.013087424
91	0x3e3b59d3	0.18295984
92	0x3e22d57c	0.1590175
93	0xbdae1374	-0.08499804
94	0x3d4fdf7e	0.050750248
95	0x3dcb2ec3	0.099210285
96	0xbdcfd33e	-0.10147713
97	0x3e49f933	0.19723968
98	0x3e5788e8	0.2104832
99	0x3cb65623	0.02225787
100	0xbcef98aa	-0.0292476
101	0xbca452b8	-0.020058975
102	0x3e28e578	0.16493785
103	0x3e37fb92	0.1796706
104	0x3d6f6933	0.058449935
105	0x3d940e16	0.07229249
106	0x3c8d78cc	0.017269515
107	0xbd890036	-0.06689493
108	0xbdb107cf	-0.086440675
109	0x3cbe9712	0.023265395
110	0x3e148b83	0.14506344
111	0xbd7fab39	-0.06241915
112	0xbd0106ad	-0.031500507
113	0xbcb4d058	-0.022072002
114	0x3c6dfa98	0.014525078
115	0x3e623852	0.22091797
116	0x3e59e14e	0.21277353
117	0xbd976e2c	-0.073940605
118	0x3d90a603	0.07062914
119	0x3d6b085e	0.057381026
120	0x3dc0e924	0.09419468
121	0x3daba5a7	0.08381205
122	0x3d11f5db	0.035634857
123	0x3df2fde8	0.11864835
124	0x3e00a55d	0.12563081
125	0x3d4e3fa8	0.050353676
126	0x3dcf86d9	0.10133142
127	0x3d93b53e	0.072123036

weight f4 [2, 128]
0	0x3dfcd200	0.12344742
1	0xbe5e8dfa	-0.21733847
2	0x3e718174	0.23584539
3	0x3e83c5f9	0.2573698
4	0x3e5fbd62	0.21849588
5	0xbec2ba8b	-0.38032946
6	0x3d2e9c9f	0.042629834
7	0x3cab817f	0.020935772
8	0x3e1b8c15	0.15190156
9	0x3e54e00e	0.20788595
10	0xbeb61cc4	-0.3556882
11	0x3c2d32d0	0.010571197
12	0x3e309030	0.17242503
13	0x3e53716a	0.20648733
14	0x3e7753e5	0.24153097
15	0x3de962e7	0.11395817
16	0xbe90420f	-0.281754
17	0x3c1647ee	0.009172423
18	0x3e6efacc	0.23337859
19	0xbe864056	-0.2622096
20	0x3e5aa476	0.213518
21	0x3d682b83	0.05668212
22	0x3dfb8ae0	0.12282348
23	0x3d422c52	0.04740555
24	0xbd84b026	-0.0647891
25	0xbcc27400	-0.023736954
26	0x3df4e652	0.119579926
27	0xbe4039ff	-0.18772124
28	0x3e770033	0.2412117
29	0x3e5a09ba	0.21292773
30	0xbc75dfbe	-0.015006958
31	0x3e4c9405	0.1997834
32	0x3cfd28dc	0.030903272
33	0x3e3864e0	0.18007231
34	0x3e1faf74	0.15594274
35	0xbdad1dc0	-0.0845294
36	0x3e21f13d	0.15814681
37	0xbe4a4aca	-0.19755092
38	0xbe3e9dd9	-0.18614902
39	0xbe38919c	-0.18024296
40	0x3e07bf97	0.1325668
41	0x3e5aeba0	0.21378946
42	0x3e756e8d	0.23967953
43	0xbe124b44	-0.14286524
44	0x3e55940b	0.20857255
45	0xbeae1054	-0.33996832
46	0x3e450513	0.19240217
47	0x3e5d5d90	0.21617723
48	0x3d0fc2d8	0.035097927
49	0xbce5e7f4	-0.028064705
50	0x3e1bb5bc	0.15206045
51	0x3cd2ab59	0.02571647
52	0xbe6ef264	-0.23334652
53	0x3e604070	0.21899581
54	0x3ce56bce	0.028005507
55	0xbdd091f0	-0.10184085
56	0x3e4db4d7	0.20088516
57	0xbd972da8	-0.07381755
58	0xbbb3bd30	-0.0054851994
59	0xbc9d5268	-0.019204333
60	0x3e609c42	0.21934608
61	0xbccfe800	-0.02537918
62	0x3d39eeb6	0.045393668
63	0xbea616b8	-0.32439208
64	0x3e0371e3	0.12836413
65	0xbd82c7cd	-0.06385765
66	0x3e250bbe	0.1611776
67	0x3d4699b6	0.048486434
68	0xbd2e4232	-0.042543598
69	0xbda90d79	-0.08254523
70	0x3e30d288	0.17267811
71	0x3e33b08c	0.17547816
72	0x3e54f6d6	0.20797285
73	0x3e1aae19	0.15105475
74	0x3dc8972a	0.09794457
75	0x3d69a1e6	0.057039164
76	0x3e682f20	0.22674227
77	0xbd10c487	-0.035343673
78	0xbd16b067	-0.036789324
79	0x3dc0359e	0.09385227
80	0x3d9a80cb	0.075440966
81	0xbea0c6c0	-0.31401634
82	0x3c247ce8	0.010039546
83	0xbe60c131	-0.21948697
84	0x3e2a2942	0.16617301
85	0x3d889eb5	0.06670896
86	0x3e2b63be	0.16737267
87	0x3e53f50f	0.20698951
88	0x3c7923b9	0.015206271
89	0x3e60bfff	0.2194824
90	0x3cef2fbc	0.029197566
91	0x3e4f1b9e	0.20225379
92	0x3e2ca9dd	0.16861673
93	0xbebdd34d	-0.37075272
94	0xbda8a6f0	-0.08234966
95	0x3e198773	0.14993076
96	0xbe9e0e4b	-0.3087028
97	0x3de8e358	0.113714874
98	0x3e0329c4	0.12808901
99	0xbd5f5e10	-0.054533064
100	0xbd91ec6c	-0.07125172
101	0xbe9c0e68	-0.3047974
102	0x3e3d6595	0.18495782
103	0x3e3eeaa6	0.18644199
104	0xbd43b810	-0.047782958
105	0x3e15dd7b	0.1463527
106	0xbcbbd260	-0.022927463
107	0xbe0fcc6f	-0.14042829
108	0x3cb6b2fc	0.022302143
109	0xbea76eb3	-0.32701644
110	0x3e38ec99	0.18059005
111	0xbeb9c782	-0.36285025
112	0x3d38f69d	0.045157064
113	0x3d0c5ee0	0.034270167
114	0xbcdf13c6	-0.027231108
115	0x3e039ee2	0.12853578
116	0x3e396d6a	0.18108144
117	0xbebb8d76	-0.36631364
118	0x3d5f96bf	0.054587122
119	0xbd4e5735	-0.050376136
120	0x3e27cf21	0.16387607
121	0xbe8bcd0d	-0.2730488
122	0xbe87e278	-0.2653997
123	0x3e24bc3d	0.16087432
124	0xbc38a3cc	-0.011269521
125	0xbe151849	-0.14560045
126	0x3e41314f	0.18866466
127	0x3d663859	0.05620608
128	0x3e597845	0.21237285
129	0xbe9b9a26	-0.30391043
130	0x3e44e56d	0.19228144
131	0x3df1a1db	0.117984496
132	0x3e043dee	0.1291425
133	0xbe5e8053	-0.2172864
134	0xbdf37ec2	-0.118894115
135	0xbc860973	-0.016361928
136	0x3dad53c7	0.08463245
137	0x3e1c4578	0.15260875
138	0xbe01372f	-0.12618707
139	0xbd4811db	-0.048845153
140	0x3e603173	0.21893863
141	0x3db03b0e	0.08605014
142	0x3e1e618d	0.154669
143	0x3e5e959e	0.21736762
144	0xbdd6fdb8	-0.10497612
145	0x3ce97e6d	0.028502667
146	0x3e16bb63	0.1471992
147	0x3c2968df	0.010339945
148	0x3e004667	0.12526856
149	0x3e675bc6	0.22593603
150	0x3e5e781f	0.2172551
151	0x3d123501	0.03569508
152	0x3c52f1d8	0.012875043
153	0xbc05fd95	-0.008178134
154	0x3e4e3f2c	0.20141286
155	0xbea0c9ee	-0.3140406
156	0x3e3cd56a	0.18440786
157	0x3e0ca82b	0.13736026
158	0xbd9951cf	-0.07486307
159	0x3e451d5e	0.19249484
160	0xbd2d7788	-0.042350322
161	0x3dec18ba	0.11528154
162	0x3e12f91d	0.14352842
163	0xbb6181c0	-0.0034409612
164	0x3e3e7ea4	0.18602997
165	0xbe9804a6	-0.29691046
166	0x3d190635	0.037359435
167	0xbe3c985f	-0.184175
168	0x3e43560e	0.19075796
169	0x3d933f29	0.07189781
170	0x3e40f8cc	0.18844908
171	0xbded7846	-0.11595206
172	0x3e0c8966	0.13724288
173	0xbe6ce542	-0.2313433
174	0x3e3b2fac	0.18279904
175	0x3db850b5	0.08999769
176	0xbd8ebc71	-0.06969536
177	0xbd37e82d	-0.044899154
178	0x3e3cd82c	0.18441838
179	0xbda3ebc0	-0.0800395
180	0xbebaccd0	-0.36484385
181	0x3d4cb78a	0.049979724
182	0xbd8a102b	-0.06741365
183	0xbe2a6f8e	-0.16644117
184	0x3c3e8790	0.011629
185	0x3d16bb9a	0.036800005
186	0xbc553db8	-0.013015203
187	0x3da6b737	0.08140414
188	0x3d90ac0e	0.07064067
189	0x3d00070a	0.031256713
190	0x3e26178b	0.16219918
191	0xbeaa2f02	-0.3323899
192	0x3e5f8d63	0.21831279
193	0xbd896d20	-0.06710267
194	0x3e486256	0.19568762
195	0x3e56b6a8	0.20968115
196	0x3ca14338	0.019685373
197	0xbd0b6b16	-0.034037672
198	0x3df48a52	0.11940445
199	0x3e4bd20c	0.19904345
200	0x3dc0b51b	0.09409543
201	0x3e3ab431	0.182328
202	0x3e505929	0.20346512
203	0x3e54d097	0.20782696
204	0x3e027269	0.12738957
205	0xbcbd5bd0	-0.023115069
206	0xbce034c6	-0.027368914
207	0x3e2603aa	0.16212335
208	0xbda1ba0f	-0.07896816
209	0xbeb01c03	-0.3439637
210	0xbcbecc13	-0.02329067
211	0xbe83d351	-0.2574716
212	0x3e46eba6	0.1942583
213	0x3e0e47db	0.13894598
214	0x3e3c0370	0.18360686
215	0x3df77a1a	0.12083836
216	0x3e4871ae	0.19574615
217	0x3e1a7edc	0.15087456
218	0xbd99b347	-0.075048976
219	0x3e679f8b	0.22619455
220	0x3e1f5df7	0.15563188
221	0xbea9a52f	-0.33133838
222	0xbd6221d8	-0.055208057
223	0x3e6aadcc	0.22917861
224	0xbec55277	-0.38539478
225	0x3e5feea4	0.21868378
226	0x3e38e800	0.18057251
227	0x3e07b4c6	0.13252553
228	0x3cd0ced6	0.025489252
229	0xbe8197d9	-0.25311163
230	0x3e49b677	0.19698511
231	0x3e347ed3	0.17626505
232	0xbd074ec9	-0.03303412
233	0x3e38f7eb	0.18063323
234	0x3d92f03d	0.07174728
235	0xbe482aad	-0.1954753
236	0xbd20e169	-0.039277468
237	0xbec21473	-0.37906227
238	0x3e17590b	0.14780061
239	0xbe9bbfe8	-0.3041985
240	0xbe1a6a23	-0.1507955
241	0xbd6debae	-0.05808609
242	0xbdb08a17	-0.086200885
243	0x3e413c5b	0.1887068
244	0x3e59dcac	0.21275586
245	0xbe970b83	-0.2950097
246	0xbd8b2261	-0.06793667
247	0xbcb751c8	-0.022377864
248	0x3e1c59f8	0.15268695
249	0x3d2b3146	0.041795038
250	0xbe321f02	-0.17394641
251	0x3e35a8a6	0.17740116
252	0x3e113dc4	0.14183718
253	0xbe22e01a	-0.159058
254	0x3e37c3a9	0.17945732
255	0xbd8c2469	-0.06842882

bias f4 [2]
0	0x3d16bed0	0.036803067
1	0x3e54c7ea	0.20779386
