model/DQN_model_2.pt (torch, 73079 bytes, 6 tensors)

weight f4 [128, 4]
0	0x3f29e646	0.66366994
1	0xbe7f5bff	-0.24937437
2	0xbe0f84ea	-0.14015546
3	0xbde8a0eb	-0.11358818
4	0x3e5f76e7	0.21822701
5	0xbeb8cb39	-0.36092547
6	0xbefd9054	-0.49524176
7	0xbe5f1068	-0.21783602
8	0xbec28697	-0.3799331
9	0xbea42a0a	-0.32063323
10	0xbf0319ca	-0.51211226
11	0xbf08e35d	-0.5347193
12	0x3e5cc7d4	0.21560603
13	0xbe15bb84	-0.14622313
14	0xbe655bdc	-0.22398323
15	0xbd1c82c0	-0.03821063
16	0x3edcdee4	0.43138802
17	0xbe14bd39	-0.14525308
18	0x3f1530e8	0.5827775
19	0xbed758b8	-0.42059875
20	0x3db54bf8	0.088523805
21	0xbe28ce1b	-0.16484873
22	0xbe18693b	-0.14883892
23	0xbd4d9a1b	-0.050195795
24	0x3ee72a58	0.45149493
25	0x3e85098c	0.25983846
26	0x3b9d2971	0.0047962
27	0xbe6f7353	-0.23383836
28	0x3ec87d8f	0.39158294
29	0x3e52b0b6	0.20575222
30	0x3e6b9bae	0.23008606
31	0x3e45d73a	0.19320384
32	0xbe8f57e7	-0.27996752
33	0x3d8d145d	0.068886496
34	0x3e978353	0.2959238
35	0x3ef0c734	0.4702698
36	0x3ebb029a	0.36525422
37	0xbe2f9001	-0.17144777
38	0x3f29ddea	0.6635424
39	0x3e379a73	0.17930011
40	0xbd5523bc	-0.052036032
41	0x3d6525c8	0.055944234
42	0xbe62e8f9	-0.22159185
43	0x3c4001ca	0.011719177
44	0xbe56e216	-0.20984682
45	0x3da86d56	0.08223979
46	0xbeb12c06	-0.346039
47	0x3e9babf9	0.30404642
48	0x3d9053e0	0.07047248
49	0xbe0f76b4	-0.14010125
50	0xbf1e15fe	-0.6175231
51	0xbe0f6dde	-0.14006755
52	0xbf0436a8	-0.516459
53	0xbdeb98bf	-0.115037434
54	0xbe863713	-0.26213893
55	0xbed592dd	-0.4171361
56	0x3e983097	0.2972457
57	0x3d23faae	0.04003399
58	0xbd3ca5e9	-0.04605666
59	0x3eab531a	0.3346184
60	0x3eb3e1ca	0.351332
61	0xbddbe596	-0.107371494
62	0xbe4fcc7d	-0.2029285
63	0xbdb61444	-0.08890584
64	0x3f067968	0.52529
65	0x3d7ada12	0.061243124
66	0x3e0ec3b4	0.13941842
67	0xbf07ce90	-0.53049564
68	0x3ed126ad	0.4084982
69	0xbe2d80d5	-0.16943677
70	0x3e160919	0.14651908
71	0xbed2e88b	-0.4119304
72	0x3e9c84df	0.30570123
73	0x3dfde14e	0.12396489
74	0xbe5986ea	-0.21242872
75	0xbf0e4afe	-0.5558318
76	0x3ecf0008	0.4042971
77	0xbe5efea8	-0.21776831
78	0xbe3c53dc	-0.18391365
79	0xbd216490	-0.039402544
80	0x3e8cfadf	0.2753515
81	0x3ed22ff7	0.4105222
82	0xbe84168e	-0.25798458
83	0x3eb6061e	0.35551542
84	0x3df6092b	0.120134674
85	0xbef340ff	-0.47510526
86	0xbe15c1bb	-0.14624684
87	0x3f0119c5	0.50429946
88	0xbeae63f9	-0.34060648
89	0xbe0e844e	-0.13917658
90	0xbda3fccb	-0.08007201
91	0xbf0d0cbf	-0.55097574
92	0x3e2bc800	0.16775513
93	0xbe821b3d	-0.25411406
94	0xbe72eff6	-0.2372435
95	0xbf05f85a	-0.5233208
96	0xbef20c43	-0.4727498
97	0x3ec368ec	0.38165987
98	0x3eb89e73	0.36058387
99	0xbe056f21	-0.13030674
100	0x3e9d7be9	0.30758598
101	0xbe724c46	-0.23661909
102	0x3e763672	0.24044207
103	0xbea6e464	-0.32596123
104	0x3d782edf	0.060591575
105	0xbd090051	-0.033447567
106	0x3c804b25	0.015660832
107	0x3f01c928	0.50697565
108	0x3dab3cba	0.08361192
109	0xbec34b0e	-0.381432
110	0xbdad4442	-0.08460285
111	0x3e720779	0.23635663
112	0xbecb62a5	-0.39723697
113	0x3c637020	0.013881713
114	0x3dcb7764	0.09934881
115	0xbe40f231	-0.18842389
116	0x3ec84321	0.39113715
117	0xbeecb0a7	-0.46228525
118	0x3de54e2a	0.11196549
119	0xbead9be9	-0.33908013
120	0xbecdfa75	-0.40230146
121	0xbe95b2f8	-0.29238105
122	0x3ebd519d	0.36976328
123	0x3ebe2f16	0.371453
124	0xbe1df26d	-0.1542451
125	0x3de8560f	0.113445394
126	0xbf1b9465	-0.6077331
127	0xbedde55a	-0.43339044
128	0xbecf50e7	-0.4049141
129	0x3e8c7e96	0.27440327
130	0x3dc2aeea	0.095060185
131	0xbee9d589	-0.45670727
132	0x3e90215e	0.28150457
133	0x3ed0f938	0.4081514
134	0x3de012ae	0.10941063
135	0x3b53936c	0.0032283915
136	0xbe5abafa	-0.21360388
137	0xbeeb6be5	-0.45980754
138	0xbdb40233	-0.08789482
139	0x3e3e0fa2	0.18560651
140	0xbef1b9b5	-0.47211996
141	0x3e385db2	0.18004492
142	0xbe7fc249	-0.24976458
143	0xbd91c885	-0.07118324
144	0xbe5750f8	-0.21026981
145	0xbe577101	-0.21039201
146	0x3f357375	0.708793
147	0xbecb9e21	-0.3976908
148	0x3edbba9f	0.42915818
149	0xbebbda50	-0.36689997
150	0x3eace36c	0.3376726
151	0x3e56f16b	0.20990531
152	0x3e7a67e8	0.244537
153	0x3e7eafc9	0.24871744
154	0xbdd413db	-0.1035535
155	0xbe9d4fa8	-0.30724835
156	0xbec7b471	-0.39004853
157	0xbdbcc81a	-0.09217854
158	0x3bbc6282	0.0057490477
159	0xbb093454	-0.002093573
160	0xbef2e613	-0.47441158
161	0xbe0817d4	-0.1329034
162	0x3f0c7970	0.548728
163	0x3f04b19c	0.5183351
164	0xbcd9b21e	-0.02657419
165	0x3ebcad89	0.36851147
166	0x3e6fe9b5	0.23428996
167	0xbebcc5c2	-0.36869627
168	0xbe28c897	-0.16482769
169	0xbda0ebc6	-0.0785747
170	0xbecedc68	-0.40402532
171	0x3d1032ed	0.035204817
172	0xbe803091	-0.25037053
173	0x3e61e43d	0.22059722
174	0x3f08b3a6	0.5339912
175	0xbe8e41da	-0.27784616
176	0xbf0d292a	-0.55140936
177	0xbe44c72e	-0.19216606
178	0x3ece1417	0.40249702
179	0x3f0da747	0.5533337
180	0x3e6f7348	0.2338382
181	0x3e2d59df	0.16928814
182	0x3e4afc20	0.1982274
183	0xbecb249b	-0.39676365
184	0xbe9aacf1	-0.3021007
185	0xbc3d90b6	-0.011570146
186	0xbeb4143c	-0.35171688
187	0x3e94c901	0.29059604
188	0x3f2cc2b5	0.674846
189	0xbe2aacb7	-0.16667448
190	0x3d9f384a	0.07774408
191	0xbef3aad6	-0.47591275
192	0xbef6d641	-0.48210338
193	0xbebda4eb	-0.37039885
194	0x3f2aa21b	0.66653603
195	0x3bc59587	0.006029788
196	0xbe1e4fbf	-0.15460108
197	0xbe7a7689	-0.2445928
198	0xbec824d8	-0.3909061
199	0x3e915795	0.28387132
200	0x3e3c000c	0.18359393
201	0x3ebedc2b	0.3727735
202	0xbf251677	-0.64487404
203	0xbef17499	-0.4715927
204	0xbe9c23f3	-0.30496177
205	0x3e9a721d	0.30165187
206	0x3f174488	0.59088945
207	0xbdef030b	-0.11670502
208	0xbde73e58	-0.11291188
209	0xbed94062	-0.42431933
210	0xbed1d676	-0.40983933
211	0xbeb9672d	-0.3621153
212	0xbe443029	-0.19158997
213	0x3df65451	0.12027801
214	0x3e5d411a	0.21606866
215	0x3eba30ed	0.36365452
216	0xbedfc289	-0.43703106
217	0x3cc75579	0.024332749
218	0x3e0e394e	0.13889048
219	0xbe9e3e67	-0.30906984
220	0xbe87b987	-0.26508734
221	0x3d4481d8	0.04797539
222	0xbe5b9d4b	-0.21446721
223	0xbea01556	-0.31266278
224	0x3f08a510	0.53376865
225	0xbeeff605	-0.46867386
226	0x3e8e52ba	0.2779749
227	0xbebbc3e5	-0.36672893
228	0xbf095a90	-0.5365381
229	0xbec9ac9c	-0.39389503
230	0x3f003f9a	0.5009705
231	0x3de86a26	0.11348371
232	0x3e400ae8	0.1875416
233	0x3dcda150	0.100405335
234	0x3ee1fe15	0.44139162
235	0xbe64a9ea	-0.22330442
236	0xbed25647	-0.4108145
237	0xbe8ab979	-0.2709463
238	0xbdfc9a76	-0.123341486
239	0xbe10d7f5	-0.14144881
240	0x3e1e3233	0.15448837
241	0x3d898ee0	0.06716704
242	0x3ef1d6b6	0.47234124
243	0x3eefa03e	0.46801943
244	0x3ea988bb	0.3311213
245	0xbeb4aabc	-0.3528651
246	0xbe639055	-0.22223027
247	0x3de3e147	0.111269526
248	0xbd1fab75	-0.038981874
249	0xbeadb94d	-0.33930436
250	0xbe88b894	-0.26703322
251	0xbe97f1c9	-0.29676655
252	0x3dafb87e	0.08580111
253	0xbe86d030	-0.2633071
254	0x3e1187e9	0.14212002
255	0x3eba2e44	0.36363423

bias f4 [128]
0	0x3ddb8417	0.107185535
1	0x3e4cdef7	0.2000693
2	0xbed06a41	-0.40706065
3	0xbea34904	-0.31891644
4	0x3e481489	0.19539084
5	0x3e9452ac	0.28969324
6	0x3ea529bd	0.32258406
7	0xbe95e1cb	-0.2927383
8	0xbe02bd6d	-0.12767573
9	0xbe86a66f	-0.26298854
10	0x3e9ccec0	0.30626488
11	0x3e509052	0.20367554
12	0x3ecc1916	0.3986289
13	0x3eab878b	0.3350185
14	0xbe10a435	-0.1412514
15	0xbc1998da	-0.009374822
16	0xbd5886a3	-0.052862775
17	0xbec6dfb3	-0.38842544
18	0xbe94dde2	-0.29075533
19	0xbea771b6	-0.32703942
20	0x3eaeedca	0.34165794
21	0xbe810b78	-0.25204062
22	0xbeab40e1	-0.33447936
23	0xbee8833a	-0.45412618
24	0x3f0c1191	0.54714304
25	0x3ef76c48	0.483248
26	0x3d02c995	0.031930525
27	0x3f178644	0.5918925
28	0xbe86987b	-0.26288208
29	0x3f0f6867	0.5601868
30	0xbed17ce6	-0.40915602
31	0x3d37acf3	0.04484267
32	0xbed373d5	-0.4129931
33	0x3e69dadb	0.22837393
34	0xbe74ac06	-0.23893747
35	0x3f07b01b	0.5300309
36	0x3ea614d3	0.32437763
37	0x3ea831d1	0.32850507
38	0x3f0db4e5	0.5535415
39	0x3edb0639	0.42778185
40	0xbe4d28df	-0.20035122
41	0xbd5a3bf5	-0.053279836
42	0x3e9f7efc	0.3115157
43	0x3e7874f6	0.24263367
44	0xbd9222fa	-0.071355775
45	0x3e42dbdd	0.19029184
46	0x3ef1c462	0.4722014
47	0xbd178ce8	-0.036999613
48	0xbe9e0a11	-0.30867055
49	0x3f1aa323	0.60405177
50	0xbc063853	-0.00819214
51	0x3ede654a	0.43436652
52	0x3ebaa43c	0.36453426
53	0x3ebcec2d	0.36898938
54	0xbec78730	-0.38970327
55	0x3ee35567	0.44401094
56	0xbe896427	-0.26834223
57	0xbe326011	-0.17419459
58	0x3ef65599	0.4811218
59	0xbe995815	-0.29950014
60	0xbe898cf9	-0.26865366
61	0xbeb1c04c	-0.34717023
62	0x3ea39dd2	0.31956345
63	0x3ea1aaf9	0.31575754
64	0x3bb8a25a	0.005634588
65	0x3d44156a	0.047871985
66	0x3e9065af	0.28202578
67	0x3ebff93c	0.37494838
68	0x3f142bdf	0.5787944
69	0x3e2a5edc	0.16637748
70	0x3eeaf29a	0.45888215
71	0x3ed36234	0.4128586
72	0xbe7e56ef	-0.2483785
73	0xbee1ffae	-0.4414038
74	0x3ecae888	0.39630532
75	0x3e169092	0.14703587
76	0x3ede57f4	0.43426478
77	0x3f122687	0.5709004
78	0x3dcf4088	0.1011973
79	0x3ea00d39	0.31260088
80	0x3eec450a	0.46146423
81	0xbe8ea38d	-0.27859154
82	0xbed38a3b	-0.413164
83	0xbedd7e3e	-0.43260378
84	0x3ecd8ca6	0.4014637
85	0xbed4257e	-0.41434854
86	0xbef9dd54	-0.48801672
87	0xbe67c4a0	-0.226336
88	0x3e844666	0.2583496
89	0x3e74a32c	0.2389037
90	0x3f014953	0.5050251
91	0x3f192b02	0.5983125
92	0x3f1d7256	0.6150259
93	0x3f13cda9	0.5773569
94	0xba8464a1	-0.001010079
95	0xbe061d68	-0.13097155
96	0x3f137802	0.5760499
97	0xbe712c53	-0.23552065
98	0xbe871e9a	-0.26390535
99	0x3f1d5656	0.61459863
100	0x3efdac63	0.49545583
101	0x3e5030af	0.20331071
102	0xbee53b8e	-0.44772
103	0x3f0b77a8	0.54479456
104	0x3ec170c4	0.37781346
105	0x3de0d6d6	0.10978477
106	0x3f11de50	0.56979847
107	0xbca8e320	-0.020616114
108	0x3f09af57	0.5378317
109	0x3f0d4a23	0.5519125
110	0xbeb24b1d	-0.34822932
111	0x3d8e9e59	0.06963796
112	0x3e338731	0.1753204
113	0x3f01f512	0.5076457
114	0x3ec206a2	0.37895685
115	0x3ee0d772	0.43914372
116	0x3ee4e881	0.44708636
117	0xbe97e2da	-0.29665262
118	0xbe541194	-0.2070983
119	0xbef81bc7	-0.48458692
120	0xbd8a8d45	-0.06765226
121	0xbe057e96	-0.1303657
122	0x3e51f99d	0.20505376
123	0xbea57220	-0.32313633
124	0xbe4d1da6	-0.20030841
125	0x3eb7f626	0.35929984
126	0x3e4529b4	0.1925419
127	0xbed758c9	-0.42059925

weight f4 [128, 128]
0	0x3d87a6ad	0.06623588
1	0x3d4ab019	0.049484346
2	0xbe1038d5	-0.1408418
3	0xbdb47932	-0.08812179
4	0xbbb4f4ac	-0.005522331
5	0x3d0792cf	0.033098992
6	0x3df52396	0.11969678
7	0xbd436ffa	-0.04771421
8	0xbd5f688a	-0.054543056
9	0xbdee0895	-0.11622731
10	0x3deec0b9	0.11657853
11	0x3d2391f9	0.039934132
12	0x3dec0dec	0.11526093
13	0xbd334d48	-0.043774873
14	0xbe034611	-0.12819697
15	0xbe59e142	-0.21277335
16	0x3d1d5b0e	0.038416915
17	0xbdf93f40	-0.12170267
18	0xbdd3c56a	-0.10340388
19	0xbd8a200e	-0.06744395
20	0x3e0cd048	0.13751328
21	0xbd760b22	-0.06006921
22	0xbcfd9957	-0.030956907
23	0xbe68285b	-0.22671644
24	0x3e10d146	0.14142331
25	0x3d65dcd3	0.056118798
26	0x3cd3db3a	0.025861371
27	0x3d185765	0.03719272
28	0xbe0fbc37	-0.14036642
29	0x3df85266	0.12125091
30	0xbacc0035	-0.0015564027
31	0xbcd2d3bf	-0.025735734
32	0x3d674ff1	0.056472722
33	0x3df581cf	0.1198765
34	0xbdc73cf9	-0.097284265
35	0x3d9ff3b2	0.07810153
36	0x3d230046	0.039795183
37	0x3e0a2aca	0.13492885
38	0x3d279b30	0.040919483
39	0x3d6eaa96	0.058268152
40	0xbd30c59f	-0.043157216
41	0x3dc1be7b	0.094601594
42	0x3e3b8572	0.18312624
43	0x3e06f1bb	0.1317815
44	0xbdaa86e4	-0.083265096
45	0x3db8335d	0.08994172
46	0x3e275c2c	0.16343755
47	0xbdd77179	-0.1051969
48	0xbe39aace	-0.18131563
49	0x3d507f5a	0.050902702
50	0x3cef1870	0.029186457
51	0x3de7026b	0.11279758
52	0x3d64be0b	0.0558453
53	0x3d9c672a	0.076368645
54	0xbe343988	-0.17600071
55	0x3dde8058	0.108643234
56	0xbde0fb75	-0.109854616
57	0xbd0ef1cd	-0.034898568
58	0x3d4b9d58	0.0497106
59	0x3c834434	0.016023733
60	0xbd9b47c9	-0.07582051
61	0xbd298bae	-0.041392975
62	0x3de1aba8	0.11019069
63	0x3d9bbd85	0.07604507
64	0xbdb6e438	-0.08930248
65	0xbdc38037	-0.095459394
66	0x3c9bb59b	0.019007495
67	0x3e132205	0.14368446
68	0x3dc9f696	0.09861486
69	0x3da8a933	0.08235397
70	0x3e2e6fbf	0.17034815
71	0x3d7b811b	0.06140242
72	0xbe52928d	-0.20563717
73	0xbe4f3ec6	-0.2023879
74	0x3daf6dc6	0.085658595
75	0x3dd64214	0.10461822
76	0x3ccb028c	0.024781488
77	0x3ddefe19	0.10888309
78	0x3d3e9203	0.046525966
79	0x3e36fa39	0.1786889
80	0x3e42705a	0.18988171
81	0xbe0a3d08	-0.13499844
82	0xbdc38449	-0.09546716
83	0xbeb895ae	-0.36051697
84	0x3c16e77d	0.009210465
85	0xbd7e6287	-0.06210568
86	0xbe90f6c2	-0.2831326
87	0xbd98cbad	-0.07460723
88	0x3d8930f2	0.06698789
89	0x3dc8614f	0.09784185
90	0x3e087479	0.13325681
91	0x3d650a6d	0.055918146
92	0x3e18502f	0.14874338
93	0x3e1b7600	0.15181732
94	0xbda2a26c	-0.07941136
95	0xbdf040ee	-0.11731134
96	0x3e05582d	0.13021918
97	0xbdff712c	-0.12472758
98	0xbdd8ecd8	-0.10592049
99	0x3e49d36f	0.19709562
100	0x3d5f2731	0.054480735
101	0x3d878ea0	0.066190004
102	0x3b89b120	0.004202023
103	0x3d7b7d45	0.061398763
104	0x3d00d3cc	0.031451985
105	0x3d18c617	0.03729829
106	0x3da1b0f0	0.07895076
107	0x3c26346a	0.010144332
108	0x3deba10b	0.11505326
109	0x3d4384c0	0.047734022
110	0xbe01120b	-0.12604539
111	0x3e0771c0	0.13226986
112	0x3db4e7fb	0.08833309
113	0x3e086601	0.13320161
114	0x3d86b58f	0.06577598
115	0x3d870ef3	0.06594648
116	0x3e601ba5	0.21885546
117	0xbedff1dc	-0.43739212
118	0xbdda3664	-0.106549054
119	0xbdabb8ed	-0.08384881
120	0xbd9289fd	-0.071552254
121	0x3c558228	0.01303152
122	0x3e084c5d	0.1331038
123	0xbdfb1eeb	-0.122617565
124	0xbe0bd524	-0.13655525
125	0xba30b72b	-0.00067411613
126	0x3dc566f8	0.0963878
127	0xbe4e2e27	-0.20134793
128	0x3d92d883	0.071702026
129	0x3e09dd7b	0.13463394
130	0xbe7a82f9	-0.24464025
131	0xbd975931	-0.07390059
132	0x3d888e16	0.06667726
133	0x3e154523	0.14577155
134	0x3b560d6c	0.0032661809
135	0xbd699ad0	-0.057032406
136	0xbe3394f3	-0.17537288
137	0xbe4b47c3	-0.19851594
138	0x3e1aebb6	0.15128979
139	0xbd16fee5	-0.03686418
140	0x3d9c7ee2	0.076413885
141	0x3d92d7d5	0.07170073
142	0xbd83a6ba	-0.06428285
143	0xbe64c5cb	-0.22341077
144	0xbdcc4c8e	-0.09975539
145	0xbd198a50	-0.03748542
146	0x3c70162f	0.0146537265
147	0x3da6f40b	0.08152016
148	0x3e65d92d	0.22446127
149	0x3d26f1ae	0.040757827
150	0xbe20e5d9	-0.1571268
151	0xbe38cde8	-0.18047297
152	0x3e1569ac	0.14591092
153	0x3e3ab714	0.18233901
154	0x3b803dec	0.0039136317
155	0x3dd79ae9	0.10527594
156	0xbe353a06	-0.17697915
157	0x3e3a74df	0.18208645
158	0xbdf22caa	-0.11824925
159	0xbd562c56	-0.052288376
160	0xbd0c93f7	-0.034320798
161	0x3d3e6b9d	0.046489347
162	0xbc173629	-0.009229221
163	0x3dca350b	0.098733984
164	0x3db9e8b0	0.09077585
165	0x3e100581	0.140646
166	0x3d199c57	0.037502613
167	0x3da9463c	0.08265349
168	0xbc90603f	-0.017624019
169	0xbd65919c	-0.056047067
170	0x3d4ec411	0.050479952
171	0x3dfcd31e	0.12344955
172	0xbcb399b0	-0.02192387
173	0x3d8ea833	0.06965675
174	0x3d300705	0.042975444
175	0xbd3e8e3f	-0.046522375
176	0xbe16b9f3	-0.14719371
177	0x3bd1dc0a	0.0064044045
178	0xbd3af630	-0.04564494
179	0x3e60bd33	0.21947174
180	0x3e3cf279	0.18451871
181	0x3d0181d6	0.03161796
182	0xbe468a9f	-0.19388817
183	0x3d96d5e9	0.07365019
184	0xbda93bfc	-0.08263394
185	0x3c07a049	0.008277961
186	0x3dfc9881	0.12333775
187	0x3d4d43e0	0.05011356
188	0xbddfbb1c	-0.1092436
189	0xbd9b1360	-0.07572055
190	0x3de74027	0.11291533
191	0x3dd68f3c	0.104765385
192	0x3bb3bf86	0.005485478
193	0xbd9bbe98	-0.07604712
194	0xbb97c220	-0.004631296
195	0x3e1a3ff7	0.15063463
196	0x3d34d413	0.044147562
197	0x3dd5d134	0.10440293
198	0x3e210406	0.15724191
199	0x3dcf0786	0.10108857
200	0xbe4674e5	-0.19380529
201	0xbde69547	-0.11258941
202	0x3ce9eb0b	0.02855446
203	0x3d3bb0d0	0.04582292
204	0x3cd4c1c3	0.025971299
205	0x3d9364dc	0.07196972
206	0xbd140835	-0.03614064
207	0x3dcb941b	0.09940358
208	0x3e30964e	0.17244837
209	0xbdf8d5d6	-0.12150161
210	0xbe18ef4f	-0.14935039
211	0xbe97c73d	-0.29644194
212	0x3d76a18a	0.06021265
213	0xbc6be416	-0.014397642
214	0xbe96b82f	-0.29437396
215	0xbd587f55	-0.05285581
216	0x3e0644e5	0.13112219
217	0x3ded5f6b	0.11590465
218	0x3e14b5b3	0.14522438
219	0x3dcdf263	0.10055997
220	0x3d4586af	0.048224147
221	0x3e3a94ee	0.18220875
222	0xbda69193	-0.08133235
223	0xbe0b206c	-0.13586587
224	0x3e102ad5	0.14078839
225	0xbe15de1b	-0.14635508
226	0x3d4a5f9e	0.049407594
227	0x3db56d83	0.08858778
228	0x3df7bde7	0.12096768
229	0x3e4c2ad2	0.1993821
230	0xbc876404	-0.016527183
231	0x3e0712e0	0.13190794
232	0x3e4f6b29	0.20255722
233	0xbd4e8e28	-0.05042854
234	0x3d2de748	0.042456895
235	0xbd9816d3	-0.074262284
236	0x3db03c4b	0.0860525
237	0x3c947aaa	0.018124897
238	0xbe106817	-0.14102207
239	0x3df3e2b8	0.119084775
240	0x3df4ff06	0.11962704
241	0x3d876d73	0.06612673
242	0x3da048fb	0.0782642
243	0x3e0b47ea	0.13601652
244	0x3e354119	0.17700614
245	0xbeac6687	-0.33671972
246	0xbdeb7b29	-0.114981
247	0xbd612ad8	-0.0549725
248	0xbd360854	-0.044441536
249	0x3d676955	0.056496937
250	0x3d056392	0.03256566
251	0xbd87bd8d	-0.06627951
252	0xbe66aee7	-0.22527657
253	0x3de68659	0.112560935
254	0x3da89f6f	0.082335345
255	0xbe15fee7	-0.14648019

bias f4 [128]
0	0x3d83e907	0.06440931
1	0x3db65605	0.08903126
2	0x3d3ee72e	0.04660719
3	0x3e382ac2	0.17985061
4	0xbd427bd1	-0.04748136
5	0x3dcb99ca	0.09941442
6	0x3d53d900	0.05172062
7	0x3dcae90e	0.09907733
8	0x3e19b985	0.15012176
9	0xbd0fb02b	-0.035080116
10	0x3dd85b91	0.1056434
11	0x3c927d70	0.017882079
12	0x3d63e51d	0.05563842
13	0xbd6a6e0c	-0.057233855
14	0x3d3464fa	0.04404161
15	0x3d99832f	0.074957244
16	0xbdc0d814	-0.09416214
17	0xbbd667f4	-0.006543154
18	0xbde8d0dc	-0.11367962
19	0x3e185466	0.14875945
20	0x3d323dd8	0.04351601
21	0xbd86db9b	-0.06584855
22	0x3d9b781f	0.07591271
23	0xbd8473bd	-0.06467388
24	0xbb4576c5	-0.0030130607
25	0x3dc29edd	0.09502957
26	0x3d835724	0.06413105
27	0x3e2740b7	0.1633328
28	0x3e416711	0.18886973
29	0xbd260f55	-0.040541966
30	0xbd28e304	-0.041232124
31	0xbd3acd99	-0.04560623
32	0x3ca06eec	0.019584142
33	0xbbd2857a	-0.006424603
34	0x3e141111	0.14459635
35	0x3e02fb19	0.12791099
36	0x3e1f3954	0.15549213
37	0x3e42b24f	0.19013332
38	0x3da3bc28	0.07994872
39	0x3e220b7b	0.15824692
40	0xbc76a320	-0.0150535405
41	0x3da44f7c	0.08022973
42	0xbdc56ee6	-0.09640293
43	0x3d0252b5	0.031817157
44	0x3c2f3f84	0.010696296
45	0x3d2c8893	0.042122435
46	0x3d0b56fd	0.034018505
47	0x3e1802e5	0.14844854
48	0xbae4980e	-0.0017440335
49	0x3e238bfb	0.15971367
50	0x3e2dcf87	0.16973697
51	0x3dca7052	0.09884705
52	0x3e4243dc	0.18971199
53	0xbd948726	-0.0725234
54	0x3df4215f	0.119204275
55	0x3e13e381	0.14442255
56	0x3e564f28	0.20928633
57	0x3e228903	0.15872578
58	0xbce2986f	-0.027660577
59	0x3d42fcca	0.04760436
60	0x3e45112a	0.19244829
61	0x3ddc8b1d	0.10768721
62	0x3dfdfa4d	0.12401257
63	0xbbd6fb26	-0.006560701
64	0x3e185bc3	0.14878754
65	0x3d1ef80a	0.038810767
66	0x3d8e37a1	0.06944204
67	0x3e535cdd	0.20640893
68	0x3cc39dbc	0.023878925
69	0x3d7f180c	0.062278792
70	0x3e0af66a	0.13570562
71	0xbdb03bde	-0.08605169
72	0xbdabb522	-0.08384158
73	0x3da0e893	0.0785686
74	0x3dec9d48	0.115534365
75	0xbcb7a89a	-0.022419263
76	0x3c7e0d90	0.015506163
77	0xbcd305b4	-0.025759555
78	0x3d5fad82	0.05460883
79	0x3ccfbff0	0.025360078
80	0xbdceffc8	-0.1010738
81	0x3e245fe9	0.16052212
82	0x3e0c5740	0.13705158
83	0x3e3f1c23	0.18663077
84	0x3d9310e4	0.07180956
85	0x3e32602c	0.17419499
86	0x3e23898f	0.15970443
87	0xbb45adcd	-0.0030163408
88	0x3e0a6dfb	0.13518517
89	0xbd9232ff	-0.07138633
90	0xbc28211c	-0.0102618
91	0x3d24b811	0.040214602
92	0xbdbb7d3c	-0.09154746
93	0x3e01db55	0.12681325
94	0x3e47629c	0.1947121
95	0x3d8c1052	0.0683905
96	0x3da05455	0.07828585
97	0x3e21394d	0.15744515
98	0x3db3908d	0.08767805
99	0x3e0c3778	0.13693035
100	0x3cf9ac08	0.030477539
101	0x3d9caabb	0.07649752
102	0xbdfa6a6d	-0.1222733
103	0x3dba8be4	0.09108713
104	0x3e18c0bd	0.14917274
105	0xbda620ea	-0.081117466
106	0x3db14f0e	0.086576566
107	0x3c7bb3d8	0.015362702
108	0xbc0c6d3c	-0.008570965
109	0xbd8f726a	-0.070042446
110	0x3e26ff58	0.16308343
111	0x3e296dd7	0.16545807
112	0x3e09a470	0.13441634
113	0x3e33adba	0.1754674
114	0x3e30cd6f	0.17265867
115	0x3e207144	0.15668207
116	0x3e2f2b56	0.17106375
117	0x3e2ff4a1	0.17183162
118	0xbd351755	-0.044211704
119	0x3c91cff6	0.017799359
120	0x3c0ffbf1	0.008788095
121	0x3dcd4dc5	0.10024599
122	0xbd92614f	-0.071474664
123	0x3d9669e7	0.07344418
124	0xbdb17f63	-0.08666875
125	0x3af13c76	0.001840486
126	0x3e3a6bfa	0.18205252
127	0x3e4645d1	0.1936257

weight f4 [2, 128]
0	0x3e34c660	0.17653799
1	0x3e4a6c6e	0.19767925
2	0xbd679d4a	-0.056546487
3	0x3e359c5a	0.17735425
4	0xbd764702	-0.060126312
5	0x3e14f60e	0.14546987
6	0x3df7e1ce	0.12103616
7	0x3e4d36ad	0.20040388
8	0x3df6ec80	0.120568275
9	0xbd75191c	-0.0598384
10	0x3d909c3d	0.0706105
11	0xbcfabd59	-0.030607866
12	0xbe8bfc1e	-0.27340788
13	0xbc188400	-0.009308815
14	0x3da3b309	0.079931326
15	0xbd3ad5bc	-0.04561399
16	0x3ca6ce2d	0.020361984
17	0xbe8e7e01	-0.27830508
18	0xbeca7ba6	-0.3954746
19	0x3e421d04	0.18956381
20	0xbe8c0bfa	-0.27352887
21	0xbd83dca3	-0.064385675
22	0x3e00b235	0.1256798
23	0xbdfdcb1f	-0.12392258
24	0xbe485c82	-0.19566539
25	0x3e719560	0.23592138
26	0x3b881a5f	0.0041535343
27	0x3e48b919	0.19601859
28	0x3e1d5861	0.15365745
29	0x3d3e975f	0.046531077
30	0xbab803c0	-0.0014039204
31	0xbea12acc	-0.31477964
32	0x3e212814	0.15737945
33	0x3e2fae0a	0.17156234
34	0x3e4eb0cc	0.2018463
35	0x3e3174c1	0.17329694
36	0x3e5e830b	0.21729676
37	0x3e2422ed	0.16028948
38	0x3e3bc0ea	0.1833531
39	0x3e5bbcc4	0.21458727
40	0xbedbb9ca	-0.42915183
41	0x3e0f032d	0.13966055
42	0xbe4ebe03	-0.20189671
43	0x3e59e6b9	0.2127942
44	0xbd6613c0	-0.05617118
45	0x3e09d444	0.13459879
46	0xbd30240c	-0.043003127
47	0x3e12d1c6	0.14337835
48	0x3da00082	0.07812597
49	0x3e56cb11	0.20975901
50	0x3e5aff5e	0.21386477
51	0x3e19cd06	0.15019616
52	0x3e399f33	0.18127136
53	0xbe370cf0	-0.17876029
54	0x3e13b6e7	0.1442524
55	0x3dbd7ced	0.09252343
56	0x3e04d801	0.12973024
57	0x3d937b4c	0.072012514
58	0x3d17dda9	0.037076626
59	0xbd5fd741	-0.05464864
60	0x3e0ffdad	0.14061613
61	0x3e0c0cb7	0.13676725
62	0x3e3d7e1a	0.18505135
63	0xbe485058	-0.19561899
64	0x3e51a7a7	0.2047411
65	0x3e27e618	0.16396368
66	0x3e29a9c8	0.16568673
67	0x3e11ea97	0.14249645
68	0x3d5f926c	0.054583
69	0xbde1971d	-0.11015151
70	0x3de204e4	0.11036089
71	0x3da1d95b	0.079027854
72	0xbe2c7d71	-0.16844727
73	0x3d9acc93	0.07558551
74	0x3e08afe7	0.13348351
75	0xbe0835aa	-0.13301721
76	0xbc071f7e	-0.008247254
77	0xbe956700	-0.29180145
78	0xbcf478e4	-0.029842801
79	0xbd678cb3	-0.056530666
80	0xbe1bfdf4	-0.15233594
81	0x3e2589c4	0.16165835
82	0x3e31ab75	0.17350562
83	0x3e1d7f2b	0.15380542
84	0xbdedb815	-0.116073765
85	0x3e1f02b0	0.15528369
86	0x3e34bdcf	0.17650531
87	0xbe10e31c	-0.14149135
88	0x3e1dd9ab	0.15415065
89	0x3bc0e7a5	0.005886989
90	0xbd7c7638	-0.06163618
91	0x3e49e90b	0.19717805
92	0x3b0cfa0b	0.0021511342
93	0x3e3a1f08	0.181759
94	0x3e015011	0.12628199
95	0x3e39e393	0.18153219
96	0x3dff3669	0.1246155
97	0x3e27ec31	0.16398694
98	0x3e359914	0.17734176
99	0x3e093a23	0.13401084
100	0x3d625d07	0.0552645
101	0x3e22c2db	0.15894644
102	0xbe8de5a2	-0.27714258
103	0x3e4816fe	0.19540021
104	0x3e0c4efb	0.13702004
105	0xbc0f5030	-0.0087471455
106	0xbd8f1974	-0.06987277
107	0x3cc67a9c	0.024228387
108	0xbca6189b	-0.020275405
109	0xbdaa4c28	-0.08315307
110	0x3e6db4a6	0.23213443
111	0x3e3ec3fb	0.18629448
112	0x3e406b9c	0.1879105
113	0x3e06826e	0.13135692
114	0x3d7cc100	0.061707497
115	0x3e135336	0.14387211
116	0x3e6b1f37	0.22961126
117	0x3e3e4570	0.18581176
118	0xbe182808	-0.1485902
119	0xbd06bfe8	-0.03289786
120	0xbd83b0d0	-0.06430209
121	0x3e293d12	0.16527203
122	0xbda5cf4e	-0.08096181
123	0xbd8fd640	-0.07023287
124	0xbd2d4720	-0.04230416
125	0xbe6f6312	-0.23377636
126	0x3e3556b1	0.17708851
127	0x3e461083	0.19342236
128	0x3e6157f5	0.22006209
129	0x3e29b5d5	0.1657327
130	0xbdb235bc	-0.08701655
131	0x3e5383ec	0.20655793
132	0xbd23d4df	-0.03999793
133	0x3e490278	0.19629848
134	0x3e270223	0.16309409
135	0x3dec5851	0.115402825
136	0x3e1e1567	0.15437852
137	0xbd09ff74	-0.033690885
138	0x3e496373	0.19666843
139	0xbe4d2684	-0.20034224
140	0xbcd5d01a	-0.026100207
141	0xbd5656a9	-0.05232874
142	0xbe6e166b	-0.2325074
143	0xbd205021	-0.039138917
144	0xbde69067	-0.11258011
145	0xbe325560	-0.1741538
146	0xbea75781	-0.32683948
147	0x3d8dc677	0.0692262
148	0xbdcd2b55	-0.100180306
149	0x3ca2dd1c	0.019880824
150	0x3e1f6a81	0.15567972
151	0x3d0c9d5d	0.03432976
152	0xbde0b0ba	-0.10971208
153	0x3e4bd618	0.19905889
154	0xbd5455e6	-0.05183973
155	0x3e46405d	0.1936049
156	0x3e336662	0.17519525
157	0x3db8ffcf	0.090331666
158	0xbd0cd486	-0.034382366
159	0xbec2ead3	-0.38069782
160	0xbe61073e	-0.21975419
161	0xbd1a9d43	-0.037747633
162	0x3dd9c3ed	0.10633073
163	0x3e2ebc1e	0.17063949
164	0x3e4adb85	0.19810303
165	0x3e5a1813	0.21298246
166	0x3e1d4ce8	0.15361369
167	0x3e20ba74	0.15696126
168	0xbec61614	-0.3868872
169	0x3e382eb1	0.17986561
170	0xbe0a64ed	-0.13515063
171	0x3e830577	0.25590107
172	0x3c1da381	0.009621502
173	0x3d164122	0.03668321
174	0xbc82e34b	-0.015977522
175	0x3e51d3c6	0.20490941
176	0xbcf356fa	-0.02970456
177	0x3e2da75f	0.16958378
178	0x3e14d203	0.14533238
179	0x3c09715b	0.008388842
180	0x3e0dec95	0.1385978
181	0xbe17905d	-0.14801164
182	0x3e7085f5	0.234886
183	0x3e310902	0.17288592
184	0x3e50c2bf	0.2038679
185	0x3e4b7309	0.19868101
186	0xbd9e1cbc	-0.077203244
187	0x3cb337d2	0.021877203
188	0x3e4ded33	0.20110016
189	0x3e659a2d	0.22422095
190	0x3e57948f	0.21052764
191	0xbcce78c0	-0.025204062
192	0x3e5c3d3c	0.21507734
193	0x3de22656	0.11042468
194	0x3cedca60	0.029027164
195	0x3e1a530e	0.15070745
196	0x3e4eb8c3	0.20187669
197	0x3dd67cca	0.104730204
198	0x3e4eaf01	0.20183946
199	0xbd1c861d	-0.038213838
200	0xbd7054e7	-0.05867472
201	0xbd569945	-0.052392263
202	0x3e7709b1	0.2412479
203	0x3cab0f4c	0.020881318
204	0x3d6b1183	0.057389747
205	0xbeab1afd	-0.33419028
206	0x3d8f05bd	0.06983516
207	0xbe043e1f	-0.12914322
208	0xbdaa0955	-0.08302561
209	0x3e32464d	0.1740963
210	0x3e34cfba	0.17657366
211	0x3e4c61fa	0.1995925
212	0xbd4650f2	-0.04841704
213	0x3e690f75	0.22759803
214	0x3df33962	0.11876179
215	0xbe07d1f7	-0.13263689
216	0x3e02ebc1	0.12785245
217	0xbd9bf2eb	-0.07614692
218	0x3da97b36	0.08275454
219	0x3e5d2541	0.21596242
220	0xbca41f2d	-0.020034397
221	0x3e37bccb	0.17943113
222	0x3e65ab55	0.22428639
223	0x3e65ad96	0.22429499
224	0x3e063345	0.13105495
225	0x3d5a59ec	0.053308412
226	0x3de97c5d	0.114006735
227	0x3e2f49f0	0.17118049
228	0x3e0e77db	0.13912909
229	0x3dab8918	0.08375758
230	0xbe84e020	-0.25952244
231	0x3debed3c	0.11519858
232	0x3dfa3d91	0.12218774
233	0x3d3f580e	0.046714835
234	0x3dd28006	0.10278325
235	0xbdb4b862	-0.08824231
236	0xbdf9bb3c	-0.12193915
237	0x3c2fb18b	0.010723482
238	0x3e6b1955	0.22958882
239	0x3ca4d01d	0.020118767
240	0x3e430ab3	0.1904705
241	0x3e3eff5b	0.18652098
242	0x3e37114c	0.17877692
243	0x3e0925c9	0.1339332
244	0x3e7a016f	0.2441461
245	0x3e10d61c	0.14144176
246	0xbe85ecaa	-0.26157123
247	0x3d0e62d1	0.034762207
248	0xbe271657	-0.16317116
249	0x3e300a22	0.17191365
250	0xbe39ce53	-0.18145113
251	0xbd946d24	-0.072473794
252	0x3c1ef03b	0.00970083
253	0xbe7f8581	-0.24953271
254	0x3e293347	0.16523467
255	0x3e2b04e7	0.16701089

bias f4 [2]
0	0x3d6fcc3e	0.05854439
1	0x3d9e0ff2	0.07717885
