model/DQN_model_0.pt (torch, 73079 bytes, 6 tensors)

weight f4 [128, 4]
000000 c5 92 eb be ea c9 16 3e 6f 84 d1 bd 1e 93 19 3f
       -0.46010414 0.14725462 -0.10230338 0.5999011
000010 d2 7e 2d be 26 23 b3 3e ac cf 12 3f 92 c7 75 3e
       -0.1694291 0.34987754 0.5734813 0.24001911
000020 ec 0c 18 3e 90 15 62 3e c2 5a 33 3e 15 e4 a4 be
       0.1484868 0.22078538 0.1751509 -0.32205263
000030 01 fc 10 3e f5 01 25 be 53 03 89 be 2a 5b 06 bf
       0.14158632 -0.16114028 -0.2676035 -0.52482855
000040 79 9f c9 3e bc 6e cb bd 00 0a b4 bd 49 69 96 3d
       0.3937948 -0.0993323 -0.0879097 0.073443
000050 b2 a5 5b 3e fe 36 b3 3e 59 5c f7 bc b1 ab af 3e
       0.21449926 0.35002893 -0.030195402 0.34310678
000060 37 54 23 be 47 39 90 be a1 d8 2d bf a4 c1 16 3d
       -0.15950094 -0.281687 -0.67908674 0.036805764
000070 0e 98 7b 3d 61 d4 97 3e b1 3f fa be 77 25 38 be
       0.061424308 0.2965422 -0.48876718 -0.17983042
000080 ff 0e 31 be d7 b9 30 be 14 7e b7 3e c7 ad 70 3e
       -0.17290877 -0.17258392 0.35838377 0.23503791
000090 cc a9 9d 3e 4d 64 c0 3e bd 55 57 bd ef c2 21 3e
       0.30793607 0.37576523 -0.052572 0.15797018
0000a0 81 da cc bd 38 6e e7 be e9 4d 60 be a5 d5 07 3e
       -0.10002614 -0.45201278 -0.2190472 0.13265093
0000b0 fc 13 17 3e ab f9 25 3d ed 1b e9 be 5b 27 97 bb
       0.14753717 0.040521305 -0.45529118 -0.004612846
0000c0 3e 31 e6 3d f1 74 b6 be 5a f3 92 be 24 da 7c 3e
       0.11239861 -0.35636094 -0.28701288 0.24692589
0000d0 11 b1 73 3e 1c 32 c0 bc b8 d7 ad 3c 71 bf df 3e
       0.23798014 -0.023461394 0.021221027 0.43700746
0000e0 ca 7d da 3e d7 00 8d 3e 65 34 a4 be d0 8d 85 be
       0.42674094 0.27539703 -0.32071224 -0.26084757
0000f0 79 e5 6f 3d b7 37 9c 3d 7d 66 9a 3e d9 5f 76 3e
       0.05856845 0.07627814 0.30156317 0.2406
000100 f1 71 c1 be ff f3 88 3e af f6 00 be 89 fb bf be
       -0.37782243 0.26748654 -0.12594102 -0.37496594
000110 16 b6 8c be 4f 63 19 3f 82 62 07 3f 9d 1d 15 3f
       -0.2748267 0.5991716 0.52884686 0.5824831
000120 21 21 b3 3e 6b 20 8c bd 68 ca ac 3e 2e 11 95 3e
       0.34986213 -0.06842121 0.33748174 0.2911467
000130 11 70 b5 be 78 95 9f be 21 94 8c be b7 cd a5 3e
       -0.35437062 -0.31168723 -0.27456763 0.3238351
000140 bd 65 cb be 91 e5 0e 3e b3 43 b4 be c4 56 59 3e
       -0.39726058 0.1395476 -0.352079 0.21224505
000150 6d f3 14 3d f5 6b d8 be c7 af 31 bc b6 d3 a8 3e
       0.03636496 -0.42269865 -0.010845131 0.32974023
000160 fe b7 31 3e 4c 5b cc be d0 5b 42 bd f8 de aa bc
       0.17355344 -0.39913404 -0.04745084 -0.020858273
000170 08 db b7 3e 98 ed fb bc 5d f2 6a be a3 bd b3 3d
       0.35909295 -0.030752942 -0.22944017 0.08776405
000180 ad 75 e9 bd 6a 0b de be b9 fe 60 be 25 09 09 be
       -0.11399398 -0.43368083 -0.21972169 -0.13382395
000190 5d 58 e5 be fd a1 75 bc ec 1e 3c 3f da 01 17 3f
       -0.44793978 -0.014992234 0.73484683 0.589872
0001a0 27 ca 86 3e c1 f8 7a be 74 8e 1e 3d d8 50 7d be
       0.26326105 -0.24508955 0.038710073 -0.2473787
0001b0 cc 35 35 be 97 af 03 bd f2 e8 7e be 51 9e 09 bf
       -0.17696303 -0.032149877 -0.24893549 -0.53757197
0001c0 b6 f6 da 3d 84 cc 19 3e db 9d 10 be d2 d7 d8 3e
       0.106915876 0.15019423 -0.14122717 0.42352158
0001d0 74 c4 b5 bc d9 53 d0 3e 27 ed e9 3e 54 eb 9f 3e
       -0.022188403 0.4068897 0.45688745 0.3123423
0001e0 a0 82 e3 be e7 42 44 be 1f f2 9d 3d 1d 35 19 be
       -0.44435596 -0.19166146 0.077121966 -0.14961667
0001f0 cf 85 be 3e 1e 49 96 3e d8 aa 07 3e 1d 10 ee bd
       0.37211463 0.2935266 0.13248765 -0.11624167
000200 c6 f9 a5 bd 66 84 bc 3e 05 8d 37 be 69 66 c3 be
       -0.08104281 0.36819762 -0.17924888 -0.3816407
000210 4c 23 0b 3f 7f 44 7e be 34 f0 27 bd 81 ce 01 3e
       0.54350734 -0.24830817 -0.04100056 0.12676431
000220 21 e8 18 bb 78 eb c9 3e 61 fd 55 3c e6 c6 c0 3e
       -0.002333172 0.3943746 0.0130608985 0.37651747
000230 59 98 ea be b5 d4 a6 3e 67 d6 2b 3f 80 4a 52 3e
       -0.45819357 0.32584158 0.67124027 0.20536232
000240 b1 8f 1e 3e 2b 4c 77 3e 0a 19 21 be 3d 8f 17 be
       0.15484501 0.2415015 -0.15732208 -0.14800735
000250 4e 5a 0f bf 94 9e 35 3d b5 1f 84 be e4 a9 9f 3e
       -0.5599717 0.044340685 -0.2580544 0.31184304
000260 71 69 83 3e a0 f0 b8 3e 0b 40 88 be 4b 02 d7 3c
       0.25666383 0.36121082 -0.2661136 0.02624621
000270 39 94 cb 3d f1 fa a7 3d 44 cb 97 3e e2 5d 1c be
       0.099403806 0.0820216 0.29647267 -0.15270188
000280 ed 63 f6 bd 22 ef 97 3e 30 5d ab be d0 27 96 3e
       -0.12030778 0.2967463 -0.33469534 0.2932725
000290 eb fc de bd 79 8c 1a 3e f4 f7 23 bf 75 fe df bd
       -0.10888084 0.15092649 -0.6405022 -0.10937206
0002a0 d1 9b f6 3e bc 10 81 bd 29 6c b4 be a1 e7 cb 3c
       0.48165753 -0.0630202 -0.3523877 0.024890723
0002b0 79 ed 5a 3e 53 59 e2 3e 24 66 06 be bf a0 8b 3e
       0.21379651 0.44208774 -0.13124901 0.27271077
0002c0 37 5b 93 3e e1 8f 28 3e 7c ff 9d 3d d2 e9 d5 be
       0.2878053 0.16461135 0.077147454 -0.41779953
0002d0 9b 26 43 3e 21 f7 b8 bc 1f fe 48 3e d6 53 f7 3e
       0.19057696 -0.022578778 0.1962819 0.4830615
0002e0 c1 e8 c0 3e 06 2d a5 bc f0 94 c4 3d b1 ec 8d be
       0.37677577 -0.02016307 0.0959872 -0.27719644
0002f0 1d b4 9e be 00 74 44 3e f9 8b 9e 3e c7 c4 58 be
       -0.3099679 0.19184875 0.30966166 -0.21168815
000300 19 aa cf 3e 9f bb a8 be 96 31 fa bd c6 1f 01 be
       0.40559462 -0.32955644 -0.12216489 -0.12609777
000310 bf e1 bc 3e 91 42 8a be 01 ba 51 be 2b ef a2 bd
       0.3689098 -0.2700391 -0.20481111 -0.07955774
000320 67 e6 b8 3e 0b 43 46 3d b9 68 ad 3e d4 ee 7c be
       0.36113283 0.04840378 0.3386896 -0.2470048
000330 27 b8 91 3e ce b4 be bd cd 41 fd be 1a 9c 3b be
       0.2846081 -0.093118295 -0.49464265 -0.18321267
000340 d5 08 c7 3d 3b 2d 2d 3e d3 23 5d 3e 8e 2d a3 3e
       0.097184815 0.16911785 0.21595697 0.31870693
000350 db 0d f2 3d d7 27 00 be 8e a8 e0 be d4 ec 08 be
       0.11819049 -0.12515198 -0.43878597 -0.13371593
000360 2c a4 1e 3e 48 5b ed be 3e 5b 7d be f5 ed 9d bd
       0.15492314 -0.46358705 -0.24741837 -0.07711402
000370 85 a3 6b be 4f 5b be be 84 81 c0 be b5 34 76 be
       -0.23011597 -0.37179038 -0.37598813 -0.24043544
000380 a1 ed f7 bd 86 53 f6 be 5a 6c 7d be 9b 3a 43 be
       -0.12105871 -0.48110598 -0.24748364 -0.19065325
000390 3d 40 14 3f bd db d1 3e 36 2e 1f bf a2 de 97 be
       0.5791052 0.4098796 -0.6217989 -0.29662043
0003a0 0c 93 2b 3d be 37 22 3b c6 26 26 bf a2 fd 4d be
       0.04188828 0.0024752463 -0.64902914 -0.20116284
0003b0 5d aa a7 3e 46 90 b5 be 9c f6 49 bf 0e 0d cc be
       0.32747164 -0.35461634 -0.7889192 -0.3985371
0003c0 ce 1f b6 be 5c 6f d2 3e 6d 7d c5 bd 85 4d 39 3c
       -0.3557114 0.41100585 -0.09643064 0.011309986
0003d0 cf 7f 4b be e0 37 b6 be 6d 10 96 be c1 4f 1c be
       -0.19872974 -0.35589504 -0.29309407 -0.15264799
0003e0 bf e9 1a 3d 4e 6f 27 bf 21 6e 45 bf 25 35 cd 3e
       0.037820574 -0.6540421 -0.7712117 0.4007961
0003f0 4c 37 02 be 9b e3 b8 be d5 b5 c9 3d dc e2 a4 3e
       -0.12716407 -0.3611115 0.09849135 0.3220433

bias f4 [128]
000000 8f c6 8f be 2b 44 e1 bd 75 4e b1 3e 6f 37 f1 be
       -0.28081176 -0.1099933 0.3463017 -0.47112605
000010 0b fd e5 be 9d 98 87 3e e8 cb 11 3f 05 8c a4 be
       -0.4491962 0.26483622 0.5695176 -0.32138076
000020 1d 1c 6c be 41 0a c7 3d 74 08 b7 3c a9 ff 89 3e
       -0.230576 0.09718753 0.022342898 0.26952866
000030 52 f9 23 3f 88 8b f1 be 3b 04 0f bf ce e7 1f 3f
       0.6405231 -0.47176766 -0.5586583 0.6246308
000040 98 b3 88 be f8 22 87 be 06 73 7b be 60 6f c3 3e
       -0.2669952 -0.26393867 -0.24555597 0.3817091
000050 d2 f3 c7 be 5f 1a 0b 3f 94 60 80 3e c4 03 0e 3f
       -0.39053208 0.54337114 0.25073683 0.55474496
000060 92 aa 77 be 65 6b 4a 3d c0 26 ed be 28 db a9 be
       -0.24186161 0.049418826 -0.46318626 -0.33175015
000070 ea 4f 48 3e 26 c3 17 3f 30 e0 01 3f e2 87 86 3e
       0.19561735 0.5928215 0.5073271 0.26275545
000080 db 29 1a 3f a1 af e0 3e 30 da 9a 3e 05 0a 16 be
       0.60220116 0.43883994 0.3024459 -0.1465226
000090 5b 98 83 be c7 90 ec bd 13 ee ca be 83 97 20 3f
       -0.25702175 -0.115510516 -0.3963476 0.6273119
0000a0 fe 81 1a 3e fd 55 04 be 13 fc ae be b0 d7 0e 3f
       0.1508865 -0.12923427 -0.34176692 0.55797863
0000b0 6f 7c e0 be de 10 82 3c 01 c9 87 3e 19 12 9e 3e
       -0.43844935 0.015877184 0.2652054 0.30873182
0000c0 9f 1f f3 3c a4 23 ac bc ae dd e5 3e c6 19 12 3f
       0.029678164 -0.021013089 0.4489569 0.5707058
0000d0 44 23 49 be 19 aa 9f 3e c6 3a 2b 3e da 06 8d be
       -0.19642359 0.31184462 0.16721639 -0.2754429
0000e0 37 81 05 3f af e3 c3 be d2 4f 87 be ee 03 7c bd
       0.5215029 -0.38259646 -0.26428086 -0.061527185
0000f0 6a 62 b8 3e 2c 85 27 3e 7c bf e7 3d 92 02 16 3f
       0.36012584 0.16359395 0.113158196 0.5859767
000100 42 87 18 3f 7a 49 97 3e 69 13 a7 3e 94 57 22 bd
       0.5958139 0.29548246 0.32631996 -0.039634302
000110 fd 4a 28 bd 0a b4 82 3e d7 80 8d 3e 4e 5b c4 3e
       -0.04108714 0.25527984 0.2763736 0.3835091
000120 5c 96 c0 bc 90 ad 4d be 62 64 ff be 6f 64 5a be
       -0.023509197 -0.2008574 -0.49881274 -0.21327375
000130 1b 1d f8 3d 85 e2 ff 3e 2b 7c b5 3e 98 a9 32 be
       0.121149264 0.49977508 0.35446295 -0.17447507
000140 0d 20 fc be 64 a1 ba 3e ec fe 13 bd 88 4d d4 3d
       -0.49243203 0.36451256 -0.036131784 0.103663504
000150 89 7c 13 3f 77 c8 9a 3e 14 f2 71 be 4e 84 a5 be
       0.576119 0.30231068 -0.23627502 -0.32327503
000160 8e d6 04 3f 84 e6 8d be 23 3d 14 be 84 79 87 be
       0.51889884 -0.27714932 -0.14476447 -0.26459897
000170 93 a3 78 3e b4 4a a4 3e 36 29 17 3f 29 93 c4 3e
       0.24281149 0.32088244 0.5904726 0.38393524
000180 a5 bf 77 be 21 54 d7 3e a7 d3 91 3e 5b 81 d9 3e
       -0.241942 0.42056373 0.2848179 0.42481503
000190 c4 26 f7 3e b3 1f 05 be 9b da 10 be f3 29 0b 3f
       0.48271763 -0.13000374 -0.14145891 0.54360884
0001a0 5b 44 be bc 89 fb 86 bc 29 14 d4 3e ff 36 18 be
       -0.023225954 -0.016477363 0.4142163 -0.1486473
0001b0 bd 7b 13 3e a4 39 87 3e b4 2b 0c be 3b a1 29 3e
       0.14402671 0.26411164 -0.13688546 0.16565411
0001c0 f5 89 00 3f f1 b6 01 3f 16 e1 a3 be 79 fb 00 3f
       0.50210506 0.5066977 -0.32007664 0.50383717
0001d0 c2 cf 12 be e6 63 b7 be db e5 1e bd 30 72 01 3f
       -0.14337066 -0.35818404 -0.038793426 0.5056486
0001e0 c2 1d d6 3e 44 41 db be da ab f9 3e df d7 7e be
       0.41819578 -0.4282323 0.48763925 -0.24887036
0001f0 f9 21 04 bf f9 29 19 3f f7 e1 04 be 2d db e3 be
       -0.5161434 0.5982967 -0.12976824 -0.44503155

weight f4 [128, 128]
000000 40 1c b3 bc 12 65 21 3d ca d5 29 bd 4c ce 7d 3d
       -0.021864057 0.03940303 -0.04146365 0.06196432
000010 af cc b3 bd d5 67 8a 3d 99 f5 a0 bc e7 af dd bc
       -0.08779275 0.06758086 -0.01964836 -0.027061416
000020 48 e1 3f 3c 08 49 bd bd 00 70 6b b8 66 94 8c 3d
       0.011711426 -0.09242445 -5.6132674e-05 0.06864242
000030 73 f5 b1 bd 07 eb ad bd 77 69 8c bd 7d f6 8f bd
       -0.08689394 -0.084920935 -0.06856053 -0.07029436
000040 11 41 2c 3d 77 05 9e 3d c0 ec cb 3b 48 74 6c 3c
       0.04205424 0.07715886 0.006223291 0.0144320205
000050 87 d7 af bd c0 fe 1e bc 70 6a 7f bd bb bd 56 3d
       -0.085860305 -0.009704292 -0.062357366 0.052427035
000060 30 21 8b 3c 00 34 93 38 ac 31 9d 3c 8e d0 01 3d
       0.016983598 7.019192e-05 0.019188724 0.031693034
000070 03 f2 ae bd c4 92 64 3d 0e 0d 5d bd 98 ef 17 bd
       -0.08542254 0.05580403 -0.053967528 -0.03709373
000080 77 26 80 bd 8a 9b 68 bd ab e2 c7 bc 4d 70 80 3d
       -0.062573366 -0.05678896 -0.024400076 0.0627142
000090 fb 73 29 bd 21 d9 1b bd 6f 0d 99 3d 94 fb 8d bd
       -0.041370373 -0.038048867 0.074732654 -0.0693275
0000a0 98 de 17 bc 7b 85 4c bd f9 52 01 bd 0a 17 19 3c
       -0.009269379 -0.049931984 -0.03157327 0.009343872
0000b0 36 d8 ef bc 2c 70 7d bd 6e 13 7a 3d d0 2a 09 bd
       -0.029277902 -0.061874554 0.061053686 -0.033488095
0000c0 3d 05 90 3d d3 5a 14 bd c5 d9 71 bd 3b 06 81 3c
       0.07032249 -0.03621943 -0.05904557 0.015750041
0000d0 a0 4a 21 3c 9d e5 3f 3d e2 77 3e bd 4e 0b 92 bd
       0.009844452 0.046849836 -0.046501048 -0.071310624
0000e0 98 6f 90 bb 86 80 97 3d 00 e7 5e bb 34 32 90 3c
       -0.0044078343 0.07397561 -0.0034012198 0.017602064
0000f0 e6 68 a4 bd e6 fb 84 bd f6 c9 1a 3d 48 5c 9d bd
       -0.0802782 -0.06493358 0.03779026 -0.07683617
000100 75 e8 41 bd fc 10 e1 bc 45 30 3f 3c 74 85 b8 3c
       -0.04734083 -0.02747392 0.011669223 0.022524573
000110 70 6d 48 3c 49 06 63 3d 92 66 4b bd d3 72 70 bd
       0.012233123 0.055425916 -0.049658366 -0.058703255
000120 e5 7f ee bc ca d5 39 bd 7e 07 60 3d 53 1b 96 3d
       -0.02911372 -0.0453699 0.054694645 0.073294304
000130 fb c8 1c bd cd 85 b3 bd 91 0d 12 bd b5 70 a2 3d
       -0.038277607 -0.08765755 -0.03565747 0.079316534
000140 c0 07 62 3b 2a 2f 97 bd 63 47 81 bd c4 37 ed bc
       0.0034489483 -0.07382043 -0.06312444 -0.028957255
000150 c8 ac d9 bc 7d df da 3b ed 32 47 bd e9 6e b1 3c
       -0.026571646 0.006679474 -0.04863255 0.021659331
000160 16 e6 a5 bd f0 12 16 3c a5 8e 2b 3d 44 7a c0 3c
       -0.08100526 0.0091597885 0.041884083 0.0234958
000170 68 e5 ee 3c e8 2c 64 bd 69 6b 57 3d 70 e1 1c 3d
       0.029162124 -0.05570689 0.05259267 0.03830093
000180 b7 48 17 ba ce 61 44 bd 06 9f 76 3d 1e 91 7e 3c
       -0.0005771028 -0.047944836 0.06021025 0.015537528
000190 60 a7 8c 3d fd a4 ac 3b e0 dd 61 3b d3 de 81 3c
       0.06867862 0.0052686916 0.0034464523 0.015853321
0001a0 32 d3 43 bd 97 6a 3c 3d ad 71 75 3d 5b 34 2f bd
       -0.047808833 0.04600009 0.059922863 -0.04277454
0001b0 e0 b2 e0 3c e2 6b a6 3a ff 67 a7 3d 2f e1 55 bc
       0.027429044 0.0012696947 0.081741326 -0.013054176
0001c0 d7 83 8f bd 5e b1 78 3d 8e 10 4a 3d 1c 72 a0 bd
       -0.07007568 0.060716026 0.049332194 -0.07834265
0001d0 3c 3f 02 3d 7a 5e 4b 3d 60 16 eb bb 56 cc 1d 3d
       0.031798586 0.049650647 -0.007174298 0.038524948
0001e0 05 a9 9a 3d a7 cd 98 3c 4c 70 6a 3d 78 7b 0d bd
       0.07551769 0.01865275 0.057236 -0.034541577
0001f0 b0 46 b4 bb 4c 32 66 3d 01 c4 96 3c 20 80 f3 bc
       -0.0055015907 0.05620031 0.018404009 -0.02972418
000200 78 40 8b bd e9 0d 8a be fe 94 f0 3d 8a 99 bc bd
       -0.06799406 -0.26963738 0.11747168 -0.09208973
000210 06 9e d9 3c a2 f3 ec 3d 92 4a 3c bc ce 18 b2 bd
       0.02656461 0.11569907 -0.011492388 -0.08696137
000220 2c 50 0a be 49 91 de bd f2 34 2a 3e 58 c5 2e bd
       -0.13507146 -0.10867555 0.1662176 -0.04266867
000230 da d6 6a 3c 51 a4 82 3c aa b2 15 bd 62 41 11 3e
       0.014333451 0.015947493 -0.03654734 0.14185098
000240 17 5f ce 3d e5 f0 84 be c8 a4 8f be 8d ab 87 bb
       0.10076731 -0.25965038 -0.28055406 -0.0041403235
000250 06 02 1c 3d 6a 27 b0 3d 0b ae aa 3d dd 1c 2e bd
       0.038087867 0.08601268 0.08333977 -0.042507995
000260 0f 04 aa bc 7c f4 f6 3d 2c a9 a3 bd ef 8c 61 bd
       -0.020753888 0.120583504 -0.07991251 -0.055066045
000270 84 2c c0 3d 43 c0 99 3c 3f 1a 02 3e 2b 2c ae 3d
       0.09383491 0.018768435 0.12705325 0.08504518
000280 36 e5 ff ba e0 20 b5 bc ab 51 22 bc 3a d7 5f be
       -0.0019523266 -0.022110403 -0.0099071665 -0.21859446
000290 81 e1 a1 3d 07 b2 f2 bd 83 5c 79 3d 80 c1 b3 3d
       0.079043396 -0.11850362 0.06087924 0.087771416
0002a0 e7 cf 35 bc 9b 85 23 be 77 a4 a4 bd c4 bd d6 3d
       -0.011096931 -0.15968935 -0.08039182 0.10485414
0002b0 f4 3b 13 bc 22 e0 34 3d 96 28 80 3d 42 07 45 3b
       -0.008986462 0.044159062 0.06257741 0.003006414
0002c0 23 54 de bd e4 28 68 be 91 e6 75 3d 84 de d0 bb
       -0.108558916 -0.22671849 0.06003434 -0.006374182
0002d0 f9 dc 74 be 2f 80 9a 3c 28 bd f9 3c 96 cf b4 bd
       -0.2391242 0.01885995 0.030485705 -0.088286564
0002e0 84 9b aa 3d 3a ae fd 3c 45 6b e0 bd 8f b8 0c be
       0.083304435 0.030966867 -0.1095796 -0.13742279
0002f0 9c 46 02 bc 19 4c c6 3d 14 d7 b3 3d 9d da 15 3e
       -0.007951405 0.09682483 0.08781257 0.14634176
000300 c2 53 91 3d 92 46 f9 bc 36 57 f3 3d dd b6 73 bc
       0.07096054 -0.030429158 0.118818685 -0.014875141
000310 7e 72 07 be fb c4 47 3d c1 1f b9 3c e9 a7 6d bc
       -0.13227269 0.04877184 0.02259815 -0.014505365
000320 e4 f5 d1 bd cb 03 82 bd 27 19 80 bd bb 24 4f be
       -0.10251978 -0.0634838 -0.062547974 -0.20228855
000330 e5 53 15 3d 70 7e 29 3c d6 a1 fe 3c de a6 e6 bc
       0.03645696 0.010345086 0.031083029 -0.02815574
000340 40 21 84 bc 27 a1 db 3b f9 16 93 bd e5 5b 18 3d
       -0.016129136 0.0067025605 -0.07182116 0.037197012
000350 67 53 ae 3c ab 90 53 bd ab 9a 88 bd 30 ce 3a 3d
       0.021280004 -0.051651638 -0.066701256 0.045606792
000360 d3 88 fb bc de 8e 12 3d d5 ab 40 be 59 65 62 3d
       -0.030704891 0.03578078 -0.18815549 0.055272434
000370 fd 67 67 3d 25 6f 9f 3d 0c 14 9c 3c c2 f7 ab 3c
       0.056495655 0.07784871 0.019052528 0.020992164
000380 e0 01 d8 bd ac d6 92 3d 33 77 75 bd 7d 25 5a 3d
       -0.10547233 0.07169852 -0.05992813 0.053258408
000390 73 28 1a 3e e3 3b e0 bd ec ed fb bd e8 be 08 3e
       0.15054493 -0.109489225 -0.12301239 0.13354075
0003a0 c6 78 08 be 92 42 d9 ba 3b 46 48 3d f7 e3 1b bd
       -0.13327321 -0.0016575626 0.048895102 -0.0380592
0003b0 e1 ec 5e 3c 0b 65 d8 3c b4 ac 41 be 4a 92 9a 3c
       0.013606281 0.026415369 -0.18913537 0.018868584
0003c0 72 ca b1 3d 50 3a e3 3c 0b 79 43 bd 1b 3d ba 3d
       0.086811915 0.027737767 -0.047722857 0.09093686
0003d0 7b 69 02 be bf 43 e3 bd 30 fa 1a be a7 b0 b2 3d
       -0.1273555 -0.11096906 -0.15134501 0.087251
0003e0 bc 5f 34 3d c2 e4 d7 bd 5a ae 30 3e b3 b8 b8 3c
       0.044036612 -0.10541679 0.1725401 0.022549009
0003f0 b2 d3 62 bd d8 12 5d 3c 3d 0f 0a 3d 08 fb 13 bd
       -0.05537767 0.013493262 0.03370594 -0.036128074

bias f4 [128]
000000 dc b5 a0 3d 72 3d 03 3e 52 ec 08 3e f8 9b b4 bc
       0.07847187 0.12816408 0.13371399 -0.022047028
000010 cd 54 30 3c 2b 26 d6 3c 80 3f 1e 3b 92 8d 7b bd
       0.010762406 0.026141247 0.0024146736 -0.06141431
000020 5b 72 a9 3d af 09 07 be 90 58 58 bd 8e f9 62 3d
       0.08273765 -0.13187288 -0.052818835 0.055413775
000030 86 3d 82 bc 51 08 1a 3e 5a c5 ad bd e2 cb 3a 3e
       -0.015898477 0.15042235 -0.084849074 0.18241838
000040 ff 91 b5 3b 3b 28 d0 bb c3 fa e9 bd 92 44 6a 3d
       0.0055410857 -0.006352452 -0.11424782 0.0571943
000050 74 47 80 3d ea a0 e4 bd 3d 1f ac bd 21 fd 2b bc
       0.062636286 -0.111635044 -0.08404396 -0.010497362
000060 f8 cf 4a 3e 93 58 e7 3d dc bf 98 3d 7a b7 77 3c
       0.19805896 0.11296191 0.07458469 0.015119428
000070 11 82 50 3d 33 67 d8 3d 3f 13 cd bb ba c9 af bd
       0.05090529 0.10566559 -0.006258398 -0.08583398
000080 48 29 e4 bd 1e 2b a9 3d fd 47 cc bd 39 bc 35 3e
       -0.11140686 0.08260177 -0.09974668 0.17747582
000090 8d f9 e6 bc 4b bc 41 3d 8c 2e 3a 3e 07 3e df 3d
       -0.028195167 0.04729871 0.18181819 0.10900503
0000a0 1e 1f 62 3e a2 55 81 bd fe f7 c1 3d 55 81 18 3e
       0.22082183 -0.06315161 0.09471129 0.14893086
0000b0 ba ec 08 3d 47 87 57 3e ae df b3 3d bc f0 9c bd
       0.033428885 0.21047698 0.08782898 -0.07663104
0000c0 ef 42 4e 3d 00 f8 51 3e 03 86 06 3e 6a 23 c7 3c
       0.0503568 0.2050476 0.13137059 0.024308879
0000d0 24 55 f9 3d 5e 5d 40 3d 39 1a cb 3d 3a a2 19 3e
       0.121744424 0.046964042 0.09917111 0.15003291
0000e0 33 ae 33 bb d0 9c 68 bc 5b 6f 50 3e 78 f5 50 3e
       -0.0027417063 -0.014197543 0.20354979 0.20406139
0000f0 3a 1c c8 3d 45 d2 ed 3c 66 dd 43 3e b2 a8 30 3e
       0.09771009 0.029030928 0.19127426 0.17251852
000100 1e c7 72 3d 60 d5 26 3e 3c 03 06 be 02 4a c9 3d
       0.059271924 0.16292334 -0.13087171 0.09828569
000110 bb f0 a4 bd ed 6c 96 3d d6 7c 84 3d 90 02 0e 3e
       -0.08053728 0.07344995 0.06469123 0.13868165
000120 dd 14 d8 3d 85 98 4e bd 90 ae 0f bd 60 8b 86 3d
       0.10550854 -0.050438423 -0.035078585 0.065695524
000130 65 9c 43 3e 98 8a 02 3e 4b 46 54 3e 45 d5 47 bd
       0.19102629 0.12748182 0.2072994 -0.048787374
000140 e0 8c 30 3b a0 82 14 bd 89 57 c1 3d 54 4d 02 be
       0.0026939437 -0.036257386 0.09440524 -0.12724811
000150 77 ee e2 3d f5 e5 81 3d db 16 4e 3d ee 85 59 3e
       0.1108064 0.06342689 0.050314765 0.21242496
000160 36 c4 2f 3e 7b 4c 47 3e 72 e9 00 3d e0 f2 45 3e
       0.17164692 0.19462769 0.03147263 0.1933093
000170 39 6a 5c 3d 0f f4 56 3c 80 ae 56 3e 3d a9 bf 3d
       0.05381224 0.013119712 0.20965004 0.093584515
000180 c7 61 0b bd d8 08 0d bd 17 f8 12 3d ff 57 2c bc
       -0.034028795 -0.034432262 0.03588113 -0.010519027
000190 ef 6d 2a 3e a4 e9 a2 bd da 83 56 3a ca 20 6c bd
       0.16643499 -0.0795472 0.00081830996 -0.057648458
0001a0 99 96 22 3e 21 1a a8 3d a4 e3 7a 3d 11 25 3f 3e
       0.15877761 0.08208109 0.06125225 0.18666483
0001b0 6a 5f 22 3e 4b fa 47 3e 22 5b c7 3d 53 85 8e bd
       0.1585671 0.19529073 0.09734179 -0.06959023
0001c0 42 0a 54 3d 20 16 77 3c 8a 93 c4 3d 0b 65 b6 3c
       0.051767595 0.015080959 0.09598453 0.022264978
0001d0 4e 8a 52 bc 7d ad d3 bd 8c ef 37 3e 1b e6 a6 3d
       -0.012850357 -0.10335825 0.17962474 0.08149358
0001e0 c5 3b af bd 15 2b 84 3d ae 11 a1 3b e4 57 cc 3c
       -0.08556322 0.0645353 0.0049154377 0.024944253
0001f0 c8 dc 2e 3d ff c5 96 3d 1d c3 36 3e 3f 04 89 bd
       0.042691022 0.073619835 0.17847867 -0.06690263

weight f4 [2, 128]
000000 58 46 95 3b f1 f7 a8 38 9b c4 3f 3c 59 e8 8c be
       0.004555505 8.057047e-05 0.011704589 -0.27521017
000010 50 50 ba bd 7d 1e 09 bd 77 ac 5b bd 80 43 fe bb
       -0.0909735 -0.03347634 -0.053631272 -0.0077595115
000020 ca da 31 3e 6a 51 61 be 7a 1d 9d bd 14 b5 e6 3c
       0.17368618 -0.22003713 -0.07671638 0.028162517
000030 b3 d9 bf 3a 2d 14 29 3e d1 5c 5e 3d 37 3a 35 3e
       0.0014637023 0.16511603 0.054287735 0.17697988
000040 d0 cb 2f be 1f b1 39 be 45 29 d8 bd b3 d2 99 bd
       -0.17167592 -0.18133973 -0.105547465 -0.07510891
000050 bf df 2e bd 9e a4 db bd 09 b6 39 bd 8d b3 fe bd
       -0.04269385 -0.107247576 -0.045339618 -0.1243659
000060 87 3a 39 3e f3 df 17 3e f6 85 c3 be 03 78 1f be
       0.18088733 0.14831524 -0.38188142 -0.15573125
000070 cd 0f ae bd 7c c9 34 3e 19 58 6b bd 45 33 53 be
       -0.084991075 0.17654985 -0.057457063 -0.20625027
000080 bd d7 49 bd 8d 2b d4 3d 67 f7 58 be c1 7c 38 3e
       -0.04927801 0.10359869 -0.21188127 0.1801634
000090 a4 9c 1b be 47 a1 53 3e df 78 0e 3e 15 2d 53 3e
       -0.15196472 0.20666991 0.13913296 0.20622666
0000a0 41 09 55 3e c8 65 b1 bd 02 ae 1a 3e 32 09 53 3e
       0.20804311 -0.08661991 0.15105441 0.20608976
0000b0 80 8d 42 bd 63 a4 45 3e f4 27 d8 3d 39 18 47 be
       -0.047498226 0.1930099 0.105544955 -0.19442834
0000c0 c2 9c bf bd 81 25 ee 3d 97 ad 22 3e f7 f3 b1 bd
       -0.09356071 0.11628247 0.15886532 -0.08689111
0000d0 80 eb 34 3e da 8d 39 be a4 23 26 3e 02 93 0f 3e
       0.17667961 -0.18120518 0.16224533 0.14020923
0000e0 c4 77 75 bd 40 01 28 bd fd d2 81 3e 05 bc 7a 3e
       -0.05992867 -0.041016817 0.25356284 0.24485786
0000f0 c8 fb 34 3e 17 8f 11 be 9f 6d 3c 3e 7c 00 ab 3d
       0.17674172 -0.1421474 0.18401192 0.08349702
000100 fe 63 24 3e 20 96 01 3e 4f b3 4a be 2c 26 ba 3d
       0.16053769 0.12654924 -0.19794963 0.09089312
000110 97 b5 0a 3d 31 41 69 3e a4 9c cf 3d 76 ca 3e 3e
       0.033864584 0.22778775 0.10137299 0.1863192
000120 0c 73 3d 3e 7e fb 7c 3d 18 cc a7 bd d4 fa 11 3e
       0.18500918 0.06176328 -0.08193225 0.1425584
000130 b0 41 37 3e e6 3b 4b 3e e7 c6 5a 3e 6e 57 af 3d
       0.17896152 0.19847068 0.21364938 0.08561598
000140 14 e8 5a bd a8 46 1c be 51 5e fd 3d 92 87 0c be
       -0.053443983 -0.15261328 0.12371505 -0.13723591
000150 b7 27 91 bc 98 2a d0 3c 81 3c 00 be cb 0c f4 3d
       -0.017719133 0.025410935 -0.1252308 0.119165026
000160 65 4c 5a 3e b1 6b 55 3e 37 6b 4f be 10 2a 27 3e
       0.21318205 0.20841862 -0.20255743 0.1632464
000170 ad ef 65 3e 08 3a f1 bc cf 06 28 3e ae 28 59 3e
       0.2245471 -0.029446617 0.16408847 0.21206924
000180 f8 17 ca bc 2c cc 93 bd 5f f7 57 3e 94 19 18 be
       -0.024669632 -0.07216677 0.21090458 -0.14853507
000190 23 5b 55 3e 29 96 98 3d 30 1a 98 be 30 20 5f be
       0.20835547 0.07450516 -0.2970748 -0.21789622
0001a0 bc 17 5e 3e 02 dc 67 3e 4b d6 0c 3e 5b 6b 3f 3d
       0.21688741 0.2264252 0.13753621 0.04673324
0001b0 62 82 35 3e 60 68 5b 3e 80 92 3f 3e d1 b3 c4 b9
       0.17725518 0.21426535 0.18708229 -0.00037518007
0001c0 40 8a b9 3a 61 e2 99 be 1d 35 25 3e 4b 25 7e bd
       0.0014155582 -0.30055526 0.16133542 -0.062047284
0001d0 1c 37 7d bd a6 9f 71 be a8 08 1c 3e 85 57 f3 3d
       -0.061820135 -0.23596057 0.15237677 0.118819274
0001e0 aa 0d a3 bd 0f e8 48 3d c3 1c a5 be a8 78 52 be
       -0.079615906 0.049049433 -0.32248506 -0.20553839
0001f0 ad a7 5a 3e 4b d3 1e bd 7f c8 75 3e bd 13 36 be
       0.21353026 -0.038775723 0.24002264 -0.17780967
000200 c3 1e 18 bd db a9 0c 3e 44 00 dd 3d 39 48 4e be
       -0.03713871 0.1373667 0.10791066 -0.20144738
000210 80 50 bc be ea 6a 2d be 80 99 9c bd 38 03 69 3c
       -0.36780167 -0.16935316 -0.07646465 0.014221959
000220 e4 72 29 3d bb e3 85 be 36 95 45 be 2b ac a0 bd
       0.041369334 -0.26150307 -0.192952 -0.078453384
000230 08 8b 02 3e 12 bc 1e 3e 3e 39 f7 bd bd 96 45 3e
       0.12748349 0.1550143 -0.12071465 0.19295783
000240 4d 05 69 3d f6 08 08 be 20 20 84 be 63 49 ab 3d
       0.05688982 -0.13284668 -0.2580576 0.08363607
000250 ef b7 cf 3c 72 83 41 be dd 9c 93 bd e7 c1 01 be
       0.025356261 -0.18897799 -0.07207654 -0.12671624
000260 28 55 5d 3e 4c a2 20 3e 26 31 ae 3d f5 15 8e 3d
       0.21614516 0.15686911 0.08505468 0.06937782
000270 3a 4e a7 bd 9f cb 30 3e d3 8b ab 3d 66 88 b4 be
       -0.081692174 0.17265175 0.08376279 -0.35260314
000280 88 65 41 be ad 5c 40 3e 62 b4 93 be 0c 16 55 3e
       -0.18886387 0.18785353 -0.2884856 0.20809191
000290 c2 a3 87 be 50 7e 49 3d a3 4d 54 3e 74 93 b3 3d
       -0.26492125 0.049192727 0.20732741 0.08768359
0002a0 de 13 2d 3e 3a b6 11 be 52 5d 49 3e c1 10 61 3e
       0.1690211 -0.1422967 0.19664505 0.21979047
0002b0 c2 f9 d1 bd 9f 1f 33 3e ad a3 1e 3e ee 83 ab be
       -0.10252716 0.17492531 0.15492125 -0.33499092
0002c0 96 29 4c be 54 07 71 3e ce 9a 48 3e ee 84 b0 bd
       -0.19937739 0.23537952 0.19590303 -0.08619104
0002d0 25 8c 12 3e d8 ce 1e bd 0d 7d 0c 3e 69 db 28 3e
       0.14311273 -0.03877148 0.13719578 0.16489948
0002e0 f1 43 f5 3c 12 76 24 3d f5 3e 06 3e 92 26 4a 3e
       0.029939624 0.040151663 0.13109954 0.19741276
0002f0 83 c8 3b 3e bf d4 c8 be 1d 35 1b 3e 60 24 5c 3e
       0.18338208 -0.39224812 0.1515698 0.21498251
000300 84 f7 cd 3d 45 66 66 3e e3 c0 a0 bb f7 88 18 3e
       0.100569755 0.2249995 -0.0049058064 0.14895998
000310 18 cd 14 bd a7 01 51 3e af 77 5c 3e a3 6b 17 3e
       -0.036328405 0.20410787 0.2153003 0.14787154
000320 df bb f2 3d dc 56 87 3d a2 9c 13 bd d2 75 57 3e
       0.1185224 0.06608364 -0.03603805 0.21041039
000330 e3 ad 52 3e a3 d5 63 3e c4 7d 47 3e ae 42 26 3c
       0.20574145 0.22249465 0.1948157 0.010147734
000340 60 30 ab bb ad fd 39 bd 5a cc 36 3e 80 a1 29 be
       -0.0052242726 -0.04540794 0.17851391 -0.16565514
000350 55 f0 ea 3d b6 83 16 3d ec 34 f7 bd 07 05 32 3e
       0.11471621 0.036746703 -0.12070641 0.1738473
000360 69 1e 2d 3e 21 a1 34 3e c3 ff 4d be 1a 84 18 3e
       0.16906132 0.17639591 -0.20117097 0.14894143
000370 da c1 37 3e 42 95 bb bc d9 a0 2c 3e 44 cf 1f 3e
       0.17945042 -0.02289832 0.16858234 0.1560641
000380 f1 32 b4 3d 45 38 c9 bd 71 91 a8 3d 54 46 b3 bd
       0.08798779 -0.09825186 0.08230866 -0.087536484
000390 19 cb ab 3d 2a cd 98 bd be d2 c4 be 20 5f 9d be
       0.08388347 -0.07461007 -0.38442034 -0.30736637
0003a0 37 b7 40 3e ab 55 02 3e e8 9e 5b 3e ec 55 47 3e
       0.18819891 0.12727992 0.21447337 0.1946637
0003b0 43 39 b5 3d 04 f1 0a 3e b5 88 31 3e 0a 29 1a 3d
       0.088488124 0.13568503 0.17337306 0.037636794
0003c0 73 2c 68 3c 5c 52 3f be 20 84 1e 3d 00 ca de bc
       0.014170754 -0.18683761 0.038700223 -0.02719593
0003d0 b3 39 80 be 2b 27 01 bc de 0f 38 3e 51 23 3d 3e
       -0.2504402 -0.0078828735 0.17974803 0.18470503
0003e0 6d d6 55 3d 6f 70 26 3e b7 16 fc bd e9 1f d9 bd
       0.052206445 0.16253828 -0.1230902 -0.106017895
0003f0 fb 9e 3d 3d c0 a5 aa ba 30 03 3f 3e 35 bd 40 be
       0.046294194 -0.0013019368 0.1865356 -0.18822177

bias f4 [2]
000000 5a c5 30 3e c3 58 32 3e
       0.17262784 0.17416672
