model/DQN_model_3.pt (torch, 73079 bytes, 6 tensors)

weight f4 [128, 4]
00000000: 4e22 b53d cbc2 99bd 4b8d b93e b043 a43e
00000010: d1c0 2c3e f3e1 703e bd2d 1d3f f7d5 073f
00000020: fc27 273e 3653 2abe d9a8 6a3e dbbe 963d
00000030: a2fa c63e 6e88 803c 4013 19be 5d4d 973c
00000040: ae49 333d ced0 df3d ff9e 1e3f 50af d5be
00000050: a437 d5be 5a5e f5be dbd5 3a3e 3589 10be
00000060: 0698 e3bd 6ac7 8e3e c6ae 01bf fb11 47be
00000070: dd2b bd3e 0371 a53e 8baf ecbe a071 483d
00000080: e004 04bc 9dbc aabd 5767 9a3e ee24 5dbd
00000090: 20af 8b3e 4259 893e a5f1 093f 0836 8f3e
000000a0: 22e6 30bd 1858 a63c ab4c d8bc 7bb5 be3e
000000b0: 1c57 7a3e c208 9cbe c0fa a8be dad4 84be
000000c0: 1503 07be 4b45 f5bd 0048 fc3e 65d0 ba3e
000000d0: d599 cc3d 228a e3be ea62 0a3f 2b2d a73e
000000e0: d2f2 023e 247d a8be e43b c9be 355c 5ebe
000000f0: 3111 22be 3e61 76be 11fa 1dbe 7231 c2bd
00000100: 731f 17bf 8d9d ae3e 0d74 b1be ad90 8c3e
00000110: f142 b1bd 3ef2 aa3e 310b 023f 70c9 e73e
00000120: cd04 72be 0285 24be 01d0 ebbd 96fe be3c
00000130: b075 103d 96e2 7dbd 7902 9f3e fcc7 d9be
00000140: 846d d63d 1e54 0a3e a3f1 d4bd 5e49 873e
00000150: 63d0 edbe 725a a0be 11a8 33be 77f8 ebbe
00000160: 23c0 dc3e 8606 383d b64d 383e 0c1b 6e3e
00000170: 8f7b 8bbe b2a7 dcbe 6921 4d3e f759 293e
00000180: e457 59be 6a2e 223e f6a8 cd3d 59c5 d33e
00000190: ea1f 68be e660 623e 2c24 25bf 5caa 08bf
000001a0: 8ec0 873e 1f06 5b3e 5bec f63e ae1e 9dbe
000001b0: c2b2 b4be 0e1c ec3e 80e4 8bbe b6ac 943e
000001c0: 3caf 22be f35e 20bd 495d 363f 5015 a63e
000001d0: 9eb6 18be e192 0fbe b206 e93e ee6b f93e
000001e0: 706e 0fbe 6db3 503e 0a89 18bf 2e29 07be
000001f0: a736 99be 5285 e33e d2a3 903d 601f 00bf
00000200: 096d 1f3f 6cc8 e03e c117 d2be 64aa d6be
00000210: fe6e 84bd 8096 d3bd 2d78 bcbe ef0a 453e
00000220: febe f6bd f5ac 01ba 7ae6 683e 9635 833d
00000230: 4130 a43e 8b1b 993d 11d9 e93e 6ddc 4a3e
00000240: 7a1e d4be f64d b7be aad7 ad3d c259 45be
00000250: 1011 913e cb18 8c3e 9225 15be 194d 713e
00000260: 279e 49be b99c 343e 5f9e a6b9 fda9 2fbd
00000270: 6ae9 c4bd 53ff 01be 909d b63e 108b 58bc
00000280: 6c96 2d3e a7ef 7fbe e2f3 ef3e c8d2 163d
00000290: 00a0 20b9 80c2 d7bc 907b ba3d 20f1 1bbd
000002a0: 8095 bd3e 09d5 92be c765 d33e 3627 903c
000002b0: bea0 98be 2d5b bf3e d247 f23e 1850 9c3e
000002c0: 74b3 9b3e a384 4abd f4aa a3be 9735 5c3e
000002d0: 3df4 c83d 5c31 0abe 3a44 ae3e b955 d5be
000002e0: 4939 473e 2d5a 9dbe 3a15 993d 1e3f bd3e
000002f0: 8f40 b73e babb 2f3d 79b1 493d 2d68 5abe
00000300: 6249 8a3d 33c7 96be 918c 3c3d e6bd a9be
00000310: ca43 523e fedd f13d 45f0 ccbe 9af0 953e
00000320: e580 803e c1f9 acbd d851 c93e 5b8e 8d3d
00000330: 83b4 cebd 31fd 32be d90c 64be 0654 46be
00000340: 740f 2e3e 9b5f 833d bea7 a33e 7026 ecbd
00000350: a256 273d 9850 023f 7397 36be 2a58 b33e
00000360: 1b9e afbd 0d7c e0be 9349 a83e b554 3bbe
00000370: 689a c43e b5f9 bd3d 340a 06bf 9c57 153e
00000380: f5d0 bf3e b889 143d 1a31 34bf f106 f5be
00000390: 6f95 10be 84fd e33e 9a2c 463e c28c 553e
000003a0: fa03 2fbd 906c 4ebd ab89 e0be 8269 d73e
000003b0: 38b9 183e 7878 423d 01cd 413e 4c00 c6be
000003c0: 7cd2 5abe e7d9 613e 27e9 0e3f 2229 1f3e
000003d0: 2db6 453e 6ac4 913d 5126 e0be 4b71 a63d
000003e0: 4285 74bd 7c57 dfbe fc07 36bf 9eea d7be
000003f0: aa08 56bd 398d 9e3e 2eef 943e 8296 4bbd
0.08844434 -0.07507857 0.3624061 0.3208289 0.16870429 0.23523693 0.61397916 0.5306086
0.16323847 -0.16633305 0.22915973 0.073606215 0.38863093 0.015690055 -0.1494875 0.018469507
0.04377144 0.10928498 0.6196136 -0.41735315 -0.41644013 -0.47923547 0.18245642 -0.1411484
-0.111129805 0.27886516 -0.5065731 -0.19440453 0.36947528 0.32312784 -0.4622768 0.048936486
-0.008057803 -0.083367564 0.30156967 -0.053990297 0.27282047 0.2682591 0.53884345 0.2797091
-0.04318822 0.020305678 -0.026403746 0.37247834 0.24447292 -0.30475432 -0.33003807 -0.25943643
-0.1318477 -0.11976107 0.49273682 0.36487117 0.09990279 -0.44441324 0.5405718 0.32651648
0.12787941 -0.32907975 -0.39303505 -0.21714862 -0.1582687 -0.24060532 -0.15427424 -0.09482087
-0.5903236 0.34104577 -0.34658852 0.2745413 -0.08655346 0.3338794 0.50798327 0.45270872
-0.23634644 -0.16066363 -0.11514283 0.023314755 0.035268486 -0.061983667 0.31056574 -0.42535388
0.10470107 0.1350865 -0.10397651 0.26423162 -0.4644805 -0.31319004 -0.17544581 -0.46088
0.4311534 0.044928096 0.17998394 0.23252505 -0.27242705 -0.4309669 0.20032276 0.16538225
-0.21224934 0.15838018 0.10041992 0.41361502 -0.22668424 0.22107276 -0.6450832 -0.5338495
0.26514095 0.21389054 0.482272 -0.3068747 -0.3529263 0.46115154 -0.2732277 0.29038018
-0.15887159 -0.03915305 0.7123609 0.32438135 -0.14913413 -0.14020874 0.4551292 0.48715156
-0.14006972 0.20380946 -0.59584105 -0.13199303 -0.2992451 0.44437653 0.07062496 -0.50047874
0.6227575 0.4390291 -0.41033748 -0.41926873 -0.064664826 -0.1033144 -0.36810437 0.19242452
-0.120481476 -0.0004946732 0.2274417 0.06406705 0.32068065 0.074759565 0.4567342 0.19810648
-0.41429502 -0.35801667 0.084884 -0.19272521 0.2833333 0.27362666 -0.14565113 0.23564567
-0.19689237 0.1763791 -0.00031779983 -0.042886723 -0.09614833 -0.12695055 0.35667086 -0.013216749
0.16951913 -0.24993764 0.46865755 0.03682211 -0.00015318394 -0.026337862 0.09105599 -0.03807175
0.37028122 -0.28678158 0.41288587 0.017596822 -0.29810137 0.3737425 0.4732042 0.30529857
0.3041035 -0.0494429 -0.31966364 0.21504818 0.0981221 -0.13495392 0.34036428 -0.41666964
0.19455446 -0.3073286 0.07474752 0.36962217 0.35791442 0.04290364 0.049241517 -0.21328802
0.06752278 -0.29448852 0.046032492 -0.33152694 0.20533672 0.1180992 -0.4002706 0.29285127
0.2509834 -0.08446074 0.39320254 0.06911918 -0.10093024 -0.17479397 -0.22270526 -0.1936799
0.16998082 0.0641472 0.31963915 -0.11530769 0.040854104 0.50904226 -0.17831211 0.350282
-0.08575078 -0.43844643 0.32868633 -0.18294032 0.38399053 0.092761435 -0.5235932 0.14584202
0.3746411 0.03626415 -0.70387423 -0.47856858 -0.14119504 0.44529355 0.19352952 0.20854476
-0.0427284 -0.050396502 -0.43855032 0.42072684 0.14914405 0.04747817 0.18925859 -0.38672101
-0.21369356 0.2205578 0.5582451 0.15543035 0.19307776 0.07117541 -0.43779233 0.08127078
-0.059697397 -0.43621433 -0.71105933 -0.42171186 -0.052254356 0.3096712 0.2908873 -0.049704082

bias f4 [128]
00000000: 64c7 38bd 0fc7 82bd 7da1 243f aafc c3bd
00000010: 8b2a 23bd 5126 9fbe be0c 9bbe e385 6ebe
00000020: c440 043f f2f1 093f 073a 1e3f c8ff ddbe
00000030: bd9a e5bd e4c8 77be f09b 223f 6bdc d73e
00000040: 87a2 0b3f dab1 31be f065 0a3f f833 80bd
00000050: f5a8 d23e 4912 233e 6024 aa3e 8f9d 213f
00000060: bb47 22be 4a57 e1bc c77e f53e bdf1 053f
00000070: 6629 e0be f2f2 0abf 3d1c c8be 272a 93bd
00000080: 1011 18be 7e02 e13e d37d db3e 226c 173f
00000090: e1b1 d13e 5b26 843e e4d3 8dbe 4f91 e63e
000000a0: 8997 46be 9edc d0be f1d0 86be 15aa 88bd
000000b0: 90b2 b73e 914e 063f f6d9 203f e1f4 983e
000000c0: 4a0d cf3e 94f5 1a3f de9f 80be 77c1 12be
000000d0: a18b 6b3e 8308 913e ffc0 aa3e ddd1 cf3e
000000e0: a3e6 a9be cdc0 c23e 2b66 893e 4e30 ec3e
000000f0: 583a f33b 4ba9 213f 6280 f7bd 2fa8 0c3f
00000100: 9dd5 fdbd 8949 4d3e 1758 bf3e bb81 9ebe
00000110: ffd2 dabe b151 c3be 3a23 08be 11b9 b43e
00000120: e4e5 bbbb 43d1 98be a613 c13e 5912 03be
00000130: f258 f8be e083 f83c 6e0f 14be f034 aebe
00000140: 1392 183e bc7c 823e 03e7 88be d17e 97be
00000150: 9a49 e7be 0356 8d3e b0a0 793e 6ff7 e43e
00000160: 080f 103f 5d78 0d3f 464d b4be d767 b3be
00000170: e638 d8bc 99ca 0fbe dcea 67be ace2 9bbe
00000180: b218 04bf d216 093f 367e ea3e 9a22 223f
00000190: ba6f a33e ba3b dabd 8685 673e a6c7 1f3f
000001a0: f65f 2dbe a69e cb3a 149d 123e e2cc 9bbe
000001b0: b921 0d3f 5020 973e 238b bc3e 6bca 0d3e
000001c0: b46a 82be 2c8c e03d 1203 df3e 3b12 87be
000001d0: 99c3 9e3d 67f2 b03e c0bb d73e 8dfc c33e
000001e0: a5df 09bf 9fe6 9cbe e313 a43e 31d7 d4be
000001f0: 0f75 a93e 6f13 be3e 5b7a d9be 1bd1 ea3e
-0.04511203 -0.06385624 0.6430891 -0.09569676 -0.039835494 -0.3108392 -0.3028316 -0.23293261
0.51661325 0.53884804 0.6180729 -0.43359208 -0.112111546 -0.24197727 0.6351919 0.42160353
0.5454487 -0.17353001 0.54061794 -0.06259912 0.4114453 0.15924944 0.33230877 0.6313104
-0.15847676 -0.027507443 0.47948286 0.5232199 -0.43781585 -0.54276955 -0.39084044 -0.07185774
-0.14850259 0.43947214 0.42869434 0.5914937 0.40956023 0.25810513 -0.27700722 0.45032737
-0.19393744 -0.40793318 -0.26331285 -0.066730656 0.3587842 0.5246363 0.6283258 0.29874328
0.40439826 0.6053097 -0.2512197 -0.14331613 0.23002483 0.28326806 0.3335037 0.405898
-0.33183774 0.3803772 0.2683576 0.46130604 0.0074227266 0.63148946 -0.12085034 0.5494413
-0.12394259 0.20047583 0.37371895 -0.30958351 -0.42739102 -0.38148263 -0.13294688 0.35297444
-0.005734192 -0.29847154 0.37710303 -0.12799968 -0.4850536 0.03033632 -0.14459011 -0.34024763
0.14899473 0.2548579 -0.26738748 -0.2958894 -0.4517334 0.27604684 0.24377704 0.44720027
0.56272936 0.55261785 -0.35215205 -0.3504016 -0.026394319 -0.14042129 -0.22648185 -0.30446374
-0.5160018 0.53550446 0.45799416 0.6333405 0.31921178 -0.10655923 0.22609529 0.62414014
-0.16931137 0.0015534952 0.14317733 -0.3042975 0.5512958 0.2951684 0.36824903 0.13846748
-0.25472033 0.10964236 0.4355703 -0.26381096 0.07752151 0.34559938 0.4213543 0.38278618
-0.5385688 -0.306447 0.32046422 -0.41570428 0.3309712 0.37124202 -0.42476162 0.4586266

weight f4 [128, 128]
00000000: 6c83 c4bc f101 59bd 48a7 353e cb24 cbbd
00000010: a2f0 983c 2352 90bd bf26 11be 83cc 4dbe
00000020: 0062 623e 9595 3c3e 49ba 0a3e 4064 d43a
00000030: aea1 0dbd 7352 f6bd 6959 663e 1503 333e
00000040: 7ed8 853d a10c cabd 6aef 1e3e a893 393b
00000050: 5068 2e3d 48c1 8a3d 1a51 dc3d c41d c43d
00000060: 6e6f bcbb c7f7 e03b 2408 273c 19b4 613e
00000070: e64e 1cbd 4b72 0cbd 78c3 b5bd 7535 ec3d
00000080: 96d6 87bd 8e24 323e dd4a f83d 30e1 2f3e
00000090: 6144 a13d 07bc a13d daa5 9abd 0286 353e
000000a0: 86ad 76bd 4687 053d 160b a5bd 9f6d 04bd
000000b0: 4b96 163e 6b17 44ba e6f4 133e 468b 0b3e
000000c0: b3c0 2b3e 4d3b 713d c733 43be 3fcc 95bc
000000d0: dbe3 883d 09a1 2c3e 477a 633e faec 9f3c
000000e0: bf0a 18be 5fcc fe3d aba3 003e cec5 e33d
000000f0: c0b9 babd eab5 0e3e a901 1ebe 1fc0 2d3e
00000100: fd94 3fbe 87b9 7f3d 4f5f 853b 6525 b5be
00000110: 9758 aabe f2c0 05be 430e 9dbc 4a56 ce3b
00000120: 84fb bd3d 893e debd a552 413e fc8c a6bd
00000130: 3080 06be 937e 1e3d 51a3 14be 1889 73be
00000140: da86 9b3c 7ce2 0b3e 9b3a 38be 217c 10be
00000150: 48f6 08be 9bd8 553e 0784 143e dfdf 373e
00000160: 520b c13d b405 fb3d a4df 93bd c4a1 3cbe
00000170: cfa3 9abc c2c9 bdbe e9c7 97bd 4586 bbbe
00000180: c00c 77bd 80bb c93d 65a7 0a3e baa0 e93d
00000190: bafd 123d 94fb 27bd 656c a73d e794 4d3e
000001a0: 3c70 8ebe 38cd 0d3d ea89 5a3c dc55 a5bc
000001b0: 7435 103e f281 bb3d 661c 763e badf 2d3d
000001c0: 33be d7bd e3f5 bbbc 4795 f6bb 485a 8abe
000001d0: 5662 6cbd dad0 393d 3e4c a63d f8d3 4a3e
000001e0: 9a05 2cbe 6ead 3bbe da26 103e 8c86 82bd
000001f0: 3104 c13d b6dc f03d 633d cfbe 8b92 2b3d
00000200: ac12 c0bd a4ad d5bd d00b 523e a346 aabc
00000210: eddb 40bd 6f07 d0bd ad26 c4bd 2c5e bbbd
00000220: c051 3e3e 76a9 973d c7fd 4b3d ed87 8c3d
00000230: c3c6 63bd 17e5 9dbd e056 0f3e 0862 013e
00000240: fd5a 453e 8569 1dbe 7fb2 0d3e 95fe bd3d
00000250: 6348 cf3d aad2 873c f801 a83d 24d0 fd3d
00000260: 84a4 2abe 2d82 a9bd 7054 ff3d b160 9f3d
00000270: 839f 4cbe d86b 0ebe a6de 07be 75f6 d93c
00000280: 7e10 8dbd 5f62 253e bee1 533d 25e2 1a3e
00000290: b89c 8b3d 7936 ac3d cb02 5abd 7926 1b3e
000002a0: 44db 3dbd 7079 b2bb 5204 56be c874 21be
000002b0: 7388 353d 84b8 b23b ab58 2e3e 9643 3e3d
000002c0: 7e3e 033e b253 883d b6c2 a1be e8f5 9bbd
000002d0: c027 173e 2dda 053e 8947 ec3d ad43 2c3e
000002e0: cc4c 00be c4c4 a53d 7316 9f3d c168 bc3d
000002f0: 9baf 2cbe f609 033e 7df6 16be d982 3d3e
00000300: d6a1 d8bd 6042 14bb e652 ac3d 7769 79be
00000310: eb56 a7be 16de 5ebe 263f 993d a80c 9a3d
00000320: 720d 27bd 88a7 5a3b e567 543e 2bf7 1bbc
00000330: ebad 42be 2c53 ab3d b2a0 08be fb32 3ebe
00000340: 324d 61bd 9f10 993d 9bb3 62be 885e 70be
00000350: 9bba 04be 760d 2e3e 7ff6 063e ce37 143e
00000360: e637 8e3d 8e58 373e 8c29 9b3c 1376 35be
00000370: 6def 0e3c f85c c4be 8f10 62be a28f 81be
00000380: 9944 aabd 02b9 423e 3cce 393d 7ef0 d43d
00000390: 2a7a 953c aaee de3c 46cc 333e 66ca 033e
000003a0: 6de2 5fbe 70e1 693d 64fc 793d e3e8 ae3d
000003b0: ed98 e73d b761 273e 640e 143e 8072 ac3d
000003c0: 6131 74bc 0fe8 9b3d 31a4 e33c d96f 8ebe
000003d0: 465c b1b8 c0b4 013d 0ee8 f63d f19d da3d
000003e0: 153b 5fbd 3cc9 91bd 1543 453e 316a 87bd
000003f0: 3e87 b53d c6fb 023e 1c2b 9fbe e5b2 153d
-0.023988448 -0.052980367 0.17739594 -0.09919127 0.01866943 -0.07046916 -0.14174937 -0.20097546
0.22107697 0.18416436 0.13547625 0.0016204193 -0.034578018 -0.12027445 0.22495045 0.17481644
0.06535433 -0.0986569 0.15521017 0.002831677 0.04257995 0.06775147 0.107576564 0.0957599
-0.005750588 0.006865475 0.010194812 0.22041358 -0.03816118 -0.034288686 -0.08875173 0.115336336
-0.06632726 0.17396757 0.12123654 0.17175746 0.0787437 0.078971915 -0.07551165 0.17726901
-0.06022408 0.03259971 -0.08058755 -0.032331105 0.1470577 -0.0007480296 0.1444889 0.13627347
0.16772728 0.058894444 -0.1906272 -0.018285869 0.06684085 0.16858305 0.22214614 0.019522179
-0.1484785 0.124413244 0.12562434 0.111217126 -0.0911746 0.13936582 -0.15430321 0.1696782
-0.18709178 0.062432792 0.0040701996 -0.35380092 -0.33270714 -0.13061884 -0.01917184 0.0062969076
0.092764884 -0.108517714 0.18879183 -0.081323594 -0.13134837 0.03869493 -0.14515425 -0.23782766
0.0189852 0.13660616 -0.17991106 -0.14109851 -0.13375199 0.2088341 0.1450349 0.17956494
0.09425987 0.12256947 -0.072203904 -0.18421084 -0.018876938 -0.37067991 -0.07411177 -0.36625877
-0.060314894 0.09850216 0.13540418 0.11407609 0.035886504 -0.041011408 0.081749715 0.20076333
-0.27820003 0.03461954 0.013338545 -0.020182543 0.14082891 0.091556445 0.2403427 0.04244969
-0.105343245 -0.022944396 -0.0075251195 -0.27022004 -0.057710968 0.045365192 0.08120011 0.19807422
-0.16799012 -0.18327877 0.1407732 -0.06373319 0.094246276 0.11760847 -0.40476522 0.0418878
-0.093785614 -0.1043351 0.20512319 -0.020785635 -0.047084738 -0.10157668 -0.09577689 -0.09148821
0.18585873 0.07405369 0.049802568 0.06861863 -0.055609476 -0.07709711 0.13997984 0.12635052
0.1927299 -0.15372284 0.13837622 0.09277073 0.101212285 0.016579945 0.082035005 0.12393215
-0.1666432 -0.08276782 0.12467277 0.07782114 -0.19982724 -0.13908327 -0.13268527 0.026606778
-0.06887911 0.16150807 0.051728956 0.1512533 0.06817001 0.08408827 -0.05322532 0.15151395
-0.046351686 -0.0054466054 -0.20900086 -0.15767205 0.04431958 0.005454125 0.17026012 0.046451174
0.12816808 0.066565886 -0.31593865 -0.07615262 0.14761257 0.13071509 0.11537082 0.16822691
-0.12529296 0.08094171 0.07767954 0.09199668 -0.16863863 0.12796769 -0.14742465 0.18506946
-0.10577743 -0.002262257 0.08414249 -0.24356638 -0.326835 -0.21764407 0.07482748 0.07521945
-0.040784307 0.0033364017 0.20742758 -0.009519379 -0.19011657 0.08365473 -0.1334255 -0.18574135
-0.05500526 0.07473873 -0.22138827 -0.23473561 -0.1296181 0.16997322 0.13179968 0.14474413
0.069442555 0.17904875 0.01894071 -0.17720823 0.008724076 -0.3835218 -0.22076629 -0.25304896
-0.08313865 0.19015887 0.045362696 0.10397433 0.018246729 0.027213413 0.17558393 0.12870178
-0.21863718 0.05709976 0.061031714 0.08540513 0.11308465 0.16345869 0.14458615 0.08420277
-0.014904351 0.07612621 0.027788254 -0.27819708 -8.457205e-05 0.031666517 0.1205598 0.10674656
-0.054499704 -0.071184605 0.19263871 -0.06612051 0.08863686 0.12791356 -0.31087577 0.03654756

bias f4 [128]
00000000: 437e 933d 3067 433d d912 223c e8eb 483e
00000010: a162 11bd 4050 9cbd 7b43 99bd 1f49 14bd
00000020: 52cf 483e b791 d53c fcd3 173e 5c8c a9bd
00000030: 8748 a23d c02c a7bd 11ff 2e3e cfae a9bd
00000040: 689e 183e dbca 8ebb 152e 363d f799 a8bc
00000050: 9491 813d b7e4 72bd b4de 8e3d 6887 adbc
00000060: c60a 413d d092 e43c 0915 98bd 591b 963d
00000070: a42a 1b3e 7f16 153e 059d 99bd 9f1e 073c
00000080: 77cf 463e 40ab d93d 8833 98bd 76c6 f93d
00000090: 30c3 12bd bb90 5c3d c240 1d3e f386 75bd
000000a0: 9e14 3c3e 9f91 d0bb d65d 353e 4932 2cbc
000000b0: 4f0e a7bc 26bb 21bd 0de0 adbc bc5e 1dbe
000000c0: 6d93 3c3e d208 843d 57f4 8abd 8430 413e
000000d0: 2947 ad3c bd42 ca3d 4e49 fa3c 0d71 d03c
000000e0: 1851 0c3e 79a3 793d 97d4 ffbc 2e0d d2bc
000000f0: 175d a1ba 729c 3e3d b81e bebc e8b8 c03d
00000100: 4a1e 8d3d dae5 0b3d 85ec 72bc f875 9c3d
00000110: 0cf9 04be 9258 db3c 4f7b 983d 7baa bbbd
00000120: 4361 3b3d 5286 4d3d 6a46 2a3d 04a3 653d
00000130: f81d 3a3d 3684 9abd 1425 303e 81f7 0b3e
00000140: 2a1b ad3d 0b11 d03c 78fb 8f3c fe9b 1e3e
00000150: 4881 c03c 907f 173e fa3a 363d fbb1 d83d
00000160: 9f08 fb3d f098 c53d a8cf 553e d45a 2b3d
00000170: bf5f 633d 13c7 673d 012a f43d f7b3 3e3e
00000180: 345b 383e 56f8 41bd c77a ce3d ce2c 2cbd
00000190: 0eb2 e6bd 69c8 323d 573f abbc e800 9b3c
000001a0: 556e 0d3e 2128 f03d de5a f9bc 44e1 84bd
000001b0: d81d 88bd 226c ccbc a019 0e3d 43f4 6539
000001c0: 7c24 b0bd dc3f a23d 5013 a2bd 2218 91bd
000001d0: ef15 b43d 644c 433e 59c4 a53d 6c90 21bd
000001e0: 7e1e 85bd 3534 7bbd 10a7 1f3e 2b30 8d3d
000001f0: 2538 293d 589e d7bd 8140 c33d a680 1c3d
0.07201817 0.04770583 0.009892189 0.19621241 -0.03549445 -0.07632494 -0.07483574 -0.036202546
0.19610336 0.026070459 0.1482696 -0.082787246 0.0792399 -0.08162832 0.17089488 -0.08285295
0.14904177 -0.0043576784 0.04447754 -0.020581229 0.06326595 -0.05930015 0.06976071 -0.02118273
0.047129415 0.027902037 -0.07425887 0.07329435 0.15152985 0.14559363 -0.07500652 0.008247047
0.19415079 0.106283665 -0.07431704 0.121960565 -0.035830677 0.053848963 0.15356734 -0.05994315
0.1836724 -0.0063650156 0.17711577 -0.010510036 -0.020392565 -0.03948512 -0.021225 -0.1536817
0.18415613 0.06446995 -0.067848854 0.18866163 0.021152096 0.098760106 0.030552533 0.025444532
0.1370281 0.060946915 -0.0312293 -0.02564105 -0.0012311068 0.046535917 -0.023208007 0.09410268
0.06890543 0.03415475 -0.014826898 0.07639688 -0.12985629 0.026775632 0.07445394 -0.09163376
0.045747053 0.050176926 0.04157106 0.056063667 0.045438737 -0.075447485 0.17201644 0.13668634
0.08452447 0.025398752 0.017575964 0.15489194 0.023499146 0.14794755 0.04448984 0.10580822
0.12257504 0.09648311 0.20879996 0.041834667 0.055511232 0.056586336 0.11922074 0.18623339
0.18003541 -0.047355972 0.10082012 -0.042034917 -0.1126443 0.043648157 -0.020904226 0.01892133
0.1381162 0.11726404 -0.030438837 -0.064882785 -0.06646317 -0.024953905 0.034692407 0.00021930136
-0.08600709 0.079223365 -0.0791384 -0.07084681 0.08793246 0.1907211 0.08094091 -0.039444372
-0.064999565 -0.061329085 0.15591073 0.06893953 0.04131331 -0.105282485 0.095337875 0.038208626

weight f4 [2, 128]
00000000: 71a8 143e e10c 893e 9bfd a3bd 713c 3c3e
00000010: 182c 01bd 5069 ce3c 0298 dbbc eb5b 90be
00000020: 3ebc df3d 1be7 88be 6c0c 6c3e 7401 19be
00000030: ad7c ee3d 9e29 4ebe 4614 003e 9cd3 b43c
00000040: 2e32 043e 8688 51be 4bd0 583e 3ad0 87be
00000050: a1fb 4f3e 3069 b73c 2bd2 663e 78be 41be
00000060: d231 783e b844 65be 160d 023d 400b 7e3e
00000070: 66da 4c3e cdda 693e 81a6 8f3d 9c6c 4f3e
00000080: 272c 423e 6f5e 623d a9b0 f8bd f24d 813e
00000090: a629 00bf 12df 1a3e 8c46 143e 2885 c13d
000000a0: 4a17 233e 82ed 80be 6a76 4d3e f048 93bd
000000b0: a206 18be 3d42 1ebe 32f4 893d c126 86be
000000c0: cf73 5a3e 085f 49bc f4a2 083d 3574 503e
000000d0: 5a0f 5cbd 00a3 663e 29ed c03c 6e8e 86bd
000000e0: de1a 6a3d cae8 2d3e 8495 f7be 4fa5 91be
000000f0: 2761 45be 5135 fd3c 4676 2c3d f7ea 453e
00000100: 3348 5c3e eb19 72bc cfed c8ba 35c6 7ebd
00000110: 9fc3 52be 00de 51be 79e1 5d3e d362 71be
00000120: 7134 663e 594d 003e 969f 1f3d 39cc 34be
00000130: ca72 1b3e 7ea4 e7bc 1f78 663e cbf6 783e
00000140: 2315 4bbd 2dbc 153d ee8f 373c ed65 373e
00000150: f0dd b2bc 9ca4 0d3e 5c75 9ebd aea5 193e
00000160: 26c7 843e d0b4 293e b576 373e 26e5 8cbd
00000170: 6590 0d3e a3ce 8abc c8b5 493e a575 663e
00000180: 4343 b83d d24f 59be 759c 383e d818 9b3c
00000190: 7f0f 8bbe 8ae4 62bd f977 72be 5af0 613d
000001a0: ff97 083e b8c9 663e 4774 6f3d 6000 343b
000001b0: b773 a63d e38b 553d 4ea9 ecbc b1a8 8bbe
000001c0: 183f 89be 3410 0d3e b01b a1bb c7af 15bd
000001d0: 1163 213e 99a0 6e3e 38bc 183e 3f5b 8a3d
000001e0: fd75 97bd 6c19 103d 7078 6e3e 072b 1d3e
000001f0: 3848 ea3b f095 2fbe e7ab 243e 4d28 de3b
00000200: 5de9 4b3e 250d 693e e0c1 fcbd fce7 013e
00000210: 8b4a 263e a521 2c3d b1fa 14bc 1979 cbbe
00000220: 5bc1 293e f82c 99be a7e4 623e a855 373e
00000230: b68d 683e eabc 47be cfe6 553e 6b1f 9b3c
00000240: e3c8 1c3e 8972 24be bc86 6e3e 710d f8bd
00000250: a54c 1b3e 2b46 823d 780a 0a3e 604a 43be
00000260: 1977 493e e684 4cbe 9d9a 31bd 275c 1e3e
00000270: 3f1d 493e 50b2 6f3e 59d3 963d 8884 0d3e
00000280: cdc3 2a3e 8c39 613e 9d0b de3c 3483 073e
00000290: 337e 87be 6183 013e 3c04 2f3e 25e9 09be
000002a0: 6e78 523e 1232 dbbe 895b 363e 21c9 903d
000002b0: e42d 173e deb2 83be cf1b f1bd 1630 f9bd
000002c0: 674f 513e 50fd 913d 5da5 9dbd 150e 463e
000002d0: bb5d 7c3d 0d6a 4c3e 525a 88bd b7ff 05bc
000002e0: 1889 553e e576 373e 4766 c0be d4ae 8cbe
000002f0: 0773 c43d bb94 b8bd 90dd ccbc d863 483e
00000300: d545 293e a632 a6bd 8778 933d 9587 163c
00000310: fc0a 7cbe c884 05be 1aad 603e 28bc b0bd
00000320: 182d 5d3e 307f 313e 8007 753b 1ca4 3a3e
00000330: d2d4 403e 90b4 2bbd b7f1 d73d 60b7 5b3e
00000340: 05d2 5f3c c51d 58bd cf00 95bd a6c9 3d3e
00000350: de46 0fbd 3b4a 643e 65b6 9d3d b593 cbbd
00000360: 9932 5a3e a992 a63d 42eb 243e 5f2e 5dbd
00000370: f3c2 663e 3239 51bd 9656 cd3d 132f 563e
00000380: c1f0 413e 58cf 67be af18 213e 48aa acbc
00000390: e9d4 9dbe 9834 453d eaf7 b0be f0c5 eebb
000003a0: 72fe 3e3e c07d b23d 9717 25be 503b fb3c
000003b0: 8387 9cbd 3dd9 1ebe 86c7 773d 2e41 abbe
000003c0: 7817 2fbe 6f5f 4b3e 78ab db3c 60c7 833d
000003d0: ef2a 4f3e 9735 553e 8770 cf3d 7a88 7ebd
000003e0: 45ea 8f3d eaec 653d ce6c 073e ee8b af3b
000003f0: c7df 08be 0496 9fbd 5fe6 453d ef2c f0bd
0.1451738 0.26767638 -0.08007356 0.18382432 -0.03153619 0.025196701 -0.026805881 -0.28195128
0.10924576 -0.2673882 0.23051614 -0.1494196 0.11644874 -0.20133063 0.12507734 0.02207356
0.12909767 -0.20462236 0.21173207 -0.26526052 0.20310833 0.022389024 0.2254111 -0.18920314
0.24237755 -0.22389495 0.03175076 0.24808979 0.20005187 0.22837372 0.0701418 0.20256275
0.18962155 0.05526584 -0.1214307 0.2525478 -0.5006355 0.15124157 0.14480036 0.09449226
0.15926853 -0.25181204 0.20064703 -0.07191646 -0.1484628 -0.15454955 0.0673603 -0.26201442
0.2133324 -0.012290724 0.03335853 0.2035683 -0.053725578 0.22523117 0.023550587 -0.06570135
0.05715453 0.16983333 -0.4835626 -0.28446433 -0.19275342 0.030909212 0.04210498 0.19327913
0.21511917 -0.014776687 -0.0015329662 -0.062200744 -0.20582436 -0.20494843 0.21668042 -0.23572855
0.22480942 0.12529506 0.038970552 -0.1765603 0.15180507 -0.028276678 0.2250676 0.24312894
-0.049580704 0.03655641 0.011203749 0.17909975 -0.021834344 0.13832325 -0.07737228 0.15004608
0.25933188 0.1657288 0.17916377 -0.06879644 0.13824613 -0.016944235 0.1969825 0.22505815
0.08997204 -0.21221855 0.18028434 0.018932745 -0.2716026 -0.055393733 -0.23678578 0.055160858
0.13339232 0.22537887 0.0584605 0.0027466044 0.081275396 0.05213536 -0.028889325 -0.2727714
-0.2680595 0.13775712 -0.0049166307 -0.036544587 0.15760447 0.2330345 0.1491555 0.06755685
-0.07395551 0.035180494 0.23288131 0.15348445 0.0071497224 -0.1714704 0.160812 0.0067797066
0.1991324 0.2275892 -0.12341666 0.12686151 0.16239373 0.042024273 -0.009092973 -0.39740828
0.16577666 -0.2991712 0.22157536 0.17903769 0.22710308 -0.19505659 0.20888828 0.01893588
0.15311007 -0.16059317 0.23293585 -0.12111939 0.15165956 0.0636104 0.13480556 -0.1907134
0.19674338 -0.19972572 -0.04336034 0.15464841 0.19640063 0.23407865 0.0736453 0.13820088
0.16676255 0.21994609 0.027105147 0.13233644 -0.2646347 0.12647773 0.17091459 -0.13467844
0.20553753 -0.42811638 0.17808355 0.07069612 0.147636 -0.25722402 -0.11772882 -0.12167375
0.20440446 0.07128394 -0.07697556 0.1934131 0.061612826 0.1996233 -0.06657852 -0.008178643
0.20853078 0.17916448 -0.3757803 -0.27477133 0.09592252 -0.09012743 -0.025007993 0.19569337
0.16530545 -0.08115129 0.07200723 0.009187599 -0.24613565 -0.13038933 0.21941033 -0.08629638
0.21599233 0.17333674 0.0037388504 0.18226665 0.18831185 -0.041920245 0.1054415 0.21456671
0.013660912 -0.052762765 -0.07275545 0.18533954 -0.034979694 0.22293942 0.077008046 -0.09940282
0.21308364 0.08133442 0.16105369 -0.0539993 0.22535305 -0.051079936 0.100262806 0.20916395
0.18939497 -0.22637689 0.15732072 -0.02107729 -0.308265 0.04814586 -0.34564143 -0.0072867796
0.1865175 0.08715391 -0.1612228 0.03066793 -0.07643034 -0.15512557 0.060493015 -0.33448166
-0.17098796 0.19860624 0.026815161 0.06434512 0.20231222 0.20821224 0.10128885 -0.062141873
0.07027105 0.056134142 0.132251 0.005357257 -0.13366614 -0.07792285 0.048315402 -0.117273204

bias f4 [2]
00000000: b345 a53d 594a 1d3e
0.08069935 0.15360393
