model/DQN_model_4.pt (torch, 73079 bytes, 6 tensors)

weight f4 [128, 4]
000000 17 91 fc bc ff da c7 bb 52 cd 61 3e 6a cb e7 3c
       -0.030830903 -0.0060991044 0.2205098 0.028295238
000010 cf bd 6a be 1b 80 d8 3e 0b 9b 4e be 5e 54 01 3e
       -0.22923969 0.42285237 -0.20176332 0.1262984
000020 d1 4d 98 be e2 82 13 be a4 ed 05 bf f6 1c 37 3d
       -0.2974687 -0.14405397 -0.52315736 0.044705354
000030 85 68 82 be 1c 5c 44 3e ea f4 97 3e a9 3c ce 3c
       -0.25470367 0.19175762 0.29679042 0.02517541
000040 a0 98 94 be de 0c 20 be 55 c0 9b bd 5c 22 4c be
       -0.29022694 -0.15629908 -0.07605044 -0.19934982
000050 62 c7 e6 be ce c1 ea 3e 0f c8 96 3e b1 ab 15 3e
       -0.45073992 0.45850986 0.29449508 0.14616276
000060 3b 04 f9 3d 86 a0 a2 bd 5c 40 68 3e 15 92 d3 3c
       0.1215901 -0.07940774 0.22680801 0.025826493
000070 e5 74 ad be b3 11 65 bc 39 87 ba 3e b8 99 ac 3d
       -0.33878246 -0.013981271 0.36431292 0.08427757
000080 06 f6 4a 3d 56 a1 94 3e 5b 1d a4 be 61 91 68 3e
       0.049551032 0.2902934 -0.32053646 0.22711708
000090 f1 1a 0d bd c3 30 40 bd 81 63 80 be 9d 62 99 be
       -0.03444952 -0.046921503 -0.25075915 -0.29958048
0000a0 ff af 02 3b 2c 54 e6 be 41 7b b4 be 2c 2b 75 be
       0.0019941328 -0.44986093 -0.35250285 -0.2394225
0000b0 70 55 aa 3e 4e 94 e0 bd 51 6b 96 bb b1 ee f3 bd
       0.3326831 -0.10965787 -0.00459043 -0.11910761
0000c0 4b 0e 0b bf c0 7d a9 be e4 36 1d 3f c5 39 2a 3d
       -0.54318684 -0.33103752 0.6141188 0.041559
0000d0 ea 24 83 3e 7a 81 55 be 0b 56 9f be d1 f1 9a 3e
       0.256141 -0.20850173 -0.31120333 0.30262616
0000e0 0a 74 90 be 91 46 d2 be 0a 1f 8c 3e 7e 2e 9d 3e
       -0.2821353 -0.41069463 0.2736743 0.30699533
0000f0 7b ec a8 bd c3 f9 46 3c 04 7f 16 bf 9f 65 d7 be
       -0.0824823 0.012144509 -0.5878756 -0.42069718
000100 e8 8e ae 3d 64 da 96 3e 81 5f 16 bf 8a c4 23 3d
       0.08523351 0.29463494 -0.5873948 0.039982356
000110 78 d5 aa 3e 1c 3e 9c be 6b 5a c1 be 70 4a 6e be
       0.3336599 -0.30516136 -0.37764296 -0.23270583
000120 eb 16 13 bf e7 82 5b 3e 2f 09 14 3f 7e db fb 3e
       -0.57456845 0.21436654 0.57826513 0.49190897
000130 57 5d fa be c5 51 ff 3e 6a cb e7 3e 36 86 99 3b
       -0.48899338 0.49867073 0.4527238 0.0046851886
000140 02 5f e0 3e 1c 55 c0 3e f3 13 ae 3e 9e 95 4f 3e
       0.43822485 0.37564933 0.33999595 0.20271918
000150 f3 6b 3a bc 94 38 5c 3e 30 ef 15 bf 92 a0 02 bf
       -0.011378276 0.21505958 -0.58568096 -0.5102626
000160 62 a3 54 3e fb 9d 4a be 20 c3 3e 3e 24 e0 9a be
       0.2076545 -0.19786827 0.18629122 -0.3024913
000170 9c 86 d4 be 5c a7 92 3e 73 68 00 3d 5c a6 a4 be
       -0.4150895 0.2864331 0.03134961 -0.32158172
000180 5e ad 00 3f ab 98 e0 be 34 26 71 3d bc 28 e4 3c
       0.5026454 -0.43866476 0.058874324 0.027851455
000190 b6 c1 03 3f 46 b9 a0 3e bf d3 1d bf 9e 00 b8 be
       0.51467454 0.31391352 -0.61651224 -0.3593797
0001a0 85 b3 a5 bd 12 07 8c 3e 82 44 bd 3e c2 65 74 be
       -0.08090881 0.27349144 0.3696633 -0.23866943
0001b0 d2 da ab 3d 9f 4d ae 3d 05 92 08 be 82 6f e0 be
       0.08391346 0.08510899 -0.13336952 -0.43835074
0001c0 ca 85 ac 3e a1 d1 d6 be bc 51 24 bf c6 3b 1e be
       0.33695823 -0.4195681 -0.64187217 -0.1545249
0001d0 62 8e 5b be c4 c3 14 3e a8 71 b3 3e 90 b0 be 3e
       -0.21441033 0.14527804 0.3504765 0.37244081
0001e0 c5 08 1f bf 4d f0 15 bd 79 3a 2b 3f 0e 9b c1 bc
       -0.62122756 -0.03660612 0.668861 -0.023633506
0001f0 a0 58 ad be 2c b8 cd be 61 ff 83 3e 0e 2c a6 3e
       -0.33856678 -0.40179574 0.25780776 0.32455486
000200 6d 21 5a bd 9b 5e 0c 3e 08 39 03 bf da db 38 be
       -0.053254534 0.13707964 -0.512589 -0.18052617
000210 b1 d3 bd 3e db c1 19 bc 2d 16 81 bd 09 5b 60 be
       0.3707557 -0.009384598 -0.06303058 -0.21909727
000220 db 04 72 3e d7 6d c6 3d 73 84 ae 3e 80 b5 03 3e
       0.23634665 0.09688919 0.34085426 0.12862206
000230 6c c0 29 be 0a 56 4a be e2 77 05 bd 59 03 90 bd
       -0.1657731 -0.19759384 -0.032585032 -0.070318885
000240 27 34 f7 3e 3a 9d 6d be fd eb 3a bf 38 fb 47 bc
       0.48281977 -0.23204508 -0.7301634 -0.012205891
000250 36 53 3c bd 4c cc 9f 3e 14 33 f8 be 7c f6 4d 3e
       -0.045977794 0.31210554 -0.4847647 0.20113558
000260 6e 14 fa be ae fc 37 3e 47 13 2b 3f da eb a2 be
       -0.48843712 0.17967483 0.6682629 -0.31820565
000270 64 ad 1b 3f 88 e7 23 be 5f a1 3d bf 56 b4 c4 be
       0.6081145 -0.16006291 -0.7407436 -0.38418835
000280 7f 0a b9 3d e6 ee e7 3d cf 62 ec 3d cc 7f 03 be
       0.09035205 0.11324863 0.11542284 -0.1284172
000290 6d 15 04 3d 4b 5a 8c be b8 be cf 3e 00 4d 1e be
       0.032246996 -0.27412638 0.40575194 -0.1545906
0002a0 8e 3b de be c0 c8 1d be a3 98 2e be e0 28 d4 3e
       -0.43404812 -0.15408611 -0.17050414 0.41437435
0002b0 43 06 d2 be 6e 20 d2 bd 5d 3b 0f bf bd bc 18 bd
       -0.41020402 -0.10260092 -0.55949956 -0.03728937
0002c0 73 21 24 be 80 40 8c be 9d a1 1e 3e 87 75 25 3e
       -0.16028385 -0.2739296 0.15491338 0.16158114
0002d0 9b ed 87 be 56 37 f6 3e c1 df 59 3e 42 2e 42 3c
       -0.26548466 0.48089093 0.21276762 0.011851849
0002e0 61 9a a8 bd 53 f5 f1 bd be c9 d0 3e fe 1b 36 3d
       -0.082325704 -0.1181437 0.40778917 0.04446029
0002f0 14 e4 f7 bd a0 1a 3c be 04 2c 8d 3e 32 d9 47 3e
       -0.12104049 -0.18369532 0.27572644 0.19516447
000300 55 12 fa 3d 65 1e 93 3e 68 0d 96 be ef 14 17 bd
       0.12210528 0.28734127 -0.29307103 -0.0368852
000310 9e 09 c5 be f6 27 69 ba 33 2a e2 3d 0e a5 ff 3d
       -0.384839 -0.0008894199 0.11043205 0.124826536
000320 1d f3 c3 3d 37 6f 43 3d a0 ee b7 3e a6 29 39 3e
       0.095678546 0.047713485 0.35924244 0.18082294
000330 e0 93 c3 3c d7 6c ac be 59 f8 3e 3e c2 0b bd 3d
       0.023874223 -0.33676788 0.18649425 0.09230758
000340 27 aa 7f 3d ac 73 1a bc 4e 1a b0 3e a2 84 21 be
       0.06241813 -0.009426992 0.3439507 -0.15773252
000350 ff 97 60 be 40 d8 85 3e 66 1e a7 be 0e 7b 35 3e
       -0.21932982 0.26141548 -0.3264038 0.17722723
000360 2e 14 16 3f a8 13 3f be ed c6 23 3e bd 3d cc be
       0.5862454 -0.18659842 0.15993853 -0.39890853
000370 dd 1b 7e bd 4c f9 83 be 97 ac 37 3f 36 73 e5 3e
       -0.06203829 -0.25776136 0.71747726 0.4481446
000380 5a 9c ac 3d 09 19 b5 3e 76 7b e6 bd 3b ce 35 3e
       0.08428259 0.35370663 -0.11254017 0.17754452
000390 18 f6 ca be 97 f0 aa bd 41 14 ed bd 95 73 09 bf
       -0.3964088 -0.0834667 -0.11576129 -0.5369199
0003a0 c3 14 06 3e d1 a8 bb 3d 69 16 3c 3f ec 55 b0 be
       0.13093857 0.091630585 0.73471695 -0.34440553
0003b0 c2 22 c1 be 4c d5 d6 3d c9 91 46 bd ad f1 2c be
       -0.3772183 0.10489902 -0.048478875 -0.16889067
0003c0 57 98 e3 3e e7 3d 7d 3e 10 bd 7e be a7 85 a5 be
       0.44452164 0.24730645 -0.24876809 -0.3232853
0003d0 51 2b f5 3e b1 34 e9 be 46 2b 2d be eb 98 d3 be
       0.4788461 -0.45548013 -0.16911039 -0.41327605
0003e0 d8 97 a5 3d f4 42 c9 3e cd d1 fa 3e 50 4f cd 3e
       0.080856025 0.39308894 0.4898819 0.40099573
0003f0 f8 1a 8c 3e b2 6f 0e be dc 9f ff be 75 ca ca 3e
       0.27364326 -0.13909796 -0.4992665 0.39607587

bias f4 [128]
000000 d4 bf 2c 3e b9 0a d1 3e 38 ad 02 3f 68 c5 13 3f
       0.16870052 0.40828493 0.5104556 0.57723093
000010 1b 41 e4 3e a3 89 e9 be 4b 60 86 3e 1d d1 10 3f
       0.44580922 -0.4561282 0.2624534 0.5656908
000020 0b e8 7a 3e c0 69 bb 3e 43 c9 92 3e d3 a6 c5 be
       0.2450258 0.36604118 0.28669176 -0.3860384
000030 87 7c 1d be 8b a6 d5 3e 1b 3f a9 3e 7e 93 e8 be
       -0.15379535 0.41728625 0.33055958 -0.45425028
000040 03 1d 0d be 3f f6 93 bc 52 65 e0 be 5e 9d bc 3e
       -0.13780598 -0.018061755 -0.438273 0.36838812
000050 82 4e ce 3e 8f de b9 be de 63 6c 3e bc 46 15 3f
       0.40294272 -0.3630261 0.23084971 0.5831106
000060 ba 5d ff bc 00 14 3f be f4 6f f3 3d 9e 45 20 be
       -0.031172622 -0.18659973 0.11886588 -0.15651557
000070 24 87 0e 3e f1 06 39 3a 17 f6 0e be af 21 c4 be
       0.1391874 0.00070582243 -0.13961063 -0.3830695
000080 e6 ab 44 be 15 7c 09 3f 73 fb 9b be 27 d5 a6 3e
       -0.19206199 0.5370496 -0.30465278 0.32584497
000090 e4 80 89 3e d7 8a 13 3f 66 6b 6f 3d 12 9f c4 be
       0.26856148 0.5763373 0.058452033 -0.3840261
0000a0 09 24 18 3f 8a 0b af 3e d4 23 3e be a0 8d 5c 3e
       0.59429985 0.3418849 -0.18568355 0.215384
0000b0 2c 5c 0c 3f ff 4d 03 3f 54 a5 bd bd d5 18 12 be
       0.54828143 0.5129089 -0.092600495 -0.14267285
0000c0 95 4a 72 bd cf f8 70 be 93 11 18 3f 00 09 98 be
       -0.05915316 -0.23532413 0.59401816 -0.29694366
0000d0 8a d0 92 3e ad ec 1b 3f 63 7b 9e be fa a3 1b be
       0.28674728 0.60908014 -0.30953512 -0.15199271
0000e0 d3 9e e9 3e 02 f5 a2 bd 0b 60 64 bd c6 ca ff 3e
       0.45628986 -0.07956888 -0.055755656 0.4995939
0000f0 a0 38 d9 be 06 2c 0b 3f 65 30 eb bd 4b 80 18 3f
       -0.42426014 0.5436405 -0.1148384 0.5957076
000100 54 c9 1e bd 68 b5 99 3e e4 9b f3 be 88 0e 82 3e
       -0.03876622 0.30021214 -0.47579873 0.2540171
000110 d4 af db 3e 7d d1 f7 bd 6b 33 1d 3e a7 59 02 bf
       0.42907584 -0.121005036 0.15351646 -0.5091805
000120 26 ec 38 3e 7d 01 af 3e 01 bc 13 3f 51 33 69 3e
       0.18058833 0.34180823 0.57708746 0.22773482
000130 e0 12 ee be ed 40 f2 3e af fe 64 3e 56 48 f0 be
       -0.46498775 0.4731516 0.22362779 -0.46930188
000140 89 f6 fc 3e 05 f1 e6 be 3d 33 c7 3e 80 23 9c 3e
       0.4940684 -0.45105758 0.3890628 0.30495834
000150 1e 2f fe bd d5 35 e4 3e b8 1e e5 3e 12 ca 09 3e
       -0.12411331 0.4457232 0.4475 0.1345599
000160 c9 fd 49 be 8e 60 57 3e 19 87 ad be 6b 7e 04 bf
       -0.19725718 0.21032926 -0.33892134 -0.517554
000170 60 3d 66 be 0e d1 6c be 0a ec a9 be 26 8f 01 be
       -0.2248435 -0.23126623 -0.33187896 -0.12652263
000180 6e ce c2 3e a4 ac 0d 3f be 48 14 3e 76 df a0 be
       0.38048118 0.55341554 0.14480874 -0.31420487
000190 48 23 94 bd 16 ac 37 be 3a a1 b3 be 2e d6 0e 3f
       -0.07233292 -0.1793674 -0.35083944 0.5579556
0001a0 d1 6c 18 3f df 5a 03 3f 77 70 04 3f 26 40 71 3e
       0.5954104 0.51310533 0.5173411 0.23559627
0001b0 57 71 ea be 43 cf 62 be 7e 80 33 3e 8a ec df be
       -0.45789596 -0.22149377 0.17529485 -0.43735152
0001c0 a9 2d 5c be 73 e0 4f be db 0a a6 3e a0 9e a9 3e
       -0.21501793 -0.20300464 0.32430157 0.33128834
0001d0 3c 96 11 3f 26 37 18 3f e2 9d 01 3d ce 54 a3 3e
       0.56869864 0.5945915 0.03164471 0.31900638
0001e0 40 c9 a3 be c0 28 d2 be 5f b5 af 3e 50 28 f3 3e
       -0.3198948 -0.41046715 0.34318063 0.47491693
0001f0 1d 84 e8 3e b5 93 14 3f 2f e8 70 be 64 14 1b be
       0.45413294 0.58037883 -0.23526071 -0.15144497

weight f4 [128, 128]
000000 e6 b5 04 3d f0 86 95 bc 91 c1 b8 3c d5 b6 69 bd
       0.032400034 -0.01825282 0.022553237 -0.057059128
000010 ae ab d8 bc a5 3e 8f bd db 43 82 bd 7b 8b 9e bd
       -0.02644905 -0.0699437 -0.06360599 -0.077414475
000020 73 be 29 bd 66 66 6f 3d ac 7f 81 3d ec 0a e6 bc
       -0.041441392 0.058447264 0.063231796 -0.02808138
000030 58 fe 52 3d 63 bc e2 3c 33 2b 39 bc aa 93 6d 3d
       0.051512092 0.02767772 -0.011301803 0.05800215
000040 f9 b3 a1 3d 6c da 7b 3d 97 52 91 bc b9 4d 61 bd
       0.07895655 0.0614876 -0.017739577 -0.055005763
000050 df 3e 3f bd 38 80 60 3c 59 38 14 3d 90 a5 b8 bd
       -0.046690818 0.013702445 0.03618655 -0.090159535
000060 51 97 2a bc 65 fc 43 bd a4 43 13 bd b0 79 0d bc
       -0.010412053 -0.047848124 -0.03595318 -0.00863497
000070 5f d3 b4 bb 7e 3f 8a 3c 60 88 a4 bb 4c 83 51 bd
       -0.0055183615 0.016875979 -0.00502114 -0.051150605
000080 23 54 06 bd 73 08 d0 bd 30 bf d8 3b 8d ac bd bd
       -0.032795083 -0.101578616 0.006614588 -0.09261427
000090 85 e4 8b 3d 24 5c 2e bd b0 5b aa bd ab 4b 64 bd
       0.06830696 -0.04256834 -0.08318269 -0.055736225
0000a0 a2 8a a3 bd f8 54 87 3c 9d fc ee 3c 98 26 94 bd
       -0.079854265 0.016520008 0.02917319 -0.07233924
0000b0 92 66 95 bd 9f b6 d9 3a 1f 17 8c bd 6e 50 4f bd
       -0.07294954 0.0016610211 -0.068403475 -0.050613813
0000c0 3e d0 1f 3d 54 45 38 bb 27 53 a3 3d 82 ae 8b 3c
       0.039016955 -0.0028117495 0.079748444 0.017050985
0000d0 76 56 7f bc af 11 d0 3c 84 2e b4 bc 1a 6d 80 3d
       -0.015584579 0.025399057 -0.021994837 0.062708095
0000e0 61 6a c4 3c bc 5f b2 bd 8e 02 95 bd 33 02 4b 3c
       0.023976507 -0.08709666 -0.07275878 0.012390661
0000f0 40 09 ad 3c 42 02 84 3d 99 e7 19 3d 88 ce 08 bd
       0.021122575 0.06445743 0.037574384 -0.03340009
000100 00 19 62 ba 86 a4 b6 bc 5c 1f 65 3d d4 ed 13 bd
       -0.0008624941 -0.022295248 0.05593811 -0.036115482
000110 77 1f 9d bd 0d 11 18 3d e4 8b 5a bc 30 ea a3 3b
       -0.07672017 0.037125636 -0.013339017 0.0050022826
000120 b3 95 3b bd c8 26 86 ba 61 2f 85 bb 56 36 9d bd
       -0.04579706 -0.0010234946 -0.004064486 -0.076763794
000130 45 c1 55 bd 9a 88 57 bd ab 70 07 bd d4 91 08 3d
       -0.05218627 -0.052620508 -0.033066433 0.033342198
000140 c0 d1 e5 bc 82 5e 9b bd 04 71 4b 3d 38 2b 8f 3c
       -0.028054118 -0.07586385 0.049668327 0.017476663
000150 b8 16 0a 3d 2d bd bf 3b b1 a4 07 3d bd f8 0c 3d
       0.033713073 0.005851409 0.033116046 0.034416903
000160 82 af 74 bd c0 d1 94 3b 7d 28 a4 bd f3 72 46 bd
       -0.05973769 0.0045416057 -0.08015535 -0.048449468
000170 15 16 81 bd a9 6d b1 bd 1e 7f 29 3d 23 e2 09 3d
       -0.0630304 -0.08663494 0.041380994 0.033662926
000180 39 98 5c bd 49 2c 00 bd 64 05 19 3d 16 1e 1f 3d
       -0.05385611 -0.031292234 0.037358657 0.03884705
000190 74 f7 4d 3d 19 c1 a1 bd fd 32 85 3d 5a fd 06 bd
       0.050284818 -0.078981586 0.06503866 -0.03295646
0001a0 3e 65 a0 bd 80 b7 82 bd 7b ef 88 3d 56 d3 82 3d
       -0.078318104 -0.06382656 0.06686302 0.063879654
0001b0 d8 b6 14 bc 6d 5a 7b bd 40 cc 3e bc 3d da b1 bd
       -0.0090767965 -0.061365534 -0.011645377 -0.08684204
0001c0 16 b0 77 3d 21 28 5b bd f5 b4 d5 bb f2 d0 83 bd
       0.060470663 -0.053505067 -0.006521816 -0.064363375
0001d0 00 02 e6 bc 69 94 59 bd 83 a0 89 3d c1 74 a0 3d
       -0.028077126 -0.05312005 0.06720068 0.07834769
0001e0 37 9d 9c 3d aa 2a 6f 3d d3 d5 6f 3d 66 c6 00 3d
       0.07647174 0.058390297 0.058553528 0.031439207
0001f0 8b 75 8b bc 56 44 10 3d 47 23 a5 bd 27 19 9a bd
       -0.017023822 0.03522142 -0.08063369 -0.07524329
000200 bd 62 42 bd 10 e2 82 3c 59 0f 15 bd 19 ff 6c bd
       -0.047457445 0.015976936 -0.03639159 -0.057860468
000210 3b 05 49 bd 16 19 32 bd e0 4d 1a 3b a8 8c 33 bd
       -0.049077254 -0.043480955 0.0023544952 -0.043835312
000220 d1 c5 45 bd 84 da bd 3c be ef 1b 3d 0c 95 8e bd
       -0.048284356 0.023175485 0.038070433 -0.06962022
000230 0a 79 1b bd 8e 69 62 bd df 3c 96 3d bc 6f b7 bc
       -0.03795723 -0.055276446 0.07335829 -0.022392146
000240 20 c6 16 bb 30 ee 4e 3c 13 69 b2 bd 2f 47 0d bd
       -0.0023006275 0.0126300305 -0.087114476 -0.034491714
000250 a0 80 3c bc be 61 a5 bd 42 ee 57 3d 1a c4 ee bc
       -0.011505276 -0.080752835 0.052717455 -0.029146243
000260 30 e3 10 bc c3 86 3f bd d0 92 c3 bb 5a b2 71 bd
       -0.008843228 -0.04675938 -0.005968429 -0.05900798
000270 2c f4 09 bd 04 b0 74 bd 4d 96 85 3d f3 b6 8d 3d
       -0.033680126 -0.059738174 0.06522808 0.069196604
000280 f7 2e aa 3d da 98 6d bd 36 67 92 bd b8 fa 4a bc
       0.08309739 -0.0580071 -0.07148592 -0.012388878
000290 b8 10 a9 bd 94 6c e0 3c 47 75 55 bd a0 82 df 3b
       -0.08255142 0.027395524 -0.052113798 0.0068209916
0002a0 98 3b 86 bd 8b 7d 9d 3d 91 c6 91 3d 60 4b 6d bc
       -0.06554335 0.07689961 0.07117952 -0.014483303
0002b0 17 cb 27 bd ad 3e 93 3d 20 7e 57 bb b8 ef 26 bc
       -0.040965166 0.07189689 -0.0032881573 -0.010188989
0002c0 b4 9e c0 bc e3 e8 81 3d af cf b2 3d 39 8f 4a bd
       -0.023513176 0.06343248 0.08731019 -0.049452994
0002d0 da 6c 2a bd 20 79 c4 bc 2b 9e a0 3d fa f9 9b bd
       -0.041607715 -0.023983538 0.07842668 -0.076160386
0002e0 8e 48 34 3d 0a b5 ec bc cf 92 a0 3d 98 1b 45 bd
       0.044014506 -0.02889492 0.078405015 -0.04812202
0002f0 ef e4 31 bd 6a 86 2d bd 64 d4 8c bc 2c 10 e8 bc
       -0.04343122 -0.042364515 -0.01719112 -0.028328024
000300 ab ea 93 3d 73 4d a9 3d 54 35 91 bd a1 f3 a8 3d
       0.07222494 0.082667254 -0.0709025 0.082495935
000310 0c 72 b4 bc a0 c2 c7 3c 68 8a 15 bd 46 28 56 3d
       -0.022027038 0.024384797 -0.036508948 0.0522845
000320 0e 47 41 bd 48 9d f9 bc ec 82 ef 3c 7c 3b f0 3c
       -0.047186904 -0.030470505 0.029237233 0.02932524
000330 17 c0 26 bd d0 44 90 3b 6e 20 57 3d 40 f5 6f bc
       -0.040710535 0.0044027343 0.05252116 -0.0146458745
000340 2c e4 81 bd a2 90 53 3d d7 16 a1 3d bc 58 a1 bd
       -0.063423485 0.051651604 0.078656845 -0.07878253
000350 34 2c f2 3c 18 d1 74 bc 85 f0 8a bd 6a ad 40 3d
       0.029562093 -0.01494243 -0.06784157 0.04704038
000360 53 2a b4 3d a4 5a b0 3c a8 05 3d 3c 30 ca 3c 3c
       0.08797135 0.021527596 0.011536993 0.011522815
000370 50 e0 fb 3c c4 3a 9e bd 8e 00 64 3d c1 35 6b bd
       0.030746609 -0.077260524 0.05566459 -0.05742431
000380 42 1a 35 3d 80 7a b3 bd 1b 15 82 bd 50 c7 57 bc
       0.044214495 -0.087635994 -0.06351682 -0.013170078
000390 67 fb 91 3d 20 92 22 3c 00 c6 aa ba bf 47 05 bd
       0.07128029 0.009922534 -0.0013028979 -0.032539126
0003a0 38 25 3b bc 84 c8 cd 3c ec ff b2 bd 68 06 d4 3c
       -0.011422448 0.025120027 -0.087402195 0.025881961
0003b0 72 f1 11 bd f7 cf 92 3d 5d 77 8e 3d 84 a1 83 bd
       -0.03563065 0.071685724 0.069563605 -0.06427291
0003c0 5e 05 9e bd 5a 9b 79 bd fd ec ae 3d c0 45 28 bd
       -0.077158675 -0.06093917 0.08541296 -0.041082144
0003d0 ee 5f 67 3d 60 1b d2 3c 42 c8 6a 3d 40 14 ce 3b
       0.05648797 0.025647819 0.057319887 0.006289035
0003e0 00 de ea ba 22 9a 4a 3d f2 8d 44 3d ce d0 85 bd
       -0.0017918944 0.0494634 0.047986932 -0.06533967
0003f0 81 c7 82 3d e8 e0 83 3c 19 48 51 bd 90 0a 05 bc
       0.063857086 0.016098455 -0.05109415 -0.008120194

bias f4 [128]
000000 38 59 83 3d ac 20 a9 bc 85 4b 45 3e f4 26 e6 3a
       0.064135015 -0.020645462 0.1926709 0.0017559216
000010 c1 7c 7b bd df 84 27 3e 24 5a 34 bd ad 3d c1 3d
       -0.06139827 0.1635928 -0.044031277 0.09435592
000020 33 c1 86 bd 36 16 41 3e 54 75 06 bd 97 72 de 3d
       -0.065798186 0.18856129 -0.032826737 0.108617
000030 d7 34 54 3e e7 3c 13 3e f2 4f 8f bd a0 3f 2b 3d
       0.20723282 0.14378701 -0.0699767 0.041808724
000040 8e 7d cd 3d 1d 84 32 bd 36 5c 8d bd 6b 4f 39 3d
       0.10033713 -0.043583024 -0.069023535 0.045241755
000050 02 12 0d 3e 2b 6b 18 3e b7 83 fe 3d 5d bb bb 3d
       0.137764 0.14884631 0.12427466 0.09166596
000060 f1 d9 2e 3c 70 b3 58 bc e7 ec f4 bd 97 91 16 3e
       0.0106720785 -0.013226375 -0.11959248 0.14703976
000070 3c 34 0d bd 75 02 11 3e 5f 4f 2c 3b dd 3f 04 3e
       -0.034473643 0.14161094 0.0026292426 0.12914987
000080 e1 58 4b 3e dd 56 a9 bc 37 e4 9e 3d 59 e7 3b 3e
       0.19858123 -0.020671302 0.07758372 0.18349971
000090 e6 ce 96 bd 83 58 15 3e f5 dd fc 3d 77 28 92 bd
       -0.073636815 0.14584546 0.123470224 -0.07136624
0000a0 3a 19 fd bd e9 3e 94 3d bd 52 a0 3d 03 2c e2 3d
       -0.12358327 0.07238562 0.07828281 0.11043551
0000b0 d2 7c a1 3c a8 eb 32 3e da 20 47 3e 86 24 88 3d
       0.01971284 0.17472708 0.19446126 0.06647591
0000c0 40 2d 2c 3e a9 83 9a bd 76 d3 bc 3d 8c e6 2f 3e
       0.16814137 -0.075446434 0.092200205 0.1717779
0000d0 19 4f 8a 3d 65 37 07 3e f5 61 39 3e 41 e4 0b 3e
       0.06753368 0.13204725 0.18103774 0.1366129
0000e0 20 8c 50 3b 9d d3 3e 3e 99 67 55 bd 64 f9 16 bd
       0.0031821802 0.18635412 -0.05210075 -0.03685893
0000f0 3a 68 91 3d ac dd c7 3c 20 e6 f5 3d c7 c6 1b 3e
       0.07099958 0.024397694 0.120067835 0.15212546
000100 b9 b7 e8 bc a3 4c e1 bd b9 94 91 3d a5 26 47 3e
       -0.028407918 -0.110009454 0.07108445 0.19448335
000110 05 51 30 3e 75 ce b0 3d ae 72 ce bd 58 45 98 3d
       0.17218406 0.086331286 -0.10080467 0.07435101
000120 b8 71 52 bd 37 b8 ac bd 6f c2 e1 bd 25 20 18 3e
       -0.051377982 -0.08433574 -0.110234134 0.14856012
000130 fb 6d aa bc 18 40 f7 bd 50 e4 38 3d 03 24 3f 3d
       -0.020804396 -0.12072772 0.04513961 0.046665203
000140 41 14 48 bc 46 f4 0f 3d 40 bf ae 3b 47 51 86 bd
       -0.01221186 0.035145067 0.0053328574 -0.06558471
000150 d4 a8 a7 bc 0b 7b 1a 3e de b3 37 3c 06 d9 47 3e
       -0.020466246 0.15086 0.011212317 0.19516382
000160 76 f1 8d 3d 69 2b ae bb fa 57 58 3d 61 fe f5 bc
       0.06930821 -0.0053152335 0.052818276 -0.030028524
000170 ed 38 d4 3d ad c5 83 3d fa cd 51 bd d8 7a 52 bd
       0.1036242 0.06434188 -0.051221825 -0.051386684
000180 a8 cf 1e 3e f1 b7 a5 3d eb d0 52 3d 47 26 85 3d
       0.15508902 0.08091725 0.05146877 0.065014414
000190 13 8b 82 3d 7a de b0 bd c5 28 8b bd a9 83 08 3e
       0.063741826 -0.08636184 -0.067948855 0.13331474
0001a0 0f c0 51 3d 2d 33 81 bd c3 1d 95 bd 43 20 17 3e
       0.051208552 -0.06308589 -0.07281067 0.147584
0001b0 ea 20 2b bd 91 06 32 3e 4a a4 ff bc eb d7 eb bd
       -0.041779436 0.17385317 -0.031206269 -0.115157925
0001c0 86 9d 31 bd 00 87 20 3e 4e cf cd 3d 43 16 3d 3e
       -0.043363117 0.15676498 0.10049306 0.18465523
0001d0 84 1c 2f 3d e1 ab 15 3d a6 e5 60 3c cf 72 59 bd
       0.042751804 0.03654087 0.013726627 -0.053088006
0001e0 6a 31 47 3e 01 4b a7 bd b0 e5 16 3d 97 e6 3c 3d
       0.19452444 -0.08168603 0.03684014 0.046118345
0001f0 96 55 f5 3d de 48 1d 3d 5f 42 3b 3e 92 34 98 3d
       0.11979215 0.03839957 0.18287037 0.07431902

weight f4 [2, 128]
000000 88 b0 89 bd 76 4b 62 3d e2 49 5a 3e d1 c3 b2 bd
       -0.06723124 0.055247746 0.21317247 -0.08728755
000010 c8 40 58 3d a3 79 38 3e 94 21 86 bd 19 40 2a 3e
       0.052796155 0.1801515 -0.06549373 0.16626014
000020 67 c7 81 bd c3 43 db 3d b4 dd 4a be ef 2c 36 3e
       -0.06336861 0.10706284 -0.19811136 0.17790578
000030 6b b9 0d 3e 62 f1 53 3e ac 61 0a 3c d4 d7 0f 3e
       0.13840263 0.20697549 0.008446138 0.14047176
000040 8a 1b bb bd c0 1b 9a be c8 ec 3a be 38 d4 fe bb
       -0.09136112 -0.30099297 -0.18254387 -0.0077767633
000050 f9 b7 33 3e 27 08 14 3e 59 8b 2d 3e 84 b4 51 3e
       0.17550649 0.14456235 0.16947688 0.20479017
000060 b4 47 a0 be d0 b8 84 bb 18 c0 54 be 4e 70 0a 3e
       -0.31304705 -0.0040503517 -0.20776403 0.13519403
000070 c3 bd 01 be e5 c0 35 3e 42 12 4e be 63 9c 21 3e
       -0.12670045 0.17749365 -0.20124152 0.15782313
000080 89 b3 01 3e 98 f8 ab be 15 69 bc 3d a6 ae 3c 3e
       0.12666143 -0.335881 0.0919973 0.18425998
000090 a0 99 c6 bb a1 a9 81 3d 86 62 52 3e 7c 76 d0 bc
       -0.006060794 0.06331182 0.20545396 -0.025447123
0000a0 f7 a3 a0 be ea 0f 12 3e 25 0f 1e 3e 43 ec fb 3d
       -0.31375095 0.14263883 0.15435465 0.12300923
0000b0 ca 9b 4c be e9 78 3f 3e 77 46 01 3e 7d 69 10 3e
       -0.19981304 0.18698467 0.12624536 0.1410274
0000c0 e1 39 0f 3e 2b 52 96 3a df 35 44 3e 43 3f 94 3d
       0.13986923 0.001146858 0.19161175 0.07238629
0000d0 5f 64 2d 3e 95 a5 49 3e 67 1c 34 3e 19 bd 0c 3e
       0.1693282 0.19692071 0.1758896 0.1374401
0000e0 c9 51 a1 bd 8a b0 c7 3d 2b 35 b0 bd 2d 4b 7a be
       -0.078769274 0.09750469 -0.08603891 -0.2444274
0000f0 f4 64 42 3e 18 f1 7e be f4 bb 37 3e af d3 d5 3d
       0.18983823 -0.24896657 0.17942792 0.10440766
000100 e8 09 ea bc 0a e9 bb bd 89 05 f5 bd 29 e4 57 3e
       -0.028569177 -0.09175308 -0.11963946 0.2108313
000110 2f 74 4c 3e 12 ba 16 3e c8 cf 99 be fd 9b 3a 3e
       0.19966196 0.14719418 -0.30041337 0.18223567
000120 a8 aa 6c be 21 29 91 be c0 8b 3d be 54 13 35 3e
       -0.23111975 -0.2835169 -0.18510342 0.17683154
000130 09 9e 91 3d c2 2d d4 be 9b 4a 45 3e c1 1f a7 bd
       0.07110221 -0.4144116 0.19266741 -0.081603535
000140 47 bb 08 be dd fa 92 bd d6 8b b9 be f2 37 2d 3d
       -0.1335269 -0.071767546 -0.362395 0.04228968
000150 cc ef 63 bd 01 2c 19 3e e9 5c 1a 3d b4 10 11 3e
       -0.05564861 0.14958192 0.037686262 0.14166528
000160 0e da 62 bd 90 66 33 be c6 1a b4 3d ad 98 47 be
       -0.055383734 -0.17519593 0.08794169 -0.19491835
000170 d4 8b 47 3e c7 53 9a 3d 0d 66 3c be 14 5f 44 be
       0.19486934 0.075355105 -0.18398304 -0.19176894
000180 df b2 68 3e e2 ab 01 3e b7 11 3b 3e fb c0 05 3e
       0.22724484 0.12663224 0.18268476 0.13061897
000190 ef b2 46 3e 7d 84 96 bd 77 2f ef bd e2 16 3e 3e
       0.19404195 -0.07349489 -0.11678975 0.18563417
0001a0 fe 93 16 3e c7 05 b1 3a f3 95 60 be fe e2 e0 3d
       0.14704892 0.001350575 -0.21932201 0.10980795
0001b0 8b b9 bb 3d 56 43 21 3e 01 73 95 be e6 8f 8a be
       0.09166249 0.15748343 -0.29189304 -0.2706291
0001c0 48 12 3f bc 61 5a 2f 3e 7c ed 35 3e a6 fa 52 3e
       -0.011662073 0.1712432 0.17766374 0.20603427
0001d0 2b 12 26 3e 74 18 09 3e 27 37 ae be 58 22 a4 bd
       0.16217868 0.13388234 -0.34026453 -0.08014363
0001e0 ef 5d 2f 3e 62 eb 0e be a3 4b 89 be c3 30 37 be
       0.17125677 -0.13956979 -0.2681552 -0.17889695
0001f0 3a 01 87 3d 54 46 58 3e e8 21 18 3e c8 2b 12 3e
       0.06592031 0.21120578 0.14856684 0.14274514
000200 b0 4c b2 bb fe 9f 26 3d 00 4d 4e 3e b1 2d a6 be
       -0.005441271 0.040679924 0.2014656 -0.32456735
000210 24 c9 cf bd db 1e 11 3e 1e c2 0e 3d c5 5e 2c 3e
       -0.101457864 0.14171927 0.034853093 0.16833027
000220 00 4d 04 bd c4 96 6d 3e e2 0f 90 be b0 61 c2 3d
       -0.032299995 0.23202044 -0.28137118 0.09491289
000230 92 37 61 3e d8 4d 30 3e 24 a7 5e be 02 73 f1 bd
       0.21993855 0.17217195 -0.21743447 -0.11789514
000240 24 0c f3 3d 5a 1a b2 be d7 9b ee bb 87 0e 7d be
       0.1186755 -0.3478573 -0.007281761 -0.24712573
000250 e6 a8 be 3d 88 b2 08 3e 13 d2 37 3e cd ca a6 3d
       0.093095586 0.13349354 0.1795123 0.0814415
000260 9c 8a 68 be 3b 2e 81 bd 91 fc 5b be 96 e6 ed 3d
       -0.22709125 -0.06307646 -0.21483065 0.116162464
000270 e8 a9 0e be 53 67 73 3b e9 a4 8d be 89 5a 3c 3e
       -0.13932002 0.0037140443 -0.2766488 0.18393911
000280 b6 f5 f4 3d c7 2c 49 be ed 39 45 3e 75 45 42 3e
       0.11960928 -0.19645987 0.19260378 0.18971808
000290 bc 06 d2 3c a7 d9 5d 3e 5b 9f 8a 3d 1c 4f 9a be
       0.025637977 0.21665059 0.06768676 -0.3013848
0002a0 4a 38 a3 be 7b b6 29 3e b7 ad 4d 3e 56 a7 5c 3e
       -0.31878883 0.16573517 0.20085798 0.21548209
0002b0 ec 5e fa bd 87 8e 48 3e 86 22 fb 3d fb 1b 30 3e
       -0.12225136 0.1958562 0.12262444 0.17198174
0002c0 52 d0 6f 3e a2 6e 8e bd df 8a be 3d 47 4e 54 3e
       0.23419312 -0.06954695 0.09303831 0.20732985
0002d0 01 23 18 3e 58 d7 af 3d f6 6b da 3d ed 7c 97 3e
       0.14857103 0.085859954 0.10665123 0.29587498
0002e0 a8 fd d2 bc e8 fc 4d 3e 71 05 19 be 1b b7 9d be
       -0.025755718 0.20116007 -0.14943482 -0.3080376
0002f0 c7 2b 3b 3e 89 bc 1a be f6 d7 ca 3d d7 33 59 3e
       0.18278418 -0.15110983 0.099044725 0.21211182
000300 a0 cd ad 3d ea ac c6 bd c8 02 20 3e 3d 4e 3e 3e
       0.084864855 -0.097009495 0.15626061 0.18584533
000310 5e ba 1b 3e 98 a4 34 3e 69 30 d8 bd 57 b5 13 3e
       0.15207812 0.17640913 -0.105561085 0.14424644
000320 b8 5b b6 bd b1 2a ac bd 9d c7 13 be ef c2 39 3e
       -0.08904213 -0.0840658 -0.14431615 0.18140768
000330 a8 46 89 bd 66 db 7d be 3d 79 ee 3d 47 be 8f be
       -0.0670293 -0.24790725 0.11644218 -0.28074858
000340 a7 ee 26 be 22 3e 2d 3b b5 e8 97 be 1c d4 7a bd
       -0.16301976 0.002643474 -0.2966973 -0.06123744
000350 e4 dd 9e bc 87 35 67 3e ca ff 9c bd 15 28 52 3e
       -0.019392915 0.22579013 -0.076659754 0.20523103
000360 d5 10 52 bd 3c ef c9 bd 56 cd 09 be 7b 5c 77 be
       -0.051285584 -0.098600835 -0.13457236 -0.24156372
000370 97 99 27 3e cb 49 59 3e 1f ae 05 be b6 1a 15 be
       0.16367184 0.21219556 -0.13054703 -0.1456097
000380 78 98 ec 3d a9 3d 51 3e ab 3b 51 3e ab ef 34 3e
       0.115525186 0.20433678 0.20432918 0.17669551
000390 88 62 55 3e 08 15 c4 be ed d7 3b 3d af fc 5c 3e
       0.20838368 -0.38297296 0.04586022 0.21580766
0003a0 08 c1 cb 3d 86 78 60 bd 96 9b 8b be 3f f0 49 3e
       0.09948927 -0.05480244 -0.2726714 0.19720553
0003b0 e8 fc 39 be fb 86 a2 3d 17 eb 8b bd aa 5f dc bd
       -0.18162882 0.07935902 -0.06831949 -0.10760434
0003c0 e4 ae 4c 3d 70 3d cf 3d 14 19 39 3e 97 65 86 3d
       0.049971476 0.1011914 0.18075973 0.065623455
0003d0 2e 43 02 3e 81 e1 26 3d 44 9d 2f be 22 2b 9a bd
       0.1272094 0.0407424 -0.17149836 -0.07527758
0003e0 45 68 10 3e 95 39 1f be 49 ff 29 be d7 a4 fe bd
       0.14102276 -0.1554931 -0.1660129 -0.124337845
0003f0 d0 41 42 3e 01 47 3a 3e d8 3c cb 3d 07 21 28 3e
       0.18970418 0.18191148 0.099237144 0.16418849

bias f4 [2]
000000 c1 74 08 3e ea da e0 3d
       0.13325788 0.109792545
