model/RF_model_4.pt (torch, 6321 bytes, 4 tensors)

weight f4 [128, 4]
-0.23257497 0.18085667 -0.06679487 0.2090726 0.5048745 -0.16214123 0.09258859 -0.51052773
-0.1266325 0.13569926 0.22830307 0.34593624 -0.26915902 -0.047081456 0.24003968 0.35654485
-0.2620797 -0.16818067 0.04990519 0.34341407 0.3783799 0.15977305 0.20181328 0.47224396
0.37937552 -0.2316988 0.22705872 -0.25999692 0.27497688 0.1724322 -0.16952875 0.21979138
0.3293923 -0.46103308 0.13282377 0.17431186 -0.32218763 0.48338547 0.30505654 -0.070047155
-0.06549386 0.2954255 -0.06983045 -0.16019382 0.2891328 0.08999547 0.15116757 0.08284434
-0.10139533 0.3477362 0.27735013 -0.39244747 0.35309568 -0.17798097 -0.11854747 -0.119299635
-0.19910023 0.37305245 0.41674158 -0.26144037 -0.055099458 -0.2515524 0.13168174 -0.45225072
-0.16582955 -0.17144117 -0.32506877 0.42164862 -0.30517444 -0.5212923 -0.14569277 0.019120803
0.04914425 0.3250861 -0.18274081 -0.3988391 -0.38416386 0.05901239 0.056047596 0.057538513
0.43219337 0.42913032 0.20416412 -0.4795627 0.036789883 -0.43926492 -0.35934582 -0.04741295
-0.09399367 -0.4110004 0.0549202 -0.36544555 0.27733135 0.4761202 0.15880793 -0.5186421
0.49273327 -0.3025675 -0.07266698 -0.23117517 0.22533643 -0.35025993 -0.16841988 0.0013004196
0.382912 -0.25143248 -0.26727927 -0.25348428 -0.22731331 0.44176042 0.3665093 0.013096903
-0.11493477 0.026546119 -0.009903177 0.1524337 -0.23246333 -0.27630067 0.07913094 -0.22342747
0.40707344 0.3415829 -0.28439528 0.38975677 -0.3478434 0.06367672 0.3426552 -0.28285676
0.06126979 -0.22379728 -0.3150784 -0.29807958 0.26666328 0.46673578 0.23427284 -0.0137880165
0.32864916 0.27644274 0.08773766 -0.3944512 0.4491195 -0.06661557 -0.40442812 -0.3596286
-0.034245476 -0.014325686 0.0008311738 -0.049159218 0.2304523 -0.3404053 0.3628494 -0.2049833
-0.36389804 0.43039963 0.4539512 -0.3416842 -0.31452742 -0.2466981 -0.34296572 -0.2648059
-0.048208177 0.084715046 0.0010338769 0.12997301 0.2673576 0.14958681 -0.4435933 0.005672792
-0.17693025 0.069949746 -0.04224161 0.44514668 -0.045618657 -0.48270768 -0.20032568 -0.049372308
0.43219596 0.28712735 -0.4439981 0.017656406 -0.26420328 0.37211347 -0.0993147 -0.058037955
-0.22676867 0.097844884 -0.35873717 -0.05692182 0.1073767 0.08607132 -0.21240474 0.1570867
0.061167713 0.30593035 0.028515201 0.13301656 -0.16455668 -0.32153714 0.14470023 -0.07927415
-0.06019469 -0.20689307 -0.29469022 0.12391894 0.39592272 -0.21032086 -0.049939826 -0.2177191
-0.10520454 0.2366454 0.40512326 -0.1695389 0.11295734 0.0406952 0.055324856 -0.3562172
0.048937786 0.12440532 -0.12421467 0.06542217 -0.45056126 -0.34882897 -0.0831204 0.11325873
-0.062294338 0.44099844 0.062247694 0.42254803 -0.16098821 0.2118827 -0.28347537 0.46636847
0.43467748 0.21789926 0.26717052 -0.49936306 -0.10564686 -0.09079428 0.18738507 0.2607366
0.44626018 0.37096554 -0.35603923 -0.36463135 -0.32070923 0.45776695 -0.44518688 0.022699678
-0.16903721 -0.27480543 0.16635653 0.52255833 0.38528472 0.23802097 0.4325402 0.4725391
00000000: 2228 6ebe 7e32 393e c0cb 88bd 2117 563e
00000010: 753f 013f 5a08 26be 169f bd3d f2b1 02bf
00000020: f3ab 01be bff4 0a3e 48c8 693e 8e1e b13e
00000030: 36cf 89be 7cd8 40bd f6cc 753e 0c8d b63e
00000040: 4f2f 86be 8e37 2cbe 6269 4c3d f8d3 af3e
00000050: 03bb c13e 8c9b 233e 24a8 4e3e f6c9 f13e
00000060: 823d c23e 7342 6dbe 1582 683e 511e 85be
00000070: c5c9 8c3e 1192 303e f298 2dbe fe10 613e
00000080: 1ca6 a83e 870c ecbe f402 083e cf7e 323e
00000090: c7f5 a4be 4d7e f73e 5f30 9c3e e274 8fbd
000000a0: a521 86bd 0342 973e 4403 8fbd d909 24be
000000b0: 3709 943e 8c4f b83d accb 1a3e 4baa a93d
000000c0: 5ba8 cfbd 7b0a b23e d600 8e3e e0ee c8be
000000d0: f5c8 b43e a540 36be 04c9 f2bd 5e53 f4bd
000000e0: eee0 4bbe bb00 bf3e 275f d53e 83db 85be
000000f0: f8af 61bd 7acb 80be 94d7 063e 688d e7be
00000100: 39cf 29be 468e 2fbe 6a6f a6be 54e2 d73e
00000110: d33f 9cbe 6a73 05bf 7c30 15be 3ba3 9c3c
00000120: 7b4b 493d af71 a63e 6820 3bbe a334 ccbe
00000130: 20b1 c4be fab6 713d 2a92 653d 81ad 6b3d
00000140: 7348 dd3e f8b6 db3e 6610 513e 3e89 f5be
00000150: fdb0 163d 55e7 e0be 2dfc b7be 1534 42bd
00000160: c17f c0bd a56e d2be 01f4 603d ae1b bbbe
00000170: 60fe 8d3e 07c6 f33e 8c9e 223e bbc5 04bf
00000180: 8947 fc3e 21ea 9abe 6dd2 94bd 2fb9 6cbe
00000190: 98be 663e 4555 b3be 4376 2cbe d772 aa3a
000001a0: 0b0d c43e c2bb 80be d4d8 88be b1c8 81be
000001b0: d2c4 68be 6c2e e23e 1ba7 bb3e 6594 563c
000001c0: ec62 ebbd 3f77 d93c ef40 22bc 9417 1c3e
000001d0: de0a 6ebe 4877 8dbe 670f a23d 2cca 64be
000001e0: ee6b d03e f4e3 ae3e 429c 91be 338e c73e
000001f0: 8818 b2be f168 823d 8170 af3e 9ad2 90be
00000200: 08f6 7a3d 1d2b 65be f551 a1be e39d 98be
00000210: 1788 883e fef7 ee3e 38e5 6f3e 22e7 61bc
00000220: b444 a83e e789 8d3e cdaf b33d 82f5 c9be
00000230: fef2 e53e be6d 88bd 3411 cfbe 3d21 b8be
00000240: fc44 0cbd 48b6 6abc 21e3 593a 2d5b 49bd
00000250: b0fb 6b3e 9a49 aebe 66c7 b93e 24e7 51be
00000260: d850 babe 575d dc3e 4b6c e83e 3bf1 aebe
00000270: bd09 a1be 6d9e 7cbe 3499 afbe a494 87be
00000280: f075 45bd 157f ad3d 2783 873a a517 053e
00000290: 18e3 883e 492d 193e a91e e3be d4e2 b93b
000002a0: 342d 35be d041 8f3d 8a05 2dbd 44ea e33e
000002b0: a1da 3abd 7625 f7be 2d22 4dbe 9e3a 4abd
000002c0: ca48 dd3e 5b02 933e b853 e3be 2ba4 903c
000002d0: a745 87be a885 be3e 8165 cbbd 35b9 6dbd
000002e0: 0c36 68be e662 c83d 66ac b7be db26 69bd
000002f0: 51e8 db3d 2946 b03d a180 59be 56db 203e
00000300: ff8a 7a3d e7a2 9c3e b698 e93c 7e35 083e
00000310: 8c81 28be 84a0 a4be 4c2c 143e 7c5a a2bd
00000320: b58e 76bd c7db 53be a3e1 96be 37c9 fd3d
00000330: 62b6 ca3e 5a5e 57be b48d 4cbd c1f1 5ebe
00000340: 7a75 d7bd 2c53 723e 516c cf3e 9b9b 2dbe
00000350: 2e56 e73d 03b0 263d 519c 623d 1a62 b6be
00000360: fd72 483d 37c8 fe3d 4364 febd 0ffc 853d
00000370: f7af e6be b699 b2be 073b aabd 31f4 e73d
00000380: 5928 7fbd 8cca e13e 70f7 7e3d 3758 d83e
00000390: 18da 24be c7f7 583e af23 91be d9c7 ee3e
000003a0: 0c8e de3e fc20 5f3e 93ca 883e 84ac ffbe
000003b0: 625d d8bd 5af2 b9bd dfe1 3f3e 457f 853e
000003c0: 377c e43e 32ef bd3e c64a b6be f6b0 babe
000003d0: 0034 a4be 6e60 ea3e 89ef e3be adf4 b93c
000003e0: 1718 2dbe 4cb3 8cbe 5e59 2a3e 62c6 053f
000003f0: 0a44 c53e c5bb 733e e975 dd3e a5f0 f13e

bias f4 [128]
0.45193607 0.4426609 0.08688644 -0.2912352 -0.01829413 0.23605701 0.45141676 -0.39572892
-0.014232849 0.047782134 -0.14445257 -0.3802386 0.35602048 -0.20562196 -0.48786828 0.18150777
-0.3921291 0.37726897 -0.31142485 -0.40571284 0.48350808 -0.20068412 -0.36433244 -0.06794442
0.3520358 0.30784383 -0.16254711 -0.18452938 0.4305003 0.30294713 -0.367301 0.44237617
0.21782488 0.32668656 -0.31711367 0.39580634 -0.08954652 -0.46564466 -0.014604982 -0.33885145
0.4970993 -0.0753698 0.072603114 -0.034431133 0.16880856 -0.3501163 -0.28021336 0.2787742
0.3651043 0.10466547 0.4525072 0.3779509 0.26201278 -0.30866936 0.4193492 0.24618588
-0.24275011 0.4920779 -0.046808865 0.41542876 0.055828672 0.31276762 -0.21428888 0.366811
0.089301094 -0.2927125 0.11379408 -0.3685782 0.42788818 -0.0766081 -0.13995788 -0.24695908
-0.06842122 -0.10624012 -0.13458344 -0.079826936 -0.087972015 0.28317776 0.417666 0.21148212
-0.40840343 -0.15061745 -0.40751916 0.17825487 -0.27067828 0.017451594 -0.02610471 -0.052018307
0.2689401 -0.10057369 -0.1748896 -0.075394705 -0.20735382 -0.4999028 0.038263146 0.43853238
0.27847987 0.4536546 -0.39187297 -0.44421586 0.4769439 -0.43745184 -0.3707316 0.23344451
0.48876184 0.03056673 0.4331074 0.25829312 0.25350612 0.12869793 -0.18521611 0.20796077
0.4327117 0.48931074 -0.31153706 -0.39342842 0.22709638 0.46168682 0.3953316 0.096826635
0.28793618 -0.3867516 0.16198675 -0.1586078 -0.31376088 0.1744743 -0.23101401 -0.4305401
00000000: 2a64 e73e 73a4 e23e 85f1 b13d c81c 95be
00000010: 92dd 95bc eeb8 713e 1920 e73e fb9c cabe
00000020: e530 69bc 33b7 433d 60eb 13be a2ae c2be
00000030: 5148 b63e 908e 52be dfc9 f9be 2cdd 393e
00000040: 25c5 c8be 6629 c13e 1473 9fbe 98b9 cfbe
00000050: 5f8e f73e 2380 4dbe c889 babe 7226 8bbd
00000060: 093e b43e b59d 9d3e c072 26be 45f5 3cbe
00000070: 896a dc3e e31b 9b3e e00e bcbe 217f e23e
00000080: 7c0d 5f3e 7643 a73e b95c a2be 21a7 ca3e
00000090: 2a64 b7bd fa68 eebe bc49 6fbc f07d adbe
000000a0: cd83 fe3e 7b5b 9abd f1b0 943d a907 0dbd
000000b0: 27dc 2c3e 7242 b3be 2078 8fbe 7ebb 8e3e
000000c0: f3ee ba3e da5a d63d 06af e73e c882 c13e
000000d0: 8a26 863e e909 9ebe f0b4 d63e 2718 7c3e
000000e0: 7c93 78be a2f1 fb3e a7ba 3fbd 14b3 d43e
000000f0: 9bac 643d 1423 a03e 8b6e 5bbe a7ce bb3e
00000100: 7ee3 b63d 6ade 95be df0c e93d 48b6 bcbe
00000110: 2914 db3e b5e4 9cbd 1e51 0fbe d7e2 7cbe
00000120: 6d20 8cbd 6c94 d9bd 3ed0 09be 4e7c a3bd
00000130: ac2a b4bd adfc 903e 51d8 d53e c58e 583e
00000140: 411a d1be 763b 1abe 5aa6 d0be 7288 363e
00000150: 5896 8abe a5f6 8e3c 8bd9 d5bc 2611 55bd
00000160: 84b2 893e 94f9 cdbd 4216 33be 8a68 9abd
00000170: 8f54 54be 43f3 ffbe d1b9 1c3d 5187 e03e
00000180: ea94 8e3e 6a45 e83e 93a3 c8be 4370 e3be
00000190: fe31 f43e b0f9 dfbe 88d0 bdbe 140c 6f3e
000001a0: fe3e fa3e 1467 fa3c 41c0 dd3e ff3e 843e
000001b0: 8ecb 813e 64c9 033e 4ba9 3dbe abf3 543e
000001c0: 638c dd3e f086 fa3e c981 9fbe 736f c9be
000001d0: f48b 683e 3762 ec3e e768 ca3e 0b4d c63d
000001e0: 5f6c 933e 4e04 c6be dbdf 253e 156a 22be
000001f0: 44a5 a0be 64a9 323e f08e 6cbe c16f dcbe

weight f4 [2, 128]
0.011338324 0.10100221 -0.025816515 -0.097249396 0.0060984227 0.011460358 -0.007098303 -0.09038935
-0.06731532 0.09171436 -0.05897086 -0.012082581 0.115082964 -0.012275858 0.08035444 -0.011743553
-0.017195627 -0.03942848 0.029690798 0.024074204 0.06357306 -0.031819616 -0.009632444 0.110299885
-0.019670306 -0.04379873 0.06716693 -0.0857152 0.014742155 0.013333626 -0.030937813 -0.04759142
-0.0072537544 0.029310538 0.09016174 0.10815993 -0.08205046 -0.07183695 0.06196424 -0.017665623
-0.011416547 -0.05196049 0.0070244996 -0.09452658 0.05460688 0.04038353 0.013964329 -0.02605561
-0.08205121 -0.06794069 0.0233182 0.076376446 0.0068696933 -0.06402131 -0.042571943 0.017926374
-0.043701146 -0.054322053 -0.032886483 -0.079331405 0.03155066 -0.047189098 -0.07618574 -0.014431101
-0.07687815 0.06064544 0.13218808 -0.07787233 -0.038764745 -0.028924108 -0.07955757 0.028186852
-0.0723199 -0.030318579 0.07725898 0.00917414 -0.030812379 0.095334694 0.05942688 -0.10776468
-0.08781371 -0.056403767 0.008988948 0.053086225 0.07829349 -0.087677106 -0.03771931 0.0021284912
-0.05879881 0.018371195 0.053638432 -0.0595436 -0.04076398 -0.042255156 0.072205976 0.0031280608
0.053065818 -0.09130092 -0.021072712 -0.0005784116 0.05129455 0.018109819 0.054647166 0.04578288
-0.05462277 -0.10869243 -0.00032087567 0.059804436 0.085608624 -0.03589239 0.115194134 -0.0009531767
-0.0029276698 -0.029341033 -0.044159472 0.061918456 -0.109610535 -0.021755893 -0.11921106 0.093756296
-0.0029980277 0.03329575 -0.07369075 0.047940888 -0.08645325 0.030167406 -0.05100251 -0.056710612
-0.076604165 -0.07903163 0.07807858 0.03273015 0.0243252 0.033464313 -0.032487616 0.07217271
0.106463365 0.062879026 -0.061586395 -0.023607148 -0.07653201 -0.04414836 0.043121025 0.00066682865
0.031142855 0.008263494 -0.11355233 -0.004200084 -0.03327262 -0.037523672 0.033182893 -0.0075038527
-0.11177181 -0.067434914 0.026837055 0.009835939 0.05438325 0.020265963 0.07077331 -0.03792811
-0.11180639 -0.005196008 -0.040851876 -0.022525983 0.028182931 -0.08144343 0.034252483 -0.055399936
-0.019902878 -0.009652071 0.013872628 -0.04761793 0.053851236 -0.03005992 0.045516517 -0.022158694
0.06712997 -0.06487408 -0.0103494255 0.05530365 -0.09810935 0.03729836 0.04076942 -0.008057707
0.09657818 0.07039459 -0.07215766 0.07793269 -0.073758416 0.033519328 0.10723233 0.080295645
0.07840333 -0.11965249 -0.034037687 0.041609168 0.081000686 -0.046242084 0.039199084 -0.048859905
0.09811885 -0.07547015 0.06880631 -0.105385736 0.024952617 -0.08838336 -0.059434634 0.11870937
-0.0534993 0.10555436 -0.008179719 -0.10221764 -0.07613173 0.112277225 -0.037545666 0.065213054
-0.01634994 -0.071153365 0.083656035 -0.100539476 -0.043152034 0.065509275 0.007041061 -0.032891043
-0.016677909 0.09566497 -0.04643368 0.07194743 -0.04499766 0.0035603754 -0.09435921 0.06791976
0.06184111 0.10042378 -0.00728223 -0.076835014 0.045108028 -0.02040604 -0.020400295 0.06362678
-0.06317246 0.006635108 -0.003860012 0.09657464 0.028535107 0.022976609 0.014262697 0.0062023937
-0.010553307 -0.008264564 0.054361004 -0.086440496 0.0076476447 -0.019740714 -0.007295783 -0.07540379
00000000: 61c4 393c 3fda ce3d 287d d3bc b12a c7bd
00000010: 47d5 c73b 3ac4 3b3c e298 e8bb 0d1e b9bd
00000020: 9ddc 89bd bdd4 bb3d 6e8b 71bd 05f6 45bc
00000030: 9eb0 eb3d ae20 49bc de90 a43d 0868 40bc
00000040: d8dd 8cbc c27f 21bd 1e3a f33c 4437 c53c
00000050: 9832 823d 4955 02bd 66d1 1dbc e8e4 e13d
00000060: 9f23 a1bc 4c66 33bd d18e 893d 738b afbd
00000070: 1489 713c 4875 5a3c 4c71 fdbc 39ef 42bd
00000080: e7b0 edbb a71c f03c b8a6 b83d f482 dd3d
00000090: 120a a8bd 401f 93bd 37ce 7d3d 7fb7 90bc
000000a0: 780c 3bbc 86d4 54bd c62d e63b 2797 c1bd
000000b0: 77ab 5f3d 3369 253d a4ca 643c 9372 d5bc
000000c0: 770a a8bd 7d24 8bbd cf05 bf3c 416b 9c3d
000000d0: 2a1b e13b 9b1d 83bd eb5f 2ebd 55da 923c
000000e0: f9ff 32bd cd80 5ebd fab3 06bd 8178 a2bd
000000f0: 443b 013d 5b49 41bd 4507 9cbd 6d70 6cbc
00000100: 4b72 9dbd 5a67 783d 505c 073e 877b 9fbd
00000110: c8c7 1ebd 40f2 ecbc 14ef a2bd 1de8 e63c
00000120: 751c 94bd ab5e f8bc f539 9e3d 224f 163c
00000130: 3e6a fcbc d63e c33d 9a69 733d bbb3 dcbd
00000140: add7 b3bd a307 67bd 6146 133c f170 593d
00000150: 5658 a03d 0e90 b3bd 907f 1abd 287e 0b3b
00000160: 05d7 70bd 307f 963c f9b3 5b3d fde3 73bd
00000170: 22f8 26bd be13 2dbd bae0 933d 2700 4d3b
00000180: 8b5b 593d fafb babd aea0 acbc 8ca0 17ba
00000190: 3c1a 523d 0b5b 943c b5d5 5f3d d486 3b3d
000001a0: 20bc 5fbd 239a debd 343b a8b9 7ff5 743d
000001b0: 9353 af3d e603 13bd e7ea eb3d 9bde 79ba
000001c0: 26de 3fbb 9b5c f0bc 90e0 34bd 359e 7d3d
000001d0: 7d7b e0bd 6a39 b2bc ee24 f4bd 4d03 c03d
000001e0: 8f7a 44bb 2061 083d 2deb 96bd aa5d 443d
000001f0: 670e b1bd a321 f73c 02e8 50bd 6349 68bd
00000200: a5e2 9cbd 56db a1bd aae7 9f3d 0d10 063d
00000210: a445 c73c e011 093d bc11 05bd 49cf 933d
00000220: 7709 da3d b8c6 803d 0442 7cbd c763 c1bc
00000230: d1bc 9cbd e9d4 34bd ac9f 303d 1dce 2e3a
00000240: 4d1f ff3c 9b63 073c 208e e8bd dca0 89bb
00000250: df48 08bd 6cb2 19bd c9ea 073d e1e2 f5bb
00000260: 9ee8 e4bd 511b 8abd 62d9 db3c eb26 213c
00000270: f9c0 5e3d ce04 a63c 99f1 903d 825a 1bbd
00000280: c0fa e4bd 4643 aabb 4c54 27bd 6988 b8bc
00000290: e4df e63c d0cb a6bd 554c 0c3d 0beb 62bd
000002a0: 5c0b a3bc b823 1ebc 054a 633c 050b 43bd
000002b0: 1d93 5c3d 3940 f6bc 876f 3a3d 2686 b5bc
000002c0: 707b 893d b4dc 84bd a390 29bc 1586 623d
000002d0: 8eed c8bd 2ac6 183d d6fd 263d 7904 04bc
000002e0: c8ca c53d 0a2b 903d 65c7 93bd 2d9b 9f3d
000002f0: a70e 97bd 904b 093d a09c db3d 0b72 a43d
00000300: ed91 a03d 5d0c f5bd 1a6b 0bbd 606e 2a3d
00000310: b0e3 a53d 5768 3dbd 388f 203d 5321 48bd
00000320: 89f2 c83d 1890 9abd 53ea 8c3d 7ad4 d7bd
00000330: 6e69 cc3c 5602 b5bd bb71 73bd e61d f33d
00000340: 1522 5bbd e22c d83d 3a04 06bc 7b57 d1bd
00000350: f4ea 9bbd 9af1 e53d 7cc9 19bd 6c8e 853d
00000360: 4ff0 85bc dbb8 91bd db53 ab3d a4e7 cdbd
00000370: 30c0 30bd ba29 863d b3b8 e63b c2b8 06bd
00000380: 1ca0 88bc ffeb c33d 3e31 3ebd 2d59 933d
00000390: 774f 38bd 3055 693b 673f c1bd 8419 8b3d
000003a0: 1b4d 7d3d fcaa cd3d c69f eebb ad5b 9dbd
000003b0: 32c3 383d 912a a7bc 851e a7bc c24e 823d
000003c0: 9060 81bd 526b d93b 41f8 7cbb edc8 c53d
000003d0: 75c2 e93c 7139 bc3c 16ae 693c 733d cb3b
000003e0: c7e7 2cbc 1868 07bc a5a9 5e3d b707 b1bd
000003f0: 1899 fa3b 47b7 a1bc 7711 efbb 4d6d 9abd

bias f4 [2]
0.014509233 -0.0064624487
00000000: 22b8 6d3c f3c2 d3bb
