model/RF_model_2.pt (torch, 6321 bytes, 4 tensors)

weight f4 [128, 4]
00000000: 7cf9 563d e258 ab3e 2309 c83e 2516 e83e
00000010: 047c 8abe 7fa1 42be f399 67bd 588a c13d
00000020: 4216 763e 28b2 043f 1ba7 77bd 6267 04bf
00000030: 4ec0 89be 7198 40be fb47 4a3e 7b39 93be
00000040: 9f98 47be 8c0d 7c3e e5c2 613e dab2 073c
00000050: e814 563d 2d49 e6be 9700 6cbd 8a24 aebe
00000060: 13e8 8c3e 92c7 c63e cf3e d63e 07c0 53bd
00000070: 02bc fbbd 340f e0be d584 1d3e c6ad 83be
00000080: 7be1 4a3e 3fc8 56be bca1 0a3d 3f22 60be
00000090: f8d5 0ebe 5c7d 073d ba90 0cbe ae63 7a3e
000000a0: da95 933e f0b9 debe a805 e0bd df4c 1b3d
000000b0: 59e3 2f3e 9046 b53d 7b46 f63e e363 c73e
000000c0: 2e90 e33e 768e e6be ea58 ea3e 838e cc3e
000000d0: 1879 87bc d75c fbbd ab1d e43e c677 913d
000000e0: f857 4cbe 6c9c 963e 0446 c7be b4a6 2cbe
000000f0: af53 d0be 9abd 843e 453e 40be 42ad be3e
00000100: c3e9 a9be 14a3 ef3d 2f72 b53e c871 3c3e
00000110: 6af3 dcbe 9f13 8a3d 292e dbbe 431e a0be
00000120: fc04 98be c547 ebbe 76f2 9b3d fdb4 0bbf
00000130: 43f0 7d3e e5ca 61be ab60 c23e d0c6 1b3e
00000140: e398 55be a2e1 aabe bff3 6c3e 9796 c73e
00000150: 5658 dcbe f61b 513e 4cde 613e 9a4e 7abe
00000160: aa8b b2be 0a6b 8c3c a065 cbbe 09ec 893e
00000170: 4a4c 91be 16c9 e53e 9d01 9c3e e80c a0be
00000180: 14fb 933e 2aaf aabe e76f a63e 9eda c5be
00000190: e31f 463e 221c 3f3e 0419 0bbe a405 b53d
000001a0: 3c88 a6bc 49a2 463e 9e59 c73e 25d1 00bc
000001b0: 1ae3 d83e 9178 113d 8f91 50be 490d 9d3d
000001c0: a599 2cbe 514b f2bd 3628 c8be ba7b 943e
000001d0: 787c ac3b 4730 c63e 2cd4 613e 9927 eb3c
000001e0: 6d29 363e 1b87 5dbd 3925 97be f166 ba3b
000001f0: f0f2 67bd 49b9 673e 12ac bbbe f221 013f
00000200: 3dac 143e ade1 193e 5908 f33e c2fa 213e
00000210: c55c a4bd 574a 12be 4b38 ec3d 0962 803e
00000220: 77c6 f53e 5979 aa3e 4298 90be 0ba8 713e
00000230: 1bc0 5b3e ae8c a83e 371e d73d c643 7cbe
00000240: f0f2 da3e e320 473e 313c da3e a694 5abe
00000250: 9894 8e3e 1f55 afbe cabb cebe 4c50 0abf
00000260: e414 003f c35b 663e c621 3a3e bc39 bc3e
00000270: ab90 14bd 0134 ffbe b6ed 213e 453c be3e
00000280: 1936 b3be 4987 693e 1162 1ebe 3fc2 0e3e
00000290: 34e7 95be c878 203e 9cc8 e0bd ecee 123e
000002a0: 18a7 c33e 690c 7c3e 1e59 81be d8fd e1be
000002b0: b8f7 d5be 97f2 90be 93fa 73be f212 b4bc
000002c0: e29f e9be 91c2 f4be 994d 92bd 09eb 393e
000002d0: 7aa2 91be 2c8f 543d 65af 9dbe 03b2 ca3e
000002e0: d290 b73e 29c0 e4be 047f 913e 1cac f83e
000002f0: d7fa e9be 4a1e d83d 2408 44be ca2a 873d
00000300: e1a8 863d 9c23 c53d 128f e5be 2ebd 9abd
00000310: d140 393c 1bd4 a2be 9952 03bf 420d c9be
00000320: 6514 2c3e c05e 90be bfb8 ddbe 2439 6b3e
00000330: 0127 893e 13c2 523e 3b88 04be 2678 9bbe
00000340: f748 1f3e 4294 8abe 91a3 6fbe 5a24 013f
00000350: 2906 41be b6fe aabe faa1 e83e 2e59 80be
00000360: 93b0 c33e 7afe c43e 23db 65be 0b3d 94bd
00000370: 507e e03e 82af 253e e6c0 823e fce3 94be
00000380: 4c07 37be 935b d6be 16e5 a23e 0470 edbe
00000390: 0ca1 263e 88ca 08bd 114b 563e 361b a93e
000003a0: 8367 b8be 4ce0 e9be eab2 ad3e f5c8 07bf
000003b0: 6a5d aebe 79b4 c83c 990e c93e e914 a9be
000003c0: c2fb 96be 7927 86bd 1dde 5abe ee8e 39be
000003d0: 3798 ab3e 9c32 f0bd 66a9 2ebd 28c5 cdbe
000003e0: fa68 92bd cbfa c43d e8f5 213e db0c 2dbe
000003f0: b1ca 0b3e 91e8 a3be 18e3 d03d b2ad 03bf
0.05248402 0.3346625 0.3906947 0.45329395 -0.2704774 -0.19006918 -0.0565433 0.09450215
0.24031928 0.51834345 -0.0604621 -0.5172025 -0.2690453 -0.18808152 0.19754021 -0.28754792
-0.19491814 0.24614543 0.22047003 0.008282388 0.05226603 -0.44977704 -0.05761775 -0.34012252
0.2752081 0.38824135 0.41844794 -0.051696803 -0.12291719 -0.437616 0.15382703 -0.25718516
0.19812576 -0.20974825 0.03384565 -0.21888064 -0.1394881 0.033078536 -0.13727084 0.24452087
0.28825265 -0.43501234 -0.10938579 0.037915107 0.1717657 0.08851349 0.48100647 0.38943395
0.44445938 -0.45030564 0.4577096 0.39952478 -0.016537234 -0.12273567 0.44553885 0.07102923
-0.19955432 0.29416215 -0.38920605 -0.16860467 -0.40688846 0.25925905 -0.18773754 0.3724156
-0.3318616 0.117010266 0.35438678 0.18402779 -0.4315446 0.06742024 -0.42808655 -0.31273088
-0.29691303 -0.45953193 0.07614605 -0.5457304 0.24798684 -0.22050054 0.37964377 0.1521256
-0.20859103 -0.3337527 0.23139857 0.38982078 -0.43036145 0.20420823 0.22057456 -0.24444047
-0.3487218 0.017140884 -0.3972597 0.26937893 -0.28378516 0.4487998 0.3046998 -0.31259847
0.28902495 -0.33336765 0.3250725 -0.38643354 0.19348101 0.18663076 -0.13583761 0.088389665
-0.020328633 0.19397844 0.3893556 -0.007862364 0.42360765 0.03551537 -0.20368026 0.076685496
-0.16855486 -0.11830772 -0.3909318 0.29000646 0.0052638613 0.38708708 0.22053593 0.028705405
0.1778924 -0.054083925 -0.29520586 0.005688541 -0.056628168 0.22629274 -0.36654717 0.5044242
0.14518829 0.15027495 0.47467306 0.15818313 -0.08025507 -0.14286171 0.115341745 0.25074795
0.4800298 0.33295706 -0.28241163 0.2359926 0.21460001 0.3291983 0.1050381 -0.24635229
0.42763472 0.19446139 0.42624047 -0.21345767 0.27847743 -0.3424463 -0.40377647 -0.54028773
0.50031877 0.22495942 0.18176946 0.36762798 -0.03627078 -0.49844363 0.15813336 0.37155357
-0.3500221 0.22805513 -0.15467097 0.13941287 -0.29277956 0.15671074 -0.10975763 0.14348954
0.3821342 0.24614109 -0.25263304 -0.4413898 -0.41790557 -0.2831008 -0.23826055 -0.02198169
-0.45629793 -0.47804692 -0.07143707 0.18156065 -0.28444272 0.05189435 -0.30797878 0.39588937
0.35852677 -0.44677857 0.28417218 0.4856881 -0.45699188 0.10552652 -0.1914373 0.06599958
0.0657518 0.096259326 -0.44835716 -0.075556144 0.011306957 -0.3180245 -0.5129791 -0.39267927
0.16804655 -0.2819729 -0.43305013 0.22971016 0.2678757 0.20581846 -0.12942593 -0.30365103
0.15555178 -0.27066237 -0.2340224 0.50446093 -0.18850006 -0.33397454 0.45436078 -0.2506804
0.38220653 0.384754 -0.22446875 -0.072382055 0.4384637 0.16180232 0.25537795 -0.29080188
-0.17873877 -0.4186674 0.31815404 -0.46374524 0.16272372 -0.033396274 0.20927073 0.33028573
-0.36016473 -0.45678937 0.33925563 -0.5304101 -0.34055644 0.024500119 0.3926895 -0.33023766
-0.2948895 -0.065504976 -0.21373792 -0.1812093 0.33514568 -0.11728403 -0.04264202 -0.4018948
-0.07148929 0.096181475 0.15816462 -0.16899435 0.1365154 -0.32013372 0.10199565 -0.51436913

bias f4 [128]
00000000: 3abd f73e 8d61 453d f4e3 9b3e 8488 d4be
00000010: a8bf c93e 0986 d53e 4217 003f aeff 96bc
00000020: 6477 41be 19d7 8dbd 8c48 f5bd a634 d53e
00000030: 4b9d 0bbe eaab aa3e 431b aabe 2d5b b4be
00000040: ea0b 8d3e 1418 d9bd 3f1d 023f 9c58 d2be
00000050: 824a 88bd 7327 aa3e 67d4 c03e aa20 393d
00000060: 69dc 61be ede0 ecbd 3726 42be fccd d6be
00000070: 3f65 653e c367 e5be 46b6 873d 8c5c d73e
00000080: d552 a73e 3e6c c6be bcfe dfbe 503f d5be
00000090: 7273 db3e 871d babc ed81 9dbe 2f64 903e
000000a0: 6f5e f8be 71db c93e 773b 293e 85db 4c3e
000000b0: 75f1 26bd e41d 173e 2915 8c3e f5c9 a73e
000000c0: 01d8 d0be dbf3 bebd d375 81be 6cbd 1fbe
000000d0: e098 0f3e 5a28 edbe fb85 d03d cf8b 75bc
000000e0: 1e2e 82bd 1727 ce3e acc9 d0bc 43a6 143e
000000f0: bae2 a73d f973 88be bb7a c8be a751 80be
00000100: 5d84 c9bd 7b01 0dbe 4302 97be 28e3 c63e
00000110: f26e f53d 502e 7e3e e1c8 fe3d 109f 973e
00000120: e340 bcbd 34a8 b93e 60bc 523e 9fd8 af3e
00000130: 3ac6 e7be 8f2d 01be 1a43 02bd 5b77 8a3e
00000140: e163 c53e 9084 7f3e 423c 0ebe 0faa 553d
00000150: 0181 8fbd 7e94 de3e b2c7 823d e23a e73e
00000160: 8fd7 bd3e 4eaf 673d 25ea e53e a4d3 0ebe
00000170: 39a0 babe 4c53 bcbe 3604 44be f478 263e
00000180: 60fe a83d b2db d33e 16a3 783d 307d d33e
00000190: 9e8b a5be 52ed 1bbe 7ddf 8bbe 353d ba3d
000001a0: b708 c43d d726 cc3e 2091 d33e 7b3c b73d
000001b0: 5272 d43e 0b80 7a3e 7418 e13e 840f 9cbe
000001c0: 5317 31be 943d f3be c270 483c 1449 bebe
000001d0: 87d6 52be f570 273e 283d 97be 623f 153e
000001e0: 1f63 193d b3ba f1be 26cd d4be 4cec 423e
000001f0: 2ddf 10bd 0c09 e43e c992 cbbe c1f2 d93e
0.48386556 0.048188735 0.30447352 -0.41510403 0.39404035 0.41703823 0.5003549 -0.018432464
-0.188932 -0.06925792 -0.11976728 0.4164173 -0.13634221 0.33334285 -0.33223924 -0.35225812
0.27548152 -0.10600296 0.50825876 -0.4108323 -0.06654836 0.33233222 0.3766205 0.045197167
-0.22056736 -0.11566339 -0.1895989 -0.4195403 0.22401904 -0.44805726 0.06626563 0.42062795
0.32680383 -0.38754457 -0.43749034 -0.41649866 0.42861515 -0.022719158 -0.30763188 0.28201434
-0.48509547 0.39425233 0.1652659 0.20005615 -0.040757615 0.14757496 0.27359894 0.32771268
-0.40789798 -0.093238555 -0.25285205 -0.15599602 0.14023161 -0.46319848 0.10181805 -0.014986946
-0.063564524 0.40264198 -0.02548679 0.14516549 0.081975415 -0.2665098 -0.39156136 -0.25062296
-0.098396994 -0.13770096 -0.29493913 0.3884518 0.11984052 0.24822354 0.12440658 0.29613543
-0.09192064 0.3626114 0.20579672 0.34344956 -0.45268422 -0.12615035 -0.031802274 0.27044186
0.38552764 0.24952912 -0.13890174 0.052164134 -0.070070274 0.43472666 0.06385745 0.45162112
0.3707852 0.056563668 0.449052 -0.13947922 -0.36450365 -0.367823 -0.19142231 0.16257077
0.08251643 0.41378552 0.060702406 0.41306448 -0.32333082 -0.1522725 -0.27318946 0.090937056
0.09571975 0.39873382 0.4132166 0.089470826 0.4149347 0.24462907 0.4396397 -0.30480587
-0.17294054 -0.47507918 0.012233915 -0.3716513 -0.20589648 0.16351683 -0.29538846 0.1457496
0.037448045 -0.47212753 -0.41562766 0.19035453 -0.035369087 0.44538152 -0.39760426 0.4256802

weight f4 [2, 128]
00000000: 98bf 89bd b9ff d4bd 84c2 9d3c d706 663d
00000010: f281 b4bc 7064 523d 97a1 693d a3b8 b0bc
00000020: 6846 9b3d ae61 433d 4c0c 93bc f25e 97bd
00000030: 57e7 603b 0aca c5bb dc1a 31bc 5183 d73c
00000040: 0aa2 cbbd 40c7 3d3d a4f6 ee3d 68d0 82bd
00000050: 2ddf 2a3d cc38 d53c a1b6 9b3c 7dcc b43c
00000060: 3cbb bc3d 8735 d53c c9d5 4fbc 14ed 663d
00000070: 2113 0abd 7ec4 e33c 0142 7cbc f5e4 babd
00000080: 113d 7bbd 422f 48bd cf01 3c3d 752d 863d
00000090: 7e77 9ebc c20b 1d3d 78a8 afbc 88aa 983c
000000a0: 75e1 74bd c5bb 26bc 63de ac3d b233 71bc
000000b0: 31ab f63c 0c9b ffbd 5a18 a23b 129a 37bd
000000c0: 511f 4f3d 8c90 7c3c 5dc9 6d3d 1334 8c3d
000000d0: 0f7e 1fbd 09aa e03c 7563 0f3c 4902 4fbc
000000e0: 0df0 6d3d ab0e 343d af6c f4bc f355 cabc
000000f0: b87e 103d 44bc febc 81b0 26bd a6be 8e3d
00000100: dbe4 793b 2b69 bcbd 4abb d53c 9e3c 0f3d
00000110: 776b 513c d332 b6bc ca47 633c 62c8 a1bd
00000120: 6861 9bbd 5fb5 60bd 9d65 723d 357b 89bd
00000130: bdac 4dbd 47de 893c d0f8 d43d 81e7 583d
00000140: d772 ed3d f239 4f3d c25c 8bbd 7419 34bd
00000150: 7414 a43d e1d5 3e3d e1d8 bbbd 7b93 4c3d
00000160: 7ec7 3ebd e951 b63d 7fb0 4f3d 50da 62bc
00000170: 94fe 593c 69d6 c6bd 9a59 30bd 497d 423c
00000180: abb5 ccbd a2d8 afbd afcd f03b 4abe 85bd
00000190: 79fb 01bc f2ef 3c3d d1fe 473d 623f e3bd
000001a0: c3a7 eabb 8f9a e63c 71c9 e33d 1a6f 893c
000001b0: 571a 2f3c 96d7 72ba 969a 453d 3c9f 47bd
000001c0: 9984 f8bc 5f85 0bbd a035 c23d 0d86 413d
000001d0: 1836 89bd 03ff f1bb 5dd2 08bc 1896 a53b
000001e0: 5ead e7bd cc96 b9bc 5024 803d cb1f 903d
000001f0: e2cb 3c3c 2ba5 8e3d 712c 00bd 6b36 68bd
00000200: 90af 983d fc87 163d b1ff 47bd d6b8 8e3c
00000210: 3288 8d3d a9e0 d5bd 2d58 db3c bcda 92bd
00000220: a6d1 193c 1a6a 813d b0a3 103d 4320 ef3d
00000230: 02cb fdbc d573 7c3d 632e 6b3d 1d9b 88bd
00000240: 8a4f c43d 9a98 8bbd 6db1 013d b689 523d
00000250: e189 51bd e3be 9e3c df41 623d 4d4f dcbd
00000260: f650 d3bc 7b81 1fbd f47c 3fbd 5555 2fbd
00000270: 3607 293d cedc 8f3c ea72 9b3c 3e2f ddbc
00000280: 709d f7bc 814a 63bd b129 53bd c0d1 893d
00000290: b641 c7bd 42b8 44bd 2f5b b23c 691a e83d
000002a0: d672 40bc c89c 5fbd 9e88 b6bb 1f95 a93d
000002b0: ba91 90ba 717c 9b3d c112 9d3d bf6d a1bd
000002c0: 5797 713d a1ab abbc 3715 57bd 18ba 0b3a
000002d0: 702c e03d 4e2d 80bd 0de8 b93a 3a3a ea3b
000002e0: 708b 663d 5a6a dd3b 159b f4bd 8f53 463d
000002f0: 6d12 9f3c ad9a 47bb 13b3 9b3d 99dd 2a3d
00000300: a6f9 c8bd 1762 593d 53f3 753c 8c75 0cbd
00000310: fe3f 74bc 4160 343d f76f e93d f463 03bc
00000320: fa2c 913d 2b56 133d fab7 74bd a526 78bc
00000330: a01e 013d 922d 34bd 71b5 c3bd d2e7 ae3c
00000340: 75c7 4d3d f7da 91bc 49de 62bd 7d74 843c
00000350: 0c6c edbc a139 ad3d b75c 9c3d 6199 5abd
00000360: f252 8fbd 6920 a63c 36d8 27bd 9ad6 c3bd
00000370: d0a2 94bd 93ea 563d 7fcd 293d 338f 33bb
00000380: cedd e73c 5301 c3bb 05d1 b5bd 36d4 87bb
00000390: 3ba3 56bd ced2 333d a803 a4bd 29f3 403d
000003a0: 99ec 0fbd 0f93 31bd 61ec 03bd 3237 e8bd
000003b0: f306 9a3b 3ad2 ea3d 3fcd 98bc e4df 41bc
000003c0: 4866 6bbd 0af0 023d fe0c a3bd 6181 64bb
000003d0: eb42 933d cc50 86bc b1bf 0bbc 37ab 5a3d
000003e0: d3b2 bf3c d3ec 91bb 7ac9 9bbd d8c2 b93a
000003f0: 90ac c43b ef79 083d a307 8dbd bbde 3abd
-0.06725997 -0.10400338 0.019257791 0.056158867 -0.022034619 0.051365316 0.05703887 -0.021572417
0.07581788 0.047700576 -0.0179502 -0.07391156 0.0034317577 -0.006036048 -0.010809626 0.026307734
-0.09943016 0.046332598 0.11668137 -0.063874066 0.041716743 0.02602806 0.019007983 0.022070164
0.092153996 0.0260265 -0.012685248 0.05637844 -0.03370965 0.027803656 -0.015396596 -0.09125701
-0.061337534 -0.048873194 0.045900162 0.06551639 -0.019344088 0.03834129 -0.021442637 0.018636003
-0.059785325 -0.010176604 0.084408544 -0.014721798 0.030110927 -0.12480745 0.0049467506 -0.044824667
0.050566975 0.015415322 0.058053363 0.0684587 -0.03893858 0.02742483 0.00875174 -0.012634822
0.05809026 0.0439593 -0.02983698 -0.024699187 0.0352771 -0.031095631 -0.04069567 0.06969957
0.0038130793 -0.09199747 0.026090283 0.03496992 0.012781969 -0.022241032 0.013872096 -0.07899548
-0.07586938 -0.05486047 0.059178937 -0.06712953 -0.050213564 0.016829623 0.1039902 0.052955154
0.115941696 0.05059237 -0.068048015 -0.043969586 0.080117136 0.04659069 -0.09172226 0.049945336
-0.04657697 0.08902342 0.05070543 -0.013845995 0.013305325 -0.09708864 -0.0430542 0.011870691
-0.09995588 -0.08586241 0.007348738 -0.065304354 -0.007933491 0.046127267 0.048826996 -0.11096074
-0.007161112 0.028149871 0.11122406 0.01677661 0.010687432 -0.0009263692 0.048243128 -0.048735842
-0.030336665 -0.03406274 0.094828844 0.04724698 -0.06699771 -0.007385136 -0.008350936 0.005053293
-0.11312364 -0.022654913 0.06256926 0.07037314 0.011523219 0.06965097 -0.031292383 -0.056692522
0.07455361 0.03675078 -0.04882783 0.017422121 0.06910743 -0.10443241 0.026775444 -0.071706265
0.009388363 0.063190654 0.035312355 0.11676075 -0.03098059 0.061633904 0.057417285 -0.066702105
0.09585483 -0.06816216 0.031663347 0.051400863 -0.051156882 0.019378131 0.0552386 -0.10757313
-0.025795441 -0.03894184 -0.046750024 -0.04280599 0.041266643 0.017561343 0.018975694 -0.027000066
-0.03022644 -0.055490974 -0.051553432 0.0672946 -0.0972933 -0.048027284 0.021771995 0.11333162
-0.011746129 -0.054592878 -0.0055704853 0.08280396 -0.0011029758 0.07592095 0.07669593 -0.078822605
0.05898222 -0.020955862 -0.052510466 0.00053301593 0.10945976 -0.06258641 0.0014183536 0.0071480544
0.05628532 0.006757063 -0.11943642 0.04841953 0.019417966 -0.0030457184 0.07602515 0.04171524
-0.09813242 0.05307206 0.015011626 -0.03429179 -0.014907835 0.044037107 0.11398309 -0.008019436
0.07088657 0.035970848 -0.059745766 -0.015145932 0.031523347 -0.04398877 -0.095560916 0.021350775
0.050239045 -0.017804606 -0.05538777 0.016168827 -0.028982185 0.084582575 0.076348715 -0.05336893
-0.069982424 0.020279126 -0.04097768 -0.095624164 -0.072576165 0.0524698 0.041455742 -0.0027398586
0.028304007 -0.0059510856 -0.08877758 -0.0041451706 -0.052401762 0.04390221 -0.0800851 0.047106896
-0.035137746 -0.043353137 -0.03220785 -0.11338653 0.0047005354 0.11465879 -0.018652556 -0.011833165
-0.05747059 0.0319672 -0.079614624 -0.0034867155 0.07190498 -0.016395949 -0.0085295895 0.05338594
0.0234007 -0.0044532805 -0.07606788 0.0014172448 0.0060020164 0.03331941 -0.06886222 -0.04562257

bias f4 [2]
00000000: 8bd3 7f3d 1a1c b43c
0.062457602 0.021986056
