model/RF_model_0.pt (torch, 6321 bytes, 4 tensors)

weight f4 [128, 4]
000000 30 d6 82 3e 57 2e f0 be f0 8b 00 be 7f 27 a0 3e
       0.25554037 -0.46910354 -0.12553382 0.31280133
000010 19 3d 86 be 06 02 e6 be 0f 7e e0 3e a3 ba df 3e
       -0.2621849 -0.4492342 0.43846175 0.4369708
000020 4a a2 e4 be e7 ad 04 3f 4f 7c c2 bc ab b5 da bd
       -0.44655067 0.51827854 -0.023740916 -0.10679182
000030 c9 84 a9 be 83 ba d4 be c9 b1 23 3e 73 67 e1 bd
       -0.3310912 -0.41548547 0.15985788 -0.110060595
000040 96 39 c9 3e 86 2c 1b 3e a4 f7 73 3e b6 c4 50 bd
       0.39301747 0.15153703 0.23824936 -0.05096885
000050 ac 13 5a bd 88 b5 c9 be f1 51 f5 3e 71 2b a2 3e
       -0.053241417 -0.3939631 0.4791408 0.31673768
000060 db b9 ba 3e 1f 33 e8 be bb a5 be 3e d5 a2 01 3f
       0.3646992 -0.45351502 0.37235817 0.50639087
000070 9d d8 fe 3e 2f 05 79 be 36 4b 0e be 0c 31 b4 3e
       0.49774638 -0.24318384 -0.13895878 0.3519367
000080 d5 c3 f2 3e eb b0 4d 3d 4e ed 45 3e 24 f4 24 3e
       0.47415033 0.05021755 0.19328806 0.16108757
000090 b6 3b cc 3e 48 85 77 3e 87 e6 1e be 57 d1 06 3d
       0.39889306 0.24171937 -0.15517627 0.032914486
0000a0 43 fd 35 bd 5d 41 b2 3e 06 38 ff be fd 12 d7 bd
       -0.044430982 0.34815493 -0.4984743 -0.105016686
0000b0 31 96 cb 3e 47 21 63 be 29 c1 de be 50 86 56 be
       0.39763024 -0.22180663 -0.43506745 -0.20949674
0000c0 e9 77 d1 3e e0 57 4c be b1 6b 96 be ec c6 00 be
       0.40911797 -0.19955397 -0.29379037 -0.12575883
0000d0 c4 58 48 be 7a 29 06 bf 6e fb e0 3e 20 75 53 3e
       -0.19565111 -0.5240704 0.43941826 0.20650148
0000e0 4c 7e ad be 67 60 00 bf f8 d7 01 3e 98 0a c5 3d
       -0.3388542 -0.501471 0.12680042 0.09621161
0000f0 74 47 8a 3e 03 6d 32 be 49 69 bc 3e bf 60 18 3e
       0.2700764 -0.17424397 0.36799076 0.14880656
000100 96 ee 01 be 4f d3 21 be ee 7a e2 bd 96 be 6c be
       -0.1268867 -0.15803264 -0.11058603 -0.23119578
000110 df dc ec bd 35 1c bd be 74 5a 86 3e 8a 99 cd 3e
       -0.11565565 -0.36935583 0.26240885 0.40156204
000120 a1 20 95 be 2c b7 8d bd 45 93 50 3d a9 24 a4 3e
       -0.29126456 -0.06919703 0.050921697 0.3205922
000130 23 7d 52 3d a9 a0 ce 3e 6c fd 6e 3e 41 73 57 3e
       0.05138887 0.4035695 0.2333886 0.2104006
000140 88 be 7f be 52 b1 c1 be fb 6a 93 3e 49 64 91 be
       -0.24975026 -0.37830597 0.28792557 -0.28396824
000150 d8 f7 dd bd e7 ac 34 3e e2 43 c4 bc 76 c7 ae 3e
       -0.10838288 0.17644082 -0.02395815 0.34136552
000160 1b f8 a8 bd 7d 03 91 be 5a 5c 5d 3e 50 ce bd 3e
       -0.08250447 -0.28322974 0.2161726 0.37071466
000170 c1 94 a7 be dd 54 41 be 8f 52 b7 bd b3 f0 1f be
       -0.32730678 -0.18880029 -0.08951294 -0.15619163
000180 51 64 8b 3e bf 96 6a 3e 4d 87 05 3f 20 97 c6 be
       0.27224973 0.22909068 0.5215958 -0.38787174
000190 73 50 05 be 35 ec 7f be 13 a6 a6 3e f3 94 ed 3e
       -0.1301897 -0.2499245 0.3254858 0.46402702
0001a0 49 97 70 3e 55 ff e0 be e0 04 fb 3d 15 55 9d 3e
       0.2349521 -0.43944803 0.12256789 0.30728975
0001b0 38 c6 6e 3e 6f 27 a1 be 7b bb ef 3e 9e 14 eb be
       0.23317802 -0.31475398 0.46822724 -0.45914167
0001c0 5f 20 82 3d 5b b1 4d 3e 57 2c 2d 3e cb 6a ce bd
       0.063538305 0.20087187 0.16911446 -0.10078963
0001d0 63 d9 49 3e ce 6b e9 3d 2d 6f 74 3e 6b 22 0c 3d
       0.19711833 0.11397515 0.23870535 0.03421251
0001e0 46 b0 22 3e f1 f1 b8 be b3 b9 fb be dd 3b a3 bd
       0.15887555 -0.36122087 -0.49165115 -0.079704024
0001f0 85 cc c2 3e 34 cf 94 be 40 00 72 3d b3 17 31 3e
       0.3804666 -0.29064333 0.05908227 0.17294197
000200 fa 1f df 3c c5 d2 f4 bd b8 5d 8d 3e 8b ab 75 be
       0.027236927 -0.119542636 0.27610564 -0.2399122
000210 8a d5 93 3e 7d 49 e3 be 23 2e 66 be f7 04 ed bd
       0.28873855 -0.44392005 -0.22478537 -0.115732126
000220 99 23 92 3d 7a 6a f9 bd 11 14 d5 3e 2b 02 dc 3e
       0.07135696 -0.12178512 0.41616872 0.42970404
000230 c4 ea 81 3e d5 42 40 3e 6c 98 aa bc dc c4 c8 bd
       0.25374424 0.18775494 -0.020824634 -0.09803173
000240 7c db 9b be cc 96 1e 3e 20 46 c0 3e 00 48 ac 3e
       -0.3044089 0.15487212 0.375535 0.33648682
000250 f9 1c e4 3e 61 af 0b 3e c6 b6 80 3e 74 bf f5 be
       0.44553354 0.1364112 0.25139445 -0.4799763
000260 3f da 1f 3e 3a f2 01 bf e3 b9 d3 bd 6b 7f 69 3d
       0.15610598 -0.50760233 -0.103381895 0.05700628
000270 1f f0 a5 be d9 0b 95 be 95 ea 01 bf 00 ef 40 be
       -0.3240976 -0.29110602 -0.5074857 -0.18841171
000280 5c 68 b4 3e 98 55 6d 3e 6d 96 84 3e 6a c4 c9 be
       0.3523587 0.23177183 0.25896016 -0.39407665
000290 60 48 99 be 05 5c b2 3b f4 e6 f9 be 7b 2c 6c bd
       -0.2993803 0.0054430985 -0.48809016 -0.057659607
0002a0 29 72 85 3e 23 7e d8 3e 68 16 07 3e 3c 9b 00 bf
       0.2606366 0.42283735 0.13192141 -0.5023687
0002b0 c6 91 88 be 6c 8e c6 3e c9 61 6d 3d 55 06 b5 be
       -0.26673716 0.38780534 0.057954583 -0.35356393
0002c0 c7 1e 2a 3c c2 1f fb be bd e6 9b bd 94 42 f5 bc
       0.010383314 -0.49047667 -0.07612369 -0.029938973
0002d0 9d 20 3d 3d e0 6e d1 3e b0 a3 8d 3d 8a 42 d5 3e
       0.04617368 0.40904903 0.069159865 0.41652328
0002e0 66 54 5c 3e 2a 41 01 3e 96 cc cc be c6 6e b5 3e
       0.2151657 0.12622514 -0.39999837 0.35436076
0002f0 90 6d a4 bd ec 28 53 3e 84 4f 08 be 56 b9 ad 3e
       -0.0802871 0.20621079 -0.13311583 0.33930463
000300 16 6d a1 be bd a3 e3 be bf d7 9a 3e 18 43 0c 3f
       -0.31528538 -0.4446086 0.30242726 0.54789877
000310 3d 78 05 3f 88 dc a4 3e 68 cd 93 3e c3 99 dd be
       0.52136594 0.32199502 0.2886765 -0.43281373
000320 1c 21 4e 3e e7 b7 c1 3e 68 9f ae 3e 75 33 10 be
       0.20129818 0.3783562 0.34105992 -0.1408213
000330 85 4a 0e 3e 21 58 f0 3e d3 06 9c bb 14 55 06 bf
       0.13895614 0.46942237 -0.0047615557 -0.5247357
000340 9b 4e ba be fd e9 b8 3e d0 9a 23 3e d3 fb c1 bc
       -0.36388096 0.3611602 0.15977025 -0.02367965
000350 63 d9 d8 3e 24 d4 20 be 8e 30 04 bf c3 78 b7 be
       0.42353353 -0.15705925 -0.5163659 -0.3583432
000360 5a 62 52 3e f0 f6 e7 3d a3 ea c9 3e fa 6c e8 be
       0.2054533 0.113263965 0.39436826 -0.45395643
000370 d1 5c ea 3e 2a 87 fe 3e dc 0b 92 be 6a 48 0f be
       0.45773938 0.49712497 -0.28524673 -0.13992468
000380 87 69 a1 3e c1 13 f0 3e fd d5 8e 3e a9 f1 cf be
       0.31525823 0.4689007 0.27897635 -0.4061406
000390 49 95 a0 3e f6 f3 e9 3e f4 c1 74 bd 84 d2 ba be
       0.31363896 0.4569394 -0.05975528 -0.36488736
0003a0 cb 5e d4 be dd 68 5d be d7 02 8f be e7 ae b5 3e
       -0.4147857 -0.21622033 -0.27931854 0.35485002
0003b0 94 1e 9f be 3c 5e cb 3e c0 1e 23 3c 6c 14 5a 3e
       -0.31078017 0.39720333 0.009956062 0.21296853
0003c0 8a 55 e3 be ee 9b 6c 3e 3b ad 8f be b8 53 bc be
       -0.444012 0.23106357 -0.28061852 -0.36782622
0003d0 c5 83 39 be a9 28 a2 be 98 0a ea 3e 99 82 fe bc
       -0.18116672 -0.31671646 0.45711207 -0.031068133
0003e0 09 b1 ae 3d 2b c6 f0 3e 62 b1 33 3d 16 76 ea be
       0.085298605 0.4702619 0.043870337 -0.45793217
0003f0 d5 c3 a8 be 39 c1 88 3e f1 b6 c0 be 57 14 9d be
       -0.32961908 0.26709917 -0.37639573 -0.3067958

bias f4 [128]
000000 98 c2 aa be 81 50 f6 bd 7c ca 75 be 54 a8 06 3e
       -0.33351588 -0.12027074 -0.24003023 0.1315015
000010 7d ad d2 3e 9c 83 0b be 95 f3 79 3e 63 0d 0f 3e
       0.41147986 -0.13624424 0.24409325 0.1396995
000020 ba 7a f8 be 2b 3d 5a 3d bd a2 67 3d 61 bf 2b be
       -0.48531133 0.05328099 0.056551684 -0.16772224
000030 81 85 a0 be d1 b2 06 bd 7b ab 11 3b 79 ef f9 be
       -0.31351855 -0.032885376 0.0022227454 -0.48815516
000040 d6 69 e2 be a0 62 8b be fa 3c 35 3e 8d 49 dc 3c
       -0.4422137 -0.27223682 0.17699042 0.02689054
000050 8a 1d dc 3b 55 8d b1 3e 64 9e de bd 6e 73 b5 be
       0.0067173885 0.3467814 -0.10870054 -0.35439628
000060 d1 ee 57 be 37 73 f0 be 55 e4 ae 3c f4 b7 b4 bd
       -0.21087195 -0.46962902 0.021349112 -0.08824149
000070 4b 7c 81 3d 3c 44 f2 bd 7a 25 f3 be b5 16 a8 bc
       0.06322535 -0.11829421 -0.4748953 -0.02051864
000080 3a 61 40 3e 04 9d d1 be a4 93 e4 3e 74 4a 8f 3e
       0.18787089 -0.40940106 0.4464389 0.2798649
000090 8c a1 93 3e 54 ff 50 3e 94 65 a2 bd 08 e5 99 be
       0.28834188 0.204099 -0.07929531 -0.3005755
0000a0 10 95 c3 be c7 10 15 3e 1f c9 db 3c 23 16 35 3d
       -0.38199663 0.14557181 0.0268293 0.044210564
0000b0 01 3c f2 3e 4e 4e f3 3e 4f 48 dd bb d4 7d 8c 3e
       0.47311404 0.4752068 -0.0067530046 0.2743975
0000c0 2c 2d b2 3c 44 99 dd bd dd cb b2 bd 55 97 1c be
       0.021750055 -0.10820249 -0.0873029 -0.15292104
0000d0 18 7f 81 3e 43 12 a2 be 7f 8b 9f 3d 7d 74 3f be
       0.25292277 -0.31654558 0.07790279 -0.1869678
0000e0 63 4e a8 3e be cf 01 bf c4 93 5b be 82 99 fb be
       0.32872304 -0.50707614 -0.21443087 -0.49140555
0000f0 8c 75 df 3e 3f ea f6 bd b2 c2 d0 be 52 67 c4 be
       0.4364437 -0.12056398 -0.4077354 -0.38360077
000100 b9 8c 9c be dd 78 67 bd dc ca a4 3e 6d a7 ab 3e
       -0.30576113 -0.05651175 0.3218602 0.33526173
000110 0e 09 0d bc 22 55 41 3e ae 9b b8 be 58 f8 e6 be
       -0.008608116 0.18880132 -0.36056274 -0.45111346
000120 fb c8 a1 3e f0 97 a8 3d 0a bc 9c be c1 44 ee be
       0.31598648 0.08232105 -0.30612212 -0.4653683
000130 e3 36 de 3e b2 46 d4 bd f2 1a f9 3e aa f9 d9 3d
       0.4340125 -0.103650466 0.4865337 0.10643323
000140 16 97 8d 3e d9 17 4c be 05 e4 d8 bd 7d 0e 1e 3e
       0.27654332 -0.19930972 -0.10590366 0.15435214
000150 65 5a ca 3e 0a 4c e1 3e 69 88 df 3e d7 5a cd 3e
       0.3952209 0.44003326 0.4365876 0.40108368
000160 e4 12 eb 3e 5c 02 70 be 26 40 96 be 69 6d 85 bd
       0.4591285 -0.234384 -0.29345816 -0.06515009
000170 9b d8 c4 3e 96 58 64 3e 40 4d ac 3e e4 60 c8 3e
       0.38446507 0.22299418 0.33652687 0.39136422
000180 29 7c 9b 3e 33 c6 90 be bd cb a1 be 0c 61 cc be
       0.30368164 -0.28276214 -0.31600752 -0.3991779
000190 10 08 37 3e 2c f5 1a be 3e b6 21 be de 1a fd 3d
       0.1787417 -0.15132588 -0.15792176 0.1235864
0001a0 85 d9 2e be 34 ee 9e 3e d8 0d f9 bd 52 a7 01 3f
       -0.17075165 0.3104111 -0.121608436 0.50645936
0001b0 90 89 d6 be db 55 eb 3d ee 90 3a 3d 4d 38 97 be
       -0.41901827 0.11490985 0.045548372 -0.29535142
0001c0 d6 85 c1 be d5 07 bd 3e 37 9d 77 be bc 5b f5 3d
       -0.3779742 0.36920038 -0.24181066 0.119803876
0001d0 14 d4 ab 3e aa c3 e7 be 30 d7 ff be ca b3 7f be
       0.3356024 -0.45266467 -0.49968863 -0.24970928
0001e0 ea 51 15 be 45 27 e4 bd 25 b9 7e be 38 d9 1e 3e
       -0.14582029 -0.111403026 -0.24875315 0.1551255
0001f0 63 94 79 3e 1e 8e 01 be 8e d4 92 be 5a 57 4d 3d
       0.24373011 -0.1265187 -0.2867779 0.050132133

weight f4 [2, 128]
000000 bc 4e 12 bc 8b b0 13 bc 10 30 9c 3c 7f 2f c7 bd
       -0.008929905 -0.009014259 0.019065887 -0.09725856
000010 9c aa d7 3b 44 24 ff bd 36 a0 1d 3d 13 c2 a2 bd
       0.0065816175 -0.12458089 0.038482867 -0.07947173
000020 cd fe 59 3d 32 48 a7 3d 81 6d 25 3c 68 94 bf 3d
       0.053221513 0.08168067 0.010096909 0.09354478
000030 81 e4 e7 bb e5 22 e9 bd 32 6c 10 bd ae d5 5d 3d
       -0.0070768003 -0.11383609 -0.035259433 0.05415886
000040 64 c4 23 bd 51 06 11 3d 06 98 77 3c 02 64 82 3d
       -0.039982215 0.035406414 0.015111929 0.06366731
000050 c2 b2 51 bd ce ca 9c bc c2 44 8c 3c 95 14 31 3c
       -0.051195867 -0.019139674 0.01712263 0.01080813
000060 31 a5 5b bd 22 3d a8 bd b8 31 2a 3c 35 ff 5f bc
       -0.053624336 -0.08214785 0.01038783 -0.013671686
000070 34 5a 9d 3c c3 8c 1e 3d 56 44 eb bb f5 02 43 bc
       0.019208051 0.03870846 -0.007179777 -0.0119025605
000080 e9 2f 2a 3d 93 e0 da 3c aa 9f f4 bd cd ec 52 bd
       0.041549597 0.026718413 -0.11944516 -0.051495362
000090 b2 7c 53 3b af 1b 6c 3d 21 63 a9 bd fd 59 7e 3c
       0.003227037 0.05764359 -0.082708605 0.015524385
0000a0 26 53 85 3c ce 28 bd 3d 70 bd 8c 3d f9 99 95 3d
       0.016275 0.092362985 0.0687207 0.073047586
0000b0 c5 67 2c 3d c0 35 2d bd 29 c5 d1 39 d5 01 7b bd
       0.04209115 -0.042287588 0.00040010482 -0.061281044
0000c0 ea f2 c1 bd 5e 30 5d 3b 83 a6 e0 3d 3b e4 c0 3d
       -0.0947016 0.0033750753 0.109692596 0.094185315
0000d0 00 ea d9 bb 17 f6 55 3d 0d 64 b7 bb c6 7a d6 3d
       -0.0066502094 0.052236643 -0.005596644 0.10472636
0000e0 69 e2 f4 3c 79 bb 57 bd 0e 10 cf bd 85 0a b2 3d
       0.029893117 -0.052669022 -0.10110484 0.08693413
0000f0 de 1d bc 3d b6 1c 20 bd c7 91 93 bc 1f 03 55 bd
       0.09185384 -0.03908988 -0.018013848 -0.05200493
000100 08 f6 93 3d ea a9 53 3d 25 1d 73 bd 04 4b 99 bd
       0.07224661 0.051675715 -0.059353966 -0.07485011
000110 c3 f3 a0 bc 6c dd b2 3d 5e 0b 8c 3b 28 d3 87 bc
       -0.019647485 0.08733639 0.004273816 -0.01658018
000120 80 1f 89 3d 66 6d ed 3d 3e 9e 72 bd 3e 80 21 bd
       0.06695461 0.11593132 -0.059232943 -0.039428942
000130 f6 5d 1d 3d ca f6 b1 bd b5 c5 b4 bc 1c 4c 49 3d
       0.038419686 -0.086896494 -0.02206693 0.04914485
000140 f8 56 23 bd 66 47 5c 3d 62 be 41 3d 43 41 ff bb
       -0.03987786 0.05377903 0.047300704 -0.007789762
000150 f2 1c fd 3c 35 5d 3e 3c 10 b4 84 bd d8 f9 29 bd
       0.030897591 0.011618902 -0.06479657 -0.041498035
000160 68 36 5b 3b 66 c5 c4 bd 59 63 7c bd 83 96 8f 3d
       0.0033449177 -0.09607963 -0.061618183 0.0701113
000170 58 09 ad bc cb 90 d0 bd 6a d5 f7 bc bf cc 48 3b
       -0.02112262 -0.10183867 -0.030253131 0.0030639616
000180 ad a3 3c 3a 5b fe 0f bd ad d4 8b 3d 93 65 75 3d
       0.00071960205 -0.03515468 0.06827674 0.05991132
000190 81 c4 cf 3d 5e d5 a0 bd 15 ed 99 3d 88 a3 b2 b8
       0.10144902 -0.078531966 0.07515923 -8.5181615e-05
0001a0 34 99 cb 3d b8 23 12 3d 25 7d e3 3a ae fc 23 3d
       0.099413306 0.035678595 0.0017356022 0.040035896
0001b0 a3 59 c5 3c 64 16 88 3b 33 5d 32 bd 77 c5 53 bd
       0.024090594 0.00415306 -0.043545913 -0.05170199
0001c0 58 fe 78 3d 65 79 2b 3d c8 be ef bd 85 2a 50 bd
       0.060789436 0.041863818 -0.117063105 -0.0508218
0001d0 2e 90 b8 ba e2 40 46 3d bb dc 2b 3d ed 60 59 bd
       -0.0014081055 0.04840172 0.04195855 -0.05307095
0001e0 8f 29 e9 3b 33 04 f0 3c f9 25 c0 3c 90 b1 46 bd
       0.00711555 0.029298877 0.023455607 -0.04850918
0001f0 cc c5 75 bd bf 0d 6b bd 89 62 93 bd 8d 12 89 3c
       -0.060003087 -0.057386156 -0.071965285 0.016732479
000200 f6 9f 14 3c a9 e6 fc bc 36 e4 ab bc f1 3d 98 3d
       0.009071341 -0.030871706 -0.020982843 0.074336894
000210 70 f7 36 3d 6b 11 02 bd 62 09 de 3d 3b 16 47 bd
       0.04466957 -0.031754892 0.108416334 -0.048605185
000220 4c bb 02 3c bf 0d 03 bd fa c7 f3 bd dc bf 6a 3b
       0.007979225 -0.03199553 -0.11903377 0.0035819924
000230 d3 a6 90 3d f1 4d 30 bd b3 2a de 3d 71 37 82 3d
       0.07063069 -0.04304308 0.10847988 0.06358231
000240 b7 09 03 3c 16 f3 03 bd a6 f2 4e 3d 7d 27 25 bb
       0.007997922 -0.032214247 0.050524376 -0.0025200539
000250 91 8d 93 bd 0f 23 60 bd 23 01 88 3d 4c 2c 43 3d
       -0.07204736 -0.054720934 0.06640842 0.047649667
000260 0f f7 3a bc 7f f1 cb 3d 24 67 db 3d 6f d9 59 3d
       -0.011411442 0.09958171 0.10713032 0.053185876
000270 a8 11 91 bd 26 20 04 3d b2 06 38 3d bb 95 e0 3d
       -0.07083446 0.03225722 0.04492826 0.10966059
000280 79 cb ca 3c 39 ea d1 3c 13 52 ad 3d 92 7c 39 3d
       0.024755226 0.025624381 0.0846292 0.045284815
000290 00 31 cf 3d e9 84 4a bb 01 6f a2 3d 7f cc a7 bc
       0.10116768 -0.0030901975 0.079313286 -0.020483254
0002a0 64 5f cd bd b5 1c 35 3d 58 08 52 bd 6f e9 a6 bd
       -0.1002796 0.04421683 -0.05127749 -0.08149993
0002b0 4a 2b 97 3d 54 1c 74 bc 97 cf 54 3d d7 91 a7 3d
       0.073813036 -0.014899332 0.051955786 0.081821136
0002c0 3a aa ba bc 1d dd 92 bd 14 91 e7 3c 51 0a b7 bb
       -0.022786248 -0.0717108 0.02826742 -0.0055859466
0002d0 a4 fc 43 bc 2f 7d bb bc 12 34 30 bc 53 06 2b 3c
       -0.01196209 -0.02288684 -0.010754602 0.0104385195
0002e0 dc 76 55 bd b4 57 6f bd 96 4e 5e bd 72 6b 68 bd
       -0.052115306 -0.05843325 -0.054274164 -0.056743093
0002f0 98 ac c3 bd b1 85 8a bd a9 b9 a6 bc 1e 35 a4 3c
       -0.09554404 -0.06763781 -0.020352202 0.02004486
000300 3d c5 7e bd 9e 86 b8 bb a3 e7 d3 3c 1f f1 4a bd
       -0.06219982 -0.005631282 0.025867289 -0.049546357
000310 d0 5a 8e bd 09 47 eb bd 1f c0 c6 bd 0c 05 46 bd
       -0.06950915 -0.11488158 -0.09704613 -0.048344657
000320 a4 d0 4d 3d 51 c2 72 bc 58 ed 1c 3c 53 10 33 3c
       0.050247803 -0.014816836 0.009578072 0.010929185
000330 14 90 fb 3b ea 86 f6 bc e4 e9 c2 3a 16 11 2e 3c
       0.0076770876 -0.030093629 0.001487073 0.010624191
000340 f2 b5 86 bd 0a 66 1f 3d 3e 85 0d 3d 02 1e c0 3d
       -0.06577672 0.03891567 0.034550898 0.093807235
000350 dc c5 e4 3c 5f 8c 93 bd 15 73 ce bb e1 b0 11 3d
       0.027926378 -0.07204508 -0.00630034 0.035569075
000360 5b ce ef bd b0 e9 8a 3d d6 0b 8f bb 63 5b f8 bd
       -0.11709281 0.067828536 -0.0043654246 -0.12126806
000370 b0 01 a7 3d 02 21 8a 3d 3c da 6a 3c 91 e1 73 3a
       0.08154619 0.06744577 0.014334258 0.00093033264
000380 ba 62 f3 bd cc f4 d0 bc 79 b5 bc 3d 4d 9b 09 3d
       -0.11884065 -0.025507353 0.09214301 0.033595372
000390 9d be 60 bd 52 c7 c8 3d 4e a5 bb 3c 36 d8 a9 3b
       -0.054869283 0.09803642 0.022905972 0.005183245
0003a0 90 06 98 bd 9c 6b 79 bb 63 e3 42 bc 5e e9 27 bd
       -0.07423127 -0.0038058525 -0.0118950335 -0.04099404
0003b0 1c 71 d8 bd 51 b6 15 bd 2c 40 75 3c 58 0c af bd
       -0.10568449 -0.036550824 0.014968913 -0.08547276
0003c0 7b 77 09 3b d6 a2 c0 3d 59 90 d2 bc 38 e1 c0 3c
       0.0020975757 0.094060585 -0.025703596 0.023544893
0003d0 23 d7 82 bc 86 e1 8a 3d 6e a1 90 bd e0 82 22 3c
       -0.015971726 0.067812964 -0.0706204 0.009918898
0003e0 08 81 bd bd ae 0a b8 3d 19 68 5a bd 79 b8 8f bc
       -0.092531264 0.08986412 -0.05332193 -0.017544018
0003f0 cb a7 2d 3d ca 25 a0 bb 1c 96 c9 bc 38 d8 79 3d
       0.042396348 -0.0048873173 -0.02460771 0.060997218

bias f4 [2]
000000 86 2c e5 bb 72 54 42 bd
       -0.006993833 -0.047443815
