model/RF_model_1.pt (torch, 6321 bytes, 4 tensors)

weight f4 [128, 4]
000000 f3 f7 b7 be d9 32 a7 3d e3 bf 02 be d6 5f 37 be
       -0.35931358 0.08163995 -0.12768511 -0.17907652
000010 6b 17 9c 3e d2 cd 89 3e e8 ab cb bd 1d e4 95 3e
       0.30486616 0.2691484 -0.09944898 0.292756
000020 95 96 fb be 74 c7 97 be a0 a0 a6 3e 8c 59 5e 3c
       -0.49138322 -0.29644358 0.32544422 0.013571154
000030 5f fc 53 bc e0 8b e5 3e 7a 16 cf 3e b2 e2 a5 3e
       -0.012938588 0.4483328 0.40446836 0.32399517
000040 12 d9 90 be d5 05 cb 3e d9 f5 3a 3e ce 92 c5 bd
       -0.28290612 0.39652887 0.18257846 -0.096471414
000050 71 a1 d4 3d fa 37 90 3d eb 75 46 3e 3d 5f 2b bd
       0.10382355 0.07041927 0.1938092 -0.041838873
000060 7d 6f 91 be f8 53 af 3e a1 77 c7 be e5 05 b8 bd
       -0.2840537 0.3424375 -0.38958457 -0.08985499
000070 56 28 c9 3e b2 5f 6e 3d 43 da b4 3d 40 37 a6 be
       0.39288586 0.05819673 0.088306926 -0.32464027
000080 eb f9 23 3b 1c 02 b2 3e cc 04 a8 be ae b0 16 3e
       0.002502079 0.34767234 -0.3281616 0.14715835
000090 bb c0 b5 3e 13 16 74 3e 66 be e0 be 42 b2 de 3e
       0.35498604 0.23836546 -0.43895262 0.43495375
0000a0 33 1d 9e 3c af b7 ca 3e c0 b5 ba 3d e8 b2 ef 3e
       0.019301033 0.39593264 0.09116697 0.46816182
0000b0 3a 7f ff be c7 be ed 3e b7 36 b8 3e c9 1a ed bd
       -0.49901754 0.46434614 0.35979244 -0.115773745
0000c0 44 76 fd 3e fd 68 b4 be 3f ca ff 3e a0 44 57 bb
       0.49504292 -0.3523635 0.4995899 -0.00328473
0000d0 cc e0 09 3e 6c 27 3a be 60 00 e8 3c 64 58 35 be
       0.1346466 -0.18179101 0.028320491 -0.177095
0000e0 d6 e1 f3 be db 52 be be 0c fb 3e be d8 f1 8e 3c
       -0.47633237 -0.3717259 -0.18650454 0.017449304
0000f0 40 f1 54 bc 40 fe de bd 00 3a f7 ba 00 28 d3 3a
       -0.012996972 -0.10888338 -0.001886189 0.0016109943
000100 f0 e3 e5 3e 5d 89 78 3e dd 33 82 be 65 67 db bd
       0.44900465 0.2427115 -0.25430194 -0.1071308
000110 b8 fb e3 3c ca 78 d0 3e 15 ea c4 be a6 8f ea 3e
       0.02782999 0.40717155 -0.3845984 0.4581272
000120 93 cb e2 be f8 a7 5c be 21 4a a8 bd 9c 8e 7d 3e
       -0.4429594 -0.2154845 -0.08217264 0.24761432
000130 ae 0d 9a 3e 03 49 93 bd d4 59 6a bd 99 cc 02 bf
       0.30088562 -0.0719166 -0.057214573 -0.5109344
000140 c7 ff bf 3e a9 f8 7d 3e 55 a5 0c 3b 2d 82 86 be
       0.3749983 0.24801888 0.002146085 -0.2627119
000150 d7 51 8f 3e 6e 2c af be c3 b6 8a be bc 88 8c be
       0.27992126 -0.34213585 -0.2709256 -0.2744807
000160 ac f3 3d 3e c0 4b db bd 94 b4 58 3e 38 a6 dd bd
       0.18549985 -0.107078075 0.21162635 -0.10822719
000170 e9 cd a6 3e 81 f7 45 be 9f b8 96 3e 05 5d d6 be
       0.32578972 -0.19332696 0.2943773 -0.41867843
000180 ab 38 2a be 5f 14 bd bc 7d 20 75 3e f0 4a 81 3e
       -0.1662318 -0.023081003 0.23938175 0.25252485
000190 f5 08 2e be 0f 83 c6 bd a0 d1 60 bd 5e 9e 50 3e
       -0.16995604 -0.09692966 -0.054887414 0.20372912
0001a0 9a 7a 9b be 77 0e 96 be 73 a6 71 3e d4 eb e6 3e
       -0.30366975 -0.2930791 0.23598652 0.45101798
0001b0 9c e6 9f be 02 ab 89 be 18 de dd 3e 9b 1b be 3e
       -0.31230628 -0.2688828 0.43333507 0.37130436
0001c0 df 1f 79 be c7 e1 ba 3d dc ea 99 be 4f 84 d3 3e
       -0.24328564 0.09125095 -0.30061996 0.4131188
0001d0 e1 f2 8e 3e 7a 3c e5 3e 2c af cc bd 43 a4 d3 3e
       0.27919677 0.44772702 -0.09994349 0.4133626
0001e0 05 f4 5d be 98 62 82 be b0 ca c5 be de 9c 1e be
       -0.21675117 -0.25465846 -0.386312 -0.15489528
0001f0 03 96 82 be c0 9d 2f be 6d dd fc 3d 94 83 19 3e
       -0.25505075 -0.1715002 0.12346921 0.149916
000200 f1 95 66 be 46 de e0 3d f9 7c 06 bf 6e b5 9e be
       -0.22518136 0.10979895 -0.52534443 -0.30997795
000210 1c 70 80 3e 31 9e aa bd 3d 3b 82 3e 20 9d 53 be
       0.25085533 -0.08330954 0.2543582 -0.20665407
000220 72 42 bf 3e aa 56 e6 be 70 ee b1 3e 2c 6c b2 be
       0.3735538 -0.44987994 0.34752226 -0.34848154
000230 54 67 94 be 54 6f 01 bf b9 f0 b0 bd df ff fc 3c
       -0.28985083 -0.505605 -0.08639664 0.030883728
000240 99 78 78 3d 7c 27 f8 3d d5 05 6a bd 24 3f c8 3d
       0.060661886 0.12116906 -0.057134468 0.09777668
000250 ba 81 12 3e b9 f5 9f 3e 04 21 05 3f 58 65 c0 3e
       0.143073 0.3124216 0.520035 0.3757732
000260 de 2b 36 3e e3 52 4e bd 93 bd f6 3e 60 6d a7 3d
       0.17790172 -0.050372016 0.4819151 0.081751585
000270 88 cd e2 be 2b ea d3 bd 86 d5 9c 3d 89 ce c0 be
       -0.44297433 -0.10347398 0.07657914 -0.37657574
000280 f5 83 8f 3e 58 2e 1b bd 8a cf e2 3d 2e ac 79 3e
       0.28030363 -0.037885994 0.11074741 0.24382088
000290 7f 0a bd 3d c7 ff 8d 3e 8e c1 c2 3e 43 e9 b2 3e
       0.092305176 0.27734205 0.38038296 0.3494359
0002a0 80 cb fa be 6c 01 46 3e f0 a9 d2 be a0 10 40 3e
       -0.48983383 0.1933648 -0.41145277 0.18756342
0002b0 e8 31 f7 be 5f 66 e5 be a8 22 69 3d 8e 53 e2 3e
       -0.48280263 -0.44804665 0.056917816 0.44204372
0002c0 cc 9e 6a 3e 60 59 9f 3d 79 f7 f1 3e c7 c9 06 3f
       0.22912139 0.07780719 0.4725912 0.5265164
0002d0 e8 00 cc 3e 60 fa b9 be 6b 33 bb be e9 df f9 be
       0.3984444 -0.36323833 -0.36562666 -0.48803642
0002e0 fa f8 0c be de 3e 99 be 8a c4 d2 be ee 0a 5f bc
       -0.13766852 -0.29930776 -0.41165572 -0.013613446
0002f0 cf 9c 80 3d 73 8d a4 3e 51 c1 c0 3d 22 f1 59 be
       0.06279909 0.32139167 0.09411872 -0.21283391
000300 bb 7b bd be 52 e7 51 be 50 74 7d be be f8 cf 3a
       -0.3700846 -0.20498398 -0.24751401 0.0015866978
000310 b9 75 f8 3c cf 7f e7 bd 63 7b 75 bd 0c 7f 7f be
       0.030329572 -0.113036744 -0.059932124 -0.24950808
000320 f4 5c 7c be 92 8f de 3e 8b 67 d7 3d d6 f6 cf be
       -0.24644834 0.4346891 0.10517796 -0.40618008
000330 e2 9d 8a 3b 09 8a 3a 3e 19 36 62 be 84 97 05 bf
       0.004230247 0.18216719 -0.22090949 -0.5218432
000340 22 f1 ea be 59 74 c7 3e cf be ff be e7 f3 d2 3d
       -0.45887095 0.38955954 -0.49950263 0.10300427
000350 4d 65 14 3e 17 e7 ef be b6 38 cb be cd 64 fb be
       0.14491768 -0.46855995 -0.39691705 -0.49100342
000360 9a d8 b6 3e e4 29 d6 3e 48 01 0f 3e 25 40 32 be
       0.3571213 0.41828835 0.13965333 -0.17407282
000370 d4 3b 01 3f 3c 5c de be e0 ce cb be 77 ce 33 3e
       0.50481915 -0.43429744 -0.3980627 0.17559229
000380 9d a1 cb be f2 3b e8 bd a1 16 a8 be 65 05 3b bc
       -0.3977174 -0.11339559 -0.32829764 -0.01141486
000390 93 5f 59 3e bf 5c fb be 94 3d 47 be 5a 96 8e 3e
       0.21227865 -0.49094197 -0.19457084 0.27849084
0003a0 73 75 46 3d 39 af 11 3e 3f ec 2e be 93 d7 ae 3e
       0.048451852 0.14226998 -0.17082308 0.34148845
0003b0 ce 16 ad 3e 68 3b e3 3e d7 db 2e be ac 43 8c be
       0.3380646 0.4438126 -0.1707605 -0.2739538
0003c0 fb 3c e1 be d3 e9 9c be 67 6f e5 3e 88 1b 0b bf
       -0.43991837 -0.30647144 0.44811556 -0.54338884
0003d0 ce 8a bc 3e 38 b9 20 3e 3f 15 04 3d 42 ff 9e 3e
       0.3682465 0.15695655 0.032246824 0.3105412
0003e0 6e f8 1a 3e ba 92 d4 3e b6 ad f2 3e 19 e9 7a be
       0.15133831 0.41518193 0.47398156 -0.24502982
0003f0 3a 6a 69 be 16 b7 aa 3e 7a b3 bc 3e d9 e9 01 3f
       -0.22794428 0.33342808 0.3685568 0.5074745

bias f4 [128]
000000 a5 5b 87 be 89 28 c6 be fa 8d ec 3d 17 61 4b 3d
       -0.26437107 -0.387028 0.115505174 0.04965314
000010 46 6d 16 3e 8a be 8f 3e 54 8c 09 be cd a8 6b 3d
       0.14690122 0.28075057 -0.13432437 0.057534028
000020 4e d8 f7 3e b1 f2 f5 be 55 16 11 be 4d 2a 31 bd
       0.48407215 -0.4803672 -0.14168675 -0.04325323
000030 16 cd 5d be 3c e9 b7 be 31 f6 27 be 3e 3d c0 be
       -0.21660265 -0.3592013 -0.16402508 -0.37546724
000040 b0 a9 c8 be 8c 78 f3 be 59 d0 da 3e 65 e2 aa be
       -0.3919196 -0.47552907 0.42737082 -0.3337585
000050 18 fe ba be 3f b0 fa 3e e8 49 f8 be 3f f6 ce 3e
       -0.36521983 0.4896259 -0.48493886 0.40422246
000060 20 1a 3f be 37 ed 60 3e d0 4d c1 3e 02 49 cc 3e
       -0.1866231 0.2196549 0.3775468 0.3989945
000070 b9 0e 67 3e 46 71 06 3e 88 24 c6 3e 3d f5 d4 3d
       0.2256421 0.13129148 0.38699746 0.10398338
000080 30 e2 ac 3e c3 a9 95 be 50 72 f9 be bb 6f 52 3e
       0.33766317 -0.2923108 -0.48720026 0.20550434
000090 28 c2 c0 3d 89 8f b0 3d 5a cf e7 be 59 6d 22 be
       0.09412032 0.08621127 -0.45275384 -0.15862025
0000a0 83 b7 a6 be 03 08 a4 3d c4 4b ae be a1 eb 83 3d
       -0.32561883 0.080093406 -0.3404218 0.06441427
0000b0 85 68 bb be ee 82 ba bd a3 22 f8 bd c0 6f 08 be
       -0.3660318 -0.09107004 -0.121159814 -0.13323879
0000c0 07 66 b3 3d 91 c0 ea be 9e 51 27 3d c2 be df bb
       0.087596945 -0.45850042 0.04084932 -0.00682816
0000d0 e4 8e d9 be 3f c6 a8 3e a4 6a 1a 3e 61 82 a1 3e
       -0.4249183 0.3296375 0.15079743 0.31544784
0000e0 cf f2 9d 3e 7d f4 21 bb b0 14 89 3e 5c 78 77 be
       0.3084931 -0.0024712377 0.26773596 -0.24167007
0000f0 0b c6 00 3e 45 34 37 bd 19 0b 22 bd 1b 0a bd 3e
       0.12575547 -0.044727582 -0.039561365 0.36921772
000100 6c ee 86 3e 73 d3 70 3e c3 23 95 be 19 d7 b8 be
       0.26353776 0.23518161 -0.29128847 -0.36101606
000110 10 ee 12 3e a0 eb d5 3e ea 31 0b be 1c d5 e3 be
       0.14348626 0.4178133 -0.1359326 -0.44498527
000120 f1 d2 ad be 72 23 09 3d 52 97 22 3e 4e c7 4f bd
       -0.33949998 0.03348107 0.15878037 -0.05072718
000130 84 74 84 3e 67 e9 fe be 12 a6 e9 3e 69 43 7c 3d
       0.25870144 -0.49787447 0.45634514 0.061587725
000140 86 ad 9a be 29 a8 e5 bc c3 a3 de 3e 0f a9 f8 3e
       -0.30210513 -0.028034287 0.43484315 0.4856648
000150 41 5a 8a 3e 1a c4 7f be 16 24 1b bd 28 33 5d bd
       0.27021983 -0.2497715 -0.03787621 -0.054003865
000160 40 b8 ba be 70 35 4f be 9a bf 00 bf f0 8d bc bd
       -0.36468697 -0.20235229 -0.5029236 -0.0920676
000170 c9 4c 2e 3d 40 37 f6 bd 12 73 f6 3e af 5c c7 bd
       0.042553697 -0.12022257 0.48134667 -0.09734475
000180 1c 16 7e 3e 65 44 92 3a 88 91 70 3e 9b 14 fa be
       0.24813122 0.0011159299 0.23493016 -0.48843846
000190 c6 d9 39 3e a0 14 7e be d9 dc c3 be 4d 4d ce be
       0.1814948 -0.24812555 -0.3825443 -0.4029335
0001a0 e1 d1 a8 3e 68 c3 09 be 80 70 4e be 2a 93 18 3e
       0.32972625 -0.13453448 -0.20160103 0.14899889
0001b0 77 94 d4 3e 27 cf d1 3e be fa a0 3e af c2 1d 3d
       0.4151952 0.40978357 0.314413 0.038515743
0001c0 ab ca b8 bc f8 0b 64 3e 4f 26 f8 3e 38 f2 1b 3d
       -0.022557577 0.2227019 0.48466727 0.038072795
0001d0 36 5d 9e 3e 66 50 c7 be 95 47 80 be 4d ff b1 3e
       0.3093049 -0.38928527 -0.25054613 0.34765092
0001e0 47 54 25 3c 74 a4 a4 3e a0 65 de be 02 08 0a be
       0.010090894 0.32156718 -0.4343691 -0.13479617
0001f0 6b ec 04 3d 86 73 94 3e fd 34 e4 3e 9f b8 5a bc
       0.03245203 0.28994387 0.44571677 -0.013349681

weight f4 [2, 128]
000000 1e 0a 9d bc d0 71 0e 3c ca a2 e3 bd a4 50 cd bd
       -0.019169863 0.008694127 -0.11115034 -0.100251466
000010 a0 22 db bc 42 91 70 bd 0b 2a f7 3b 16 fc e6 ba
       -0.026749909 -0.05873228 0.0075428537 -0.0017622735
000020 00 02 ee bc 83 66 83 bd 22 0a 81 bd 11 c0 80 bd
       -0.029053688 -0.06416037 -0.06300761 -0.06286634
000030 5c 43 cf bd 87 55 92 3d 49 ba 97 bd 30 73 60 bd
       -0.1012027 0.07145219 -0.07408578 -0.05479735
000040 9d 18 85 3d 6a 91 d2 3c 6e 93 a3 bd 12 0e c9 3d
       0.06498835 0.025704104 -0.07987104 0.09817137
000050 eb 7e 85 bd 88 6d 35 bd 4b a4 96 3d 3a fe c5 bc
       -0.06518348 -0.04429391 0.07355555 -0.024169076
000060 f5 ce 03 3d 3c dd 93 3c 81 ac 23 bd 2a a2 93 bd
       0.03217979 0.018049829 -0.039959434 -0.07208665
000070 a5 80 94 bb dc a1 53 bd 77 b3 a1 3d e2 09 85 bd
       -0.004531937 -0.051668033 0.07895558 -0.064960256
000080 58 56 e1 3d a2 b0 11 3c 3c 5a 04 bd 9b 77 ae bd
       0.11002797 0.00889221 -0.032312617 -0.08518907
000090 99 da 16 3d 1a b8 bd 3b 6b dc 43 3d 5d e3 cc bb
       0.036829565 0.005789769 0.04781763 -0.0062526898
0000a0 f5 13 9e 3d 7e d1 4a bd fc 34 cb 3c 3b da 86 bc
       0.0771865 -0.049516194 0.024805538 -0.016461482
0000b0 fb 17 cc 3c 35 8e c3 bb 80 d5 80 3d 9f f9 10 bd
       0.024913779 -0.00596788 0.06290722 -0.035394307
0000c0 13 33 07 bd c4 00 b2 3d 10 f3 81 3d 30 93 0d 3d
       -0.033007693 0.08691552 0.063451886 0.034564197
0000d0 22 82 43 bc 7b b5 4d bd b0 8d d7 bb bc 16 10 3d
       -0.011932882 -0.0502219 -0.0065781698 0.03517793
0000e0 78 63 ee bb 61 94 dc bd 4b 09 d9 bd a5 a3 19 3d
       -0.007275041 -0.107704885 -0.105974756 0.03750958
0000f0 b1 8a f2 3d 55 bb 09 3d 31 4d 61 bc a4 1d 42 bc
       0.118428595 0.03362592 -0.013751314 -0.011847887
000100 f5 c2 f1 bc 67 35 82 3d c0 47 a0 3d df 21 85 bd
       -0.029511908 0.06357842 0.07826185 -0.06500601
000110 15 6c d6 3c 4c cd a6 3d 68 17 24 3d b4 55 0b 3d
       0.026174584 0.08144626 0.040061384 0.03401728
000120 5d b2 bd bc e3 df d4 3c d4 b8 e6 3c 25 e9 6c bd
       -0.02315634 0.025985664 0.028164305 -0.05783953
000130 5a 92 45 bd 82 ac a9 3d 23 02 95 3c 26 8a bd bc
       -0.048235275 0.082848564 0.018189495 -0.023137163
000140 14 8d 94 3d 1f 01 f9 bc 06 6f 79 bc 07 16 f1 3c
       0.07253471 -0.030396042 -0.015224224 0.029429449
000150 06 70 0a 3c 24 3c fd bd d4 a9 8d 3c 47 b4 d1 3d
       0.00844956 -0.123649865 0.017292894 0.10239463
000160 1a e7 ba 3d 6d 21 da bd 0e 27 85 bd ef 59 4f bd
       0.091261104 -0.10650907 -0.0650159 -0.050622877
000170 33 9d 30 3c e9 01 2a bd 5c 27 ca 3d b2 0a 50 bc
       0.010779667 -0.041505728 0.098707885 -0.012697862
000180 b3 57 05 3d 30 15 25 3d ab ac 8d bd 1a 9c fa bc
       0.03255434 0.04030341 -0.069176994 -0.030592013
000190 71 5e 56 3d 90 b6 f2 3d c1 1b 71 bd 32 6c 97 3d
       0.05233616 0.11851227 -0.05886436 0.073936835
0001a0 f6 07 35 bd 09 54 73 bd 64 4c e9 3d 9c 0c ca 3d
       -0.044197045 -0.059406314 0.113915235 0.09865686
0001b0 7d b6 e7 3b b8 70 97 bc 19 65 8a bc 66 5e d8 3c
       0.007071315 -0.018486366 -0.01689391 0.0264122
0001c0 e2 3f e9 bd fe a4 66 bb 08 39 ce 3d 9d a5 c3 bd
       -0.11389138 -0.0035193558 0.100694716 -0.095530726
0001d0 43 27 21 bd 75 a9 8e 3c ef c0 77 bc d6 60 79 bd
       -0.039344084 0.017414788 -0.015121683 -0.060883366
0001e0 4c 24 f9 3d d3 c4 f0 bd 39 c5 4b bd cd a5 36 bd
       0.12165126 -0.11756291 -0.049748633 -0.044591714
0001f0 1c 70 c3 3c ef 84 86 bd 60 8e 49 3d 67 12 04 bd
       0.023857169 -0.06568324 0.049208045 -0.032244112
000200 98 9a 84 3c b6 1a 79 bd ad 1a 65 bd d1 f7 23 3c
       0.016186997 -0.06081649 -0.055933643 0.0100078145
000210 27 84 60 bd a7 94 81 bc bf ec 67 bb 95 04 bc bd
       -0.05481353 -0.015817953 -0.0035388914 -0.091805615
000220 79 73 61 3d 23 48 af 3d 99 43 47 bd 0a 1f 9c bb
       0.055041764 0.08558681 -0.04864845 -0.0047644423
000230 8f 5e 79 bd f4 e7 da 3c eb c9 b7 3d 53 a4 ae 3d
       -0.060881194 0.026721932 0.0897406 0.08527436
000240 d1 15 eb bc 39 da e7 3b a0 e2 09 3c ad 5b 45 bc
       -0.028696926 0.0070755747 0.008415848 -0.012045783
000250 00 49 7c 3d e4 7e 63 3c 5c 7c fe 3c fd 26 af bc
       0.061593056 0.013885234 0.031065159 -0.021380896
000260 3e 8f ac 3d b2 3f 71 3d a1 78 31 bd 63 7c 84 3d
       0.08425759 0.058898635 -0.04332793 0.064690374
000270 d6 b6 19 3d 88 6d c0 bb 1c 09 c0 3c fc a6 eb 3d
       0.03752788 -0.005872432 0.023441844 0.11506459
000280 bb 62 ea bd a2 3f 9c bd 83 5a 97 3d d6 51 10 3b
       -0.114446126 -0.076293245 0.073903106 0.0022021434
000290 d2 1a 85 bd ca 65 ed 3d f6 6d ac bd 96 c5 23 3d
       -0.06499256 0.1159168 -0.08419411 0.039983355
0002a0 d3 6f b9 3d 87 f8 9b 3d e2 23 82 bd 1d 60 9f bc
       0.09054532 0.07615762 -0.063545 -0.01945501
0002b0 09 a7 b4 3d b5 e6 ca bd 1c e5 51 3d f8 21 a1 bd
       0.08820922 -0.09907285 0.051243886 -0.07867807
0002c0 ce c4 3b 3d 2a 36 28 bd 63 61 4e bc 9f 68 aa bd
       0.045841984 -0.04106728 -0.012596461 -0.08320736
0002d0 9b a4 98 3d 5c e5 e4 bd 52 46 1a 3d 76 9c 73 bd
       0.07453271 -0.11176559 0.03766472 -0.059475385
0002e0 1d 45 30 bc 32 75 c6 3d 17 95 c4 bc 10 6a 71 3d
       -0.010758665 0.09690322 -0.023996873 0.05893904
0002f0 dd 3b a4 3c 3e 02 75 bc f4 f2 cc bb d5 d0 ae 3d
       0.020048076 -0.014954148 -0.006254548 0.08535925
000300 4f df 26 bc dd b1 57 bd 3e 39 4e 3d 9b c9 80 ba
       -0.010185077 -0.052659858 0.05034756 -0.0009825708
000310 1d ab f9 3c 24 c8 03 bd 55 93 c6 3c 36 e4 4c bb
       0.030477101 -0.03217329 0.024240175 -0.0031263954
000320 44 46 69 3d 34 50 e8 3b a6 77 d3 bd 0c de 67 bd
       0.056951776 0.007089639 -0.103255555 -0.056608245
000330 4d 43 0c 3d e8 bb 82 bd e4 e5 88 3d fd dd fa bd
       0.03424387 -0.063834965 0.06684473 -0.12249372
000340 74 5e 2b 3d ba 19 9c 3d 24 ca cf 3d e6 a2 8f bd
       0.041838124 0.076220945 0.10145977 -0.07013492
000350 ed 88 b9 3c e9 7b c5 3d 92 30 b1 bd 4f 41 c0 3c
       0.0226483 0.096427746 -0.08651842 0.023468642
000360 70 87 e2 bd 74 a6 a4 3d e2 fe 7b 3d d9 fa 50 3d
       -0.11060989 0.08039561 0.061522372 0.051020477
000370 fd 48 3e 3d be 7c 2e bd b3 ce 30 3d d5 ea e2 3c
       0.046456326 -0.042599432 0.043165874 0.027699867
000380 75 a1 b7 bd 0d 6e fa 3d cc 3b a5 3d 79 02 26 3c
       -0.08966342 0.12228022 0.08068046 0.010132425
000390 5b 8d a4 bd 9c 1f a9 bd 2d 24 ac bd d9 8a 8a 3c
       -0.08034774 -0.08257982 -0.084053375 0.01691191
0003a0 7a bb 27 3d ea 3f 9f 3d c4 90 0f bc 95 9c d6 bd
       0.040950276 0.077758625 -0.008762542 -0.104790844
0003b0 1d 5c 20 bd 7e b2 3b bb a6 7c 1b 3c 20 fe 97 3c
       -0.039150346 -0.0028640325 0.009490168 0.018553793
0003c0 f8 db c9 3b f3 c5 d3 bd c9 63 78 bd c4 20 d2 bc
       0.0061602555 -0.1034049 -0.060642038 -0.02565039
0003d0 71 ce 9a 3d 4f 73 82 3d 60 02 8a bd c3 f5 4f 3d
       0.07558907 0.063696496 -0.06738734 0.050771486
0003e0 87 05 21 bd 3c 1d e2 bc 20 be 24 bb 7d 36 8a bc
       -0.039311912 -0.02760183 -0.0025137737 -0.016871685
0003f0 31 0f 44 bd ce df b4 3d 78 c6 5e bc 88 76 c2 3d
       -0.04786605 0.0883175 -0.013597123 0.09495264

bias f4 [2]
000000 fc d4 8c 3d 0d c0 22 3d
       0.06876561 0.039733935
