model/RF_model_3.pt (torch, 6321 bytes, 4 tensors)

weight f4 [128, 4]
000000 ec de 8b be 56 28 9f 3e 75 5b e2 3e d6 9c c5 be
       -0.27318513 0.3108546 0.442104 -0.3859622
000010 2e 86 e9 3e 04 25 f6 3e e3 eb 28 3e d9 4d de bd
       0.45610183 0.48075116 0.16496234 -0.10854692
000020 86 fe 8f 3e 83 ae f0 3e 85 cb 6e 3e ee ca e7 bd
       0.28123873 0.47008142 0.23319824 -0.11318003
000030 63 be 74 3e f2 5c e1 be fc bd 15 be 3c df 0c bd
       0.23900752 -0.44016224 -0.14623255 -0.03439258
000040 86 61 85 be e1 3f a9 bd d7 01 d9 3e da 07 06 bf
       -0.26050967 -0.08264137 0.42384216 -0.5235573
000050 02 1f 76 be ad a3 0c be 4f eb 51 bd 47 ce a6 3e
       -0.24035266 -0.13734312 -0.0512498 0.32579252
000060 76 a5 e4 3e 89 dc d0 3c 0f e7 cd be ff ff 84 3c
       0.44657487 0.025495784 -0.40215346 0.01623535
000070 b2 66 f3 3e 86 6e 9d be ad ef 85 be 86 73 61 3e
       0.47539288 -0.30748385 -0.2615942 0.22016725
000080 76 01 00 3e bc ad fd bd 70 71 aa be f6 e1 08 3f
       0.12500557 -0.12386653 -0.3328967 0.5346979
000090 13 5e 8c be c8 f4 ad be b0 1d 87 3e 45 f9 a6 be
       -0.27415523 -0.33975816 0.26389837 -0.32612053
0000a0 91 bf 46 3e b5 18 6c be 70 6d 09 bf 73 d7 89 be
       0.19409014 -0.230563 -0.53682613 -0.26922187
0000b0 cd df ec be 57 4a ed 3d bb fd 12 3e 99 1c a9 3e
       -0.46264496 0.11586445 0.14354603 0.3302963
0000c0 5d d5 88 bc 56 d9 ce 3e 78 0c 23 be a0 70 ad 3e
       -0.016703302 0.4040019 -0.15922725 0.3387499
0000d0 be d7 da be 66 5c 6a be 57 d9 39 bd 67 5e d0 3e
       -0.42742723 -0.2288681 -0.045373287 0.40697023
0000e0 0c 1b d7 3e 0d ba 28 3d e7 58 e5 3e c2 84 91 3e
       0.42012823 0.041193057 0.4479439 0.284216
0000f0 1c 7e 1c 3e 5e df 54 3e 5c 3e a1 be d0 25 f7 be
       0.15282482 0.20788333 -0.3149289 -0.48271036
000100 c1 81 04 3e b5 03 35 be 1e 4a 46 bc 41 24 8b bd
       0.12940122 -0.17677195 -0.012102632 -0.06794024
000110 85 46 25 be 9d f1 70 3e ce 18 98 be 61 c2 a1 bd
       -0.16140182 0.23529668 -0.29706424 -0.07898403
000120 bb ca 7b bc 70 04 5f 3e 8f f3 21 be 8d a2 46 3d
       -0.015368159 0.21779037 -0.15815566 0.048494864
000130 d2 22 b7 3d 4b 90 32 bc d9 71 c7 be 8e 97 d6 bd
       0.08942188 -0.01089866 -0.38954046 -0.104781255
000140 84 2c 9d 3e 59 12 a3 3e a8 ea 9b 3e 47 c7 0b 3e
       0.30698025 0.31849936 0.30452466 0.13650237
000150 0f 44 3b be b8 b5 cc 3e 8d d6 e2 3e 6a 2d bb 3e
       -0.18287681 0.3998239 0.44304314 0.36558086
000160 cb 45 da 3e b4 6b 85 be 20 d4 8d be f0 f7 cf 3e
       0.42631373 -0.26058733 -0.277009 0.4061885
000170 7d 45 2e 3d c0 fd e4 3e 16 04 d3 be bb 51 fd be
       0.042546738 0.44724846 -0.41214055 -0.49476418
000180 53 d7 f3 3e 41 8b 6d be a3 58 d7 3e c0 00 f9 be
       0.47625217 -0.23197652 0.42059812 -0.48633385
000190 2a 77 a1 3e df 01 8f 3d c3 0e 98 3e 26 61 8e be
       0.31536227 0.06982779 0.29698762 -0.27808493
0001a0 76 d5 4d be 37 13 f5 3e 3d 32 e5 3e a3 3c ab 3e
       -0.2010096 0.47866222 0.4476489 0.334447
0001b0 32 c0 b3 3d b6 cf e8 be d9 11 44 3d a5 70 a8 3e
       0.08776893 -0.4547097 0.047868583 0.3289844
0001c0 fc f8 e8 bd 27 90 a5 be 79 86 c2 3e 0f ef a3 3e
       -0.11375615 -0.32336542 0.3799322 0.32018325
0001d0 8d 67 83 be 44 a3 93 3e b4 1c c1 3e d0 57 03 bf
       -0.2566494 0.288355 0.3771721 -0.51305866
0001e0 e3 75 4b 3e 37 16 73 3e f7 ef 1f 3e 87 e0 d3 3e
       0.19869189 0.23738943 0.15618883 0.41382238
0001f0 6b 34 10 be 59 55 fd be 84 40 98 be 10 eb 46 3e
       -0.14082496 -0.49479178 -0.29736722 0.19425607
000200 96 15 a8 3e 9d 0d 9b 3e 0f 5f 37 be 88 48 ed 3e
       0.3282897 0.30283824 -0.17907356 0.463444
000210 47 5a 3f 3d db 8e bd 3e 94 29 6b 3e 61 97 48 be
       0.046716955 0.37023053 0.2296508 -0.19588996
000220 89 a3 56 3d 81 78 5f be 39 eb c5 3c 15 ea 24 be
       0.052402053 -0.21823312 0.024160014 -0.1610492
000230 96 a8 d0 3e 5b fd 04 bf e3 9b dc bc a2 84 75 bd
       0.4075362 -0.5194909 -0.026929801 -0.05994094
000240 c3 d1 00 bf 14 f1 81 be bf 60 8f 3e ad 89 82 be
       -0.5032007 -0.2537924 0.280035 -0.25495663
000250 47 db 92 bd 43 d2 c6 3e d3 b4 de be eb 58 68 bd
       -0.0717073 0.38832292 -0.43497333 -0.056725424
000260 6d 04 e5 be a7 34 4b be bb 9f cd be c9 b5 a6 be
       -0.4472994 -0.19844304 -0.40160927 -0.32560566
000270 7d fd 6f bd c9 09 96 3e a2 1b de 3e 84 82 d7 3e
       -0.058591355 0.2930434 0.43380457 0.42091763
000280 3e f1 4f 3e 42 35 c2 3e 8b f3 ca be 30 e8 fe be
       0.2030687 0.37931257 -0.39638934 -0.4978652
000290 81 d3 bd be 92 5d eb 3d c2 89 80 bd 4b 33 35 3e
       -0.37075427 0.114924565 -0.06276275 0.17695348
0002a0 3c e9 90 3d b9 41 27 3d 33 13 86 be e3 7c e4 3d
       0.07075736 0.040834162 -0.26186523 0.11156633
0002b0 f8 66 ad 3e bd f3 39 be a3 54 c0 3c 0a 5d f3 3d
       0.3386762 -0.18159385 0.023477858 0.1188298
0002c0 e4 7e d3 bd e2 66 a6 3e db 91 ef be 90 55 ce be
       -0.10326937 0.32500368 -0.46790966 -0.40299654
0002d0 17 4c 21 3e 78 26 83 be 48 33 6a bd 88 17 d6 be
       0.15751682 -0.25615287 -0.05717781 -0.41814828
0002e0 fe 12 a0 3e 92 16 2a 3e 63 2d 04 bf 56 db b4 be
       0.3126449 0.16610172 -0.51631755 -0.3532359
0002f0 cb 9b d2 3e 22 34 a7 3e cc 17 4b be 8b bf c4 3e
       0.41134486 0.32656962 -0.19833297 0.38427386
000300 1f 0e 83 be f2 33 87 be d6 5b 88 be cc 47 c2 3e
       -0.2559671 -0.2640682 -0.26632565 0.37945402
000310 e8 db b7 3e c9 70 bf be 9e 2e a5 3e 79 33 06 3f
       0.35909963 -0.37390736 0.3226213 0.5242229
000320 6a 3d 17 bd e9 ba 93 3d 09 0a ec 3d a6 96 4a be
       -0.036923803 0.07213385 0.115253516 -0.1978403
000330 bd ed f4 bd 02 ee 0e bd 06 64 7d bd 89 28 cd be
       -0.119594075 -0.03489495 -0.061862968 -0.40069988
000340 dd 8c 5b be c9 79 23 be 8b 26 c3 3d 5c cc 61 be
       -0.21440454 -0.15964426 0.09528836 -0.22050613
000350 94 24 37 be b0 4d 82 bd be 1b e2 3e e8 85 cf bd
       -0.17885047 -0.06362474 0.4416179 -0.101329625
000360 8d a6 b9 be 22 fe f3 be 1b a5 d5 3e 6b a1 c0 bd
       -0.3625988 -0.47654825 0.41727528 -0.09405788
000370 b9 44 fc be e2 e2 9c be 0a 5e 31 3e 6a cd b5 bc
       -0.4927118 -0.30641848 0.1732103 -0.022192676
000380 e9 d4 03 be ef b3 ca be 8b 2e dd 3d d6 95 4d 3d
       -0.12874188 -0.39590403 0.10799893 0.050191723
000390 48 b7 f7 3e 23 f8 a1 be a7 6c 43 3e c1 79 0c 3e
       0.4838202 -0.31634626 0.19084416 0.1371832
0003a0 ad 72 3c be fe 6c 85 3e 80 04 e6 be 55 42 cc 3d
       -0.1840312 0.26059717 -0.44925308 0.09973589
0003b0 09 1b f9 3c 00 89 41 3e 14 e0 be bd 1c cf d2 be
       0.0304084 0.18899918 -0.09320083 -0.41173637
0003c0 bd 7d 31 bd 30 37 48 3e 6c ed 67 3e d6 f7 d2 be
       -0.043332804 0.19552302 0.22649163 -0.4120471
0003d0 af 63 9a 3e 04 d0 83 3e 8d ea ac be 86 1f ea 3e
       0.30154178 0.2574464 -0.33772698 0.45727175
0003e0 30 c5 85 3e 69 3f 1d 3e 2e ab 05 3e 84 95 e2 3e
       0.26127005 0.1535622 0.13053581 0.44254696
0003f0 99 1e 99 3e d5 1b bf be 0b 3e 04 bf 99 d1 1f be
       0.29906157 -0.37325922 -0.5165717 -0.15607299

bias f4 [128]
000000 f6 57 18 be 3b f0 58 3e 21 3d a2 3d 76 9f 68 3d
       -0.14877304 0.2118539 0.07921816 0.0567927
000010 24 f6 50 bd cc 19 d8 3c db cf aa 3e 59 df 4c bd
       -0.051015988 0.026379488 0.33361706 -0.05001769
000020 d4 6b d4 3e d5 8d a4 3c 86 09 91 3e 27 2b 74 3d
       0.41488516 0.020087162 0.28327578 0.059611466
000030 9e d3 c3 be 58 f0 7c be 8e ff 5e 3b d8 86 10 be
       -0.3824739 -0.24701059 0.0034026834 -0.14113939
000040 d1 b3 b1 3e 40 0c 9d be a4 b8 e8 bd c8 64 1b be
       0.34707502 -0.30673409 -0.113633424 -0.15175164
000050 b8 fb 8a bb 09 42 78 3d bf 75 f0 be 36 64 ab be
       -0.004241433 0.06060985 -0.46964833 -0.33474892
000060 10 44 d1 3e 34 48 2f be d0 0c f9 3e 8a fa 00 3e
       0.4087224 -0.17117387 0.48642588 0.12595573
000070 6e 7a 91 3d 6d c9 ef 3e 94 00 05 3d 22 70 94 3e
       0.0710343 0.46833363 0.032471254 0.289918
000080 b2 87 aa bd 25 1f 0d 3e 88 6a 94 3e cc 46 d4 bd
       -0.08326663 0.13781412 0.28987527 -0.10365066
000090 4a 18 23 bd 22 8f d7 3d 57 db a6 3e 1b cc 6b be
       -0.039818086 0.10525347 0.32589218 -0.23027079
0000a0 a6 bf b9 3e f6 61 7e 3e ad e0 46 3e 05 f2 27 3e
       0.3627903 0.24842057 0.19421645 0.16400917
0000b0 22 e6 8a be 0f 20 ef bd ad 30 e5 3e 37 b2 48 be
       -0.27128702 -0.116760366 0.447637 -0.19599234
0000c0 25 19 8a 3d 58 74 b8 3d 17 dd 83 3e 71 91 f9 be
       0.06743077 0.09006566 0.25754616 -0.48743775
0000d0 7b 41 5c 3e 8a c2 d7 be 0a 23 1f 3e 91 ea 3a bd
       0.21509354 -0.4214061 0.1554071 -0.045633856
0000e0 78 cb 38 be 8a 33 d4 be 84 0c 7a 3e 8f 0c 0a be
       -0.18046367 -0.4144557 0.24418837 -0.13481353
0000f0 54 e3 5e be 13 a8 ff be de 74 c1 bd 4a 01 70 bd
       -0.21766406 -0.49932918 -0.09446119 -0.05859498
000100 b8 a9 8a bd bb 09 17 3e 03 4c 39 3e 3d 61 0b 3e
       -0.067706525 0.14749806 0.18095402 0.13611312
000110 03 35 1c 3d 97 de f6 3e a0 a9 ab 3e ab 81 9c 3e
       0.038136493 0.48216698 0.3352785 0.3056768
000120 2b 8f 64 be 2b 28 df be 44 a3 82 3e 12 4c 5e be
       -0.22320239 -0.43585333 0.25515187 -0.21708706
000130 49 ba e2 3e 8a cd 5d be 81 7e 4c be ec 10 9e 3d
       0.4428275 -0.21660438 -0.19970132 0.07718071
000140 52 7d c4 bd 14 1b 38 be 1e 81 cd 3e a9 76 f5 be
       -0.095942155 -0.1797908 0.4013757 -0.47942093
000150 38 76 a9 be 73 4c f5 3e dc 98 69 3d 58 2a bd bc
       -0.33098006 0.4790989 0.057030544 -0.02309148
000160 94 57 4e be c0 3e 01 3f 99 4e 6e 3e 62 c8 d4 be
       -0.20150596 0.50486374 0.2327217 -0.4155913
000170 2e e3 bb 3d 08 02 ac 3e 89 1a af bd 26 89 00 3f
       0.091741905 0.335953 -0.08549983 0.5020927
000180 00 da 1f 3e 68 7f 24 3e 94 2a 8e 3d fd 2b e0 bc
       0.15610504 0.16064227 0.06941715 -0.027364725
000190 36 73 e7 be 28 a2 03 3e 58 4d 97 be 17 15 16 3e
       -0.45205086 0.12854826 -0.29551196 0.14656483
0001a0 ee a8 66 be 41 08 15 3e ea 80 c7 bd 8f 2f 17 be
       -0.22525379 0.1455393 -0.09741385 -0.14764236
0001b0 04 67 c4 3e 70 18 17 3e ea 5a 9a be 8c 09 f0 be
       0.38359845 0.14755416 -0.30147487 -0.46882284
0001c0 0b 83 bd be 19 2d 1e 3e 97 e0 3e 3e ea 89 d2 3c
       -0.3701404 0.15446891 0.18640362 0.025700528
0001d0 62 f8 cd be e1 71 cf 3e bb 50 bd 3e a8 66 bd be
       -0.40228564 0.4051657 0.36975655 -0.36992383
0001e0 80 31 58 3c d1 31 e7 3d 2e 93 8f be fd 5c 77 be
       0.0131953955 0.112887986 -0.28041977 -0.24156566
0001f0 6e 25 2c bd 36 6b 93 3e a7 13 e7 3d 81 83 63 bd
       -0.042027883 0.28792733 0.11283045 -0.055545334

weight f4 [2, 128]
000000 b3 a2 a6 bc 91 28 ea 3b 9d f4 e0 bc 5b da 1a bd
       -0.020341253 0.007145949 -0.02746039 -0.037805896
000010 b1 a4 b3 3c 9b 48 02 3d 15 ac 60 3d 18 e1 da 3c
       0.021929117 0.031807523 0.05485161 0.026718661
000020 e7 5d 7a bd a1 1b a9 3d b3 91 0c 3d ca 19 65 bd
       -0.06112471 0.08257223 0.034318637 -0.055932797
000030 ca fa b5 bd 4f 68 e9 bd c8 bb e0 3c a5 48 ae ba
       -0.08885725 -0.113968484 0.027433291 -0.0013296796
000040 b5 59 49 bd 89 7b a9 bd 13 2c b2 3d 8a cd 47 bd
       -0.049157817 -0.082755156 0.08699813 -0.04878
000050 26 28 4e bd 0c 34 85 bd 9c 39 7b bd 56 69 90 3b
       -0.050331257 -0.06504068 -0.061334237 0.0044070883
000060 4b 40 6e 3b 45 5c 5f bd 5f 6b 92 bd d7 81 cf 3a
       0.003635424 -0.054531354 -0.07149386 0.0015831542
000070 a9 a6 ba bd 95 43 64 3d 0d b8 f6 3b 22 8f c4 bd
       -0.09113819 0.055728514 0.007529265 -0.09597613
000080 de 89 43 3d 6d 5d a7 3d 0a a1 8d 3d cd 7b 72 bd
       0.047738902 0.081721164 0.069154814 -0.059200097
000090 d8 1b ba bc b3 05 34 3d d2 c8 61 3d 7e 93 63 3c
       -0.022718355 0.043950748 0.055123158 0.013890145
0000a0 36 c2 2f 3d 43 3e f1 3c d4 5f a0 bd 2d 07 b3 3c
       0.042909823 0.029448634 -0.07830778 0.021854008
0000b0 96 7a de 3d 49 de c6 bc dc 1a 36 3d 2b 57 b7 3b
       0.10863225 -0.024275916 0.04445921 0.005595108
0000c0 25 92 d8 3c 71 1d 91 bd 82 c3 c2 3c 63 9b 00 3d
       0.026436875 -0.07085694 0.023774866 0.03139819
0000d0 5b 2c a8 3d f8 c1 80 bd 03 83 e0 bc 30 82 81 bd
       0.08211585 -0.062869966 -0.027406221 -0.063236594
0000e0 f4 1f 41 3d 5a a6 10 3a b3 be 8f bd 30 ed fc 3c
       0.047149613 0.00055179524 -0.07018795 0.030874819
0000f0 2d e4 e7 3d ab 95 c3 bc ed 3e 06 3d c5 df dc 3c
       0.11322818 -0.023875078 0.032774854 0.02696217
000100 54 bc 2a bd 57 8e 76 bd 7a 7d c0 bc 04 c1 96 3d
       -0.04168351 -0.06019434 -0.023497332 0.073610336
000110 c9 d0 93 bd c4 54 7b 3d 23 b0 86 bd b4 61 41 bd
       -0.07217557 0.061360136 -0.06576564 -0.047212318
000120 b8 c4 3b bd 91 3b 26 bd e9 49 1b 3d 12 cf 85 ba
       -0.045841902 -0.04058415 0.037912283 -0.0010208806
000130 3f 1c e6 bc fb 01 df bb f1 4e 19 3d 01 a1 32 3d
       -0.02808964 -0.006805656 0.0374288 0.043610577
000140 21 b1 0d bd d8 89 8a bd 3e c5 83 3d 89 fa aa bd
       -0.03459275 -0.06764573 0.06434105 -0.08348567
000150 1e 42 99 bd eb 81 02 3d 99 5b 43 3c a3 85 93 3d
       -0.07483314 0.03186218 0.011923694 0.072032236
000160 7c a6 16 3d e9 b9 b9 bd 99 ab 39 bd 23 99 9e 3d
       0.036779866 -0.09068663 -0.045329664 0.07744052
000170 6d 58 a4 3d 07 6f dd bc b4 30 dd 3d 84 0b 99 ba
       0.080246784 -0.027030481 0.10800305 -0.0011676406
000180 80 c8 5c bc 96 76 b7 3d 00 74 c3 3d 17 35 b7 3d
       -0.013475537 0.08958165 0.095436096 0.08945673
000190 a4 61 0c bc 07 8f e1 3d e7 2d 47 bb 7b 01 90 3d
       -0.008568201 0.110136084 -0.003039235 0.070315324
0001a0 dc be 93 3c c4 dc df 3c 4b a1 bb bc 83 69 04 bc
       0.018035345 0.027326949 -0.022904059 -0.008081797
0001b0 90 53 b2 bc 30 e3 f5 bc 91 c4 75 bd 19 27 c1 3c
       -0.021768361 -0.030015558 -0.060001913 0.023578214
0001c0 d5 45 0f bd 28 5f 24 bd ff 88 d1 3d ff 4e 8f bd
       -0.034978706 -0.04012981 0.10231208 -0.06997489
0001d0 d0 fc 14 bd 61 b7 bc bd 7d c0 d8 bd fa 3a c1 bc
       -0.036373913 -0.09214664 -0.10583589 -0.023587693
0001e0 8b 94 b3 bd cc 29 fe 3d 07 65 36 3d 78 19 b8 bd
       -0.08768567 0.12410316 0.04452994 -0.08989233
0001f0 a4 4a ad bc 07 43 e2 bd 79 65 b6 bd fe b2 5b bd
       -0.021153755 -0.11047941 -0.08906073 -0.053637497
000200 cc fe f3 bc 09 b6 96 bd 6a f9 94 3b 04 2b ce 3c
       -0.029784583 -0.07358939 0.004546334 0.025166996
000210 d9 2f 11 bd 53 b4 fa 3d 9e 94 4f bc 9d 1c a7 bb
       -0.03544602 0.12241425 -0.01266971 -0.0050998465
000220 19 2d 27 3d 83 fd bd bd 7c ee 7e bd 34 85 ab 3d
       0.040814493 -0.09276869 -0.062239155 0.08375016
000230 d9 ea bb 3d 77 13 cc 3d 14 0b 27 bb 3f 3f 19 bd
       0.09175653 0.0996465 -0.002548878 -0.03741383
000240 31 a2 6a bd 4f 9a 6d 3d 0b f8 5a bd 29 69 42 bd
       -0.057283584 0.05800849 -0.05345921 -0.04746357
000250 f1 f6 99 3d 81 91 8a 3d e4 0a 9a 3d 90 9d 80 bd
       0.075178035 0.06766034 0.075216085 -0.06280053
000260 23 f7 d1 bd 3e 35 a6 bb a1 c6 3d bd 61 57 b4 3d
       -0.10252216 -0.005072265 -0.046332005 0.08805729
000270 2c d3 99 3b c8 cf 88 bb 5d eb b9 bc e9 71 ce 3c
       0.004694363 -0.00417516 -0.022695238 0.025200801
000280 e1 5e ee 3d 31 c1 14 3d 18 ff f4 bc 9e d7 5b 3d
       0.116391905 0.036317054 -0.029906794 0.053672425
000290 26 8d e5 bc c2 3a 8d bd 50 fe a0 3b c6 2a 03 3c
       -0.028021406 -0.06895973 0.004913129 0.008005803
0002a0 02 00 52 3b 61 54 8f bc 6f 5b 96 3c d5 38 9b 3d
       0.0032043462 -0.01749629 0.018354146 0.07579199
0002b0 93 7a ce bd f2 de 40 3d 16 c5 bc bd c7 70 ec 3c
       -0.10081973 0.047087617 -0.09217279 0.02886237
0002c0 13 2f ba 3d da 0c c2 3c 58 b3 a1 bc 0f 03 a9 3d
       0.0909101 0.023687769 -0.019738838 0.082525365
0002d0 ba d5 82 bd 18 66 43 bd 7e ac 3c bd e6 f0 50 3c
       -0.06388421 -0.047704786 -0.04606294 0.012752747
0002e0 95 0f 1e 3d 0e e2 3a bd 6f 81 26 bc 69 a3 fa bd
       0.03858908 -0.04562574 -0.010162695 -0.12238199
0002f0 ca 4b 5c bd 99 04 c4 bc 5a dc 8b 3d 4e 45 9e bd
       -0.053783216 -0.023927974 0.06829138 -0.077280626
000300 6e 95 5c 3d fa db c5 3c b0 71 78 bb 1c 0c 1d 3d
       0.053853445 0.024152745 -0.003790956 0.038341627
000310 c5 d0 b4 3d 1b 0c 1f bd 10 f0 8e bd b7 35 bc bc
       0.08828882 -0.038829904 -0.06979382 -0.022974832
000320 0d 2a a8 3d c0 96 e5 bc fc b1 c3 3d 56 ba 1d 3d
       0.082111456 -0.028025985 0.09555432 0.038507782
000330 5c be 0f 3d 7e c9 76 3d d7 46 2f 3d e3 45 c5 3c
       0.03509365 0.06025075 0.042792168 0.024081176
000340 2e 4a 25 bd 57 c7 2a bd 25 ae 6c bd 7d 84 18 bd
       -0.040353946 -0.04169401 -0.057783265 -0.037235726
000350 27 ee 95 bd 74 d4 81 bd 49 40 05 3c 62 ed 92 bc
       -0.073208146 -0.0633935 0.008133003 -0.017935459
000360 41 53 0f 3d 9f f9 05 3d e6 15 cf bc 27 8f 8a bd
       0.034991506 0.03270876 -0.025278997 -0.067655854
000370 27 c5 9c bd 65 f3 0d 3d 76 16 8b bd 40 76 1d 3d
       -0.07654791 0.034655947 -0.067913935 0.03844285
000380 fb ff 67 3d 64 73 2a bd ce b9 ae bd 19 a2 45 bb
       0.056640606 -0.04161395 -0.08531533 -0.0030156432
000390 eb 01 f3 bc 96 fd 46 bd 22 84 6e 3b 15 a8 78 bb
       -0.029664 -0.048581682 0.0036394675 -0.0037941982
0003a0 dc 8b 84 bd 46 ab 71 3d fd c8 ec 3b 94 27 ec 3b
       -0.064719886 0.05900123 0.007226108 0.0072068665
0003b0 b1 33 88 bd 20 9c 9a bd a0 16 b9 3b 2d 8a ab bd
       -0.06650484 -0.0754931 0.005648449 -0.08375964
0003c0 3d fb 43 3d f5 76 f5 3c f2 02 df bd 42 e0 84 3c
       0.04784702 0.02996395 -0.10889234 0.016220216
0003d0 13 d8 80 bd 6f 43 33 3c 7a f6 d8 3d 16 20 44 3d
       -0.06291213 0.01094137 0.10593887 0.047882162
0003e0 3d 1d 80 3d 4e 81 82 bd ed 2b 55 3d e9 00 ed 3d
       0.06255577 -0.06372319 0.052043844 0.11572439
0003f0 0d 48 4f 3c 7c 0c 92 3c 1e cd ce 3d e1 33 f7 3c
       0.012651456 0.017828219 0.10097717 0.030176105

bias f4 [2]
000000 b3 0d 8f bd d5 f5 21 3d
       -0.06985035 0.039541084
