DQN_model_0.pt (torch, 72567 bytes, 6 tensors)

weight f4 [128, 1]
0.83524436 0.6497424 -0.5621726 0.88700944 -0.35753095 0.22405142 0.21044008 -0.0832912
-0.40784967 0.12849236 0.42089254 -0.54360354 -0.67983305 -0.13366008 -0.59904015 0.51206416
-0.8796725 0.8672675 -0.98426354 0.4243377 -0.9688972 0.24941227 0.17126483 -0.41564715
-0.5830085 0.71868885 0.4862276 0.18182263 -0.035205245 -0.3343718 0.18259703 -0.3803519
0.60967106 -0.4103558 -0.9419905 0.6020594 -0.8386034 0.9206088 -0.44015503 -0.69887304
-0.9488075 0.37562072 -0.43315184 -0.64053524 -0.76218617 0.3586151 -0.8934884 0.5207408
-0.35821104 -0.3474151 0.51408935 0.6913674 -0.41891807 0.31789833 -0.9017749 0.97323096
-0.84175956 -0.7258264 0.6835867 0.49371454 0.5250714 0.038300037 0.40360603 -0.040633377
-0.5760884 0.13946353 0.75836504 -0.9773989 -0.15843962 0.28175718 0.50598335 0.2615118
0.76357776 -0.57497084 0.51522875 0.4702165 0.93521315 0.7746119 -0.09770739 0.8941456
0.5378518 0.6658934 0.7654694 -0.6833099 0.2888958 -0.35289836 0.57045466 -0.45726827
0.124243215 -0.9518039 -0.84842885 -0.83561254 0.49593115 -0.5562013 -0.48226357 -0.12838148
0.8802197 -0.4005208 -0.8784578 0.6778781 0.26071694 -0.04357231 -0.012822032 -0.294433
0.18079643 0.68188345 -0.53668296 0.39363587 -0.07569955 0.07560699 -0.78625894 0.8651752
0.6173033 0.17107154 -0.4798957 0.8861865 0.5097395 0.6716684 0.8254267 -0.19038868
-0.40825394 0.73726654 0.46455234 0.43700853 -0.2768327 0.1278323 0.7633405 -0.97142124
00000000: 93d2 553f 8555 263f 8bea 0fbf 0d13 633f
00000010: 4c0e b7be bc6d 653e 9b7d 573e 9494 aabd
00000020: acd1 d0be 8093 033e 3a7f d73e 9a29 0bbf
00000030: 8a09 2ebf 30de 08be b25a 19bf a316 033f
00000040: 3832 61bf 3e05 5e3f b2f8 7bbf ca42 d93e
00000050: a609 78bf ee65 7f3e 0c60 2f3e b4cf d4be
00000060: 0c40 15bf fefb 373f d3f2 f83e b62f 3a3e
00000070: 6033 10bd c832 abbe b7fa 3a3e 7cbd c2be
00000080: 6713 1c3f 281a d2be 4a26 71bf 9120 1a3f
00000090: b6ae 56bf 05ad 6b3f 005c e1be 58e9 32bf
000000a0: 0ce5 72bf 5c51 c03e 14c6 ddbe 1efa 23bf
000000b0: a21e 43bf 669c b73e a8bb 64bf 454f 053f
000000c0: 7067 b7be 64e0 b1be 5c9b 033f 74fd 303f
000000d0: 6e7c d6be 92c3 a23e b8da 66bf aa25 793f
000000e0: 8e7d 57bf c2cf 39bf 8aff 2e3f 27c8 fc3e
000000f0: 146b 063f 80e0 1c3d 73a5 ce3e 2f6f 26bd
00000100: 887a 13bf 87cf 0e3e 3624 423f d036 7abf
00000110: ff3d 22be 7a42 903e 2088 013f e0e4 853e
00000120: d579 433f 4a31 13bf 08e6 033f 38c0 f03e
00000130: 216a 6f3f f74c 463f d01a c8bd bae6 643f
00000140: a8b0 093f fd77 2a3f cdf5 433f 66ed 2ebf
00000150: 26ea 933e 18af b4be 5109 123f 111f eabe
00000160: 3a73 fe3d 6ca9 73bf a232 59bf b4ea 55bf
00000170: b0ea fd3e 3563 0ebf 40eb f6be 6f76 03be
00000180: 1456 613f 1011 cdbe 9ce2 60bf 6b89 2d3f
00000190: b17c 853e e178 32bd 8013 52bc ecbf 96be
000001a0: b322 393e ea8f 2e3f 0e64 09bf a48a c93e
000001b0: 5e08 9bbd d6d7 9a3d 4448 49bf 1f7c 5d3f
000001c0: 9707 1e3f 612d 2f3e e4b4 f5be 1edd 623f
000001d0: 4a7e 023f 76f2 2b3f 2a4f 533f 40f5 42be
000001e0: a906 d1be 80bd 3c3f ced9 ed3e 95bf df3e
000001f0: 04bd 8dbe 78e6 023e 486a 433f 10af 78bf

bias f4 [128]
0.8014965 0.94726884 0.6352525 -0.53687984 -0.029798627 0.5209688 0.69479525 0.1466856
-0.1006062 0.21731363 -0.5546046 0.037847925 -0.22435641 -0.13780093 0.31195712 -0.922104
-0.56605494 -0.516409 -0.6942049 -0.088035405 0.51994526 0.4947813 -0.64064026 -0.4167961
0.31739306 -0.13355936 -0.9771266 0.9512099 -0.035936356 0.047393274 0.27647182 -0.19517231
-0.9008286 0.9106108 -0.11832154 0.060280964 0.23685001 0.7289543 -0.67242646 0.37373814
-0.008431077 -0.18150352 0.17463817 0.19998603 -0.080391645 0.5373803 0.7476699 -0.82333225
0.169391 0.12340909 -0.03844104 -0.28164247 0.6184946 0.08516906 -0.60611725 0.9900081
0.26944867 -0.57297516 -0.0052016843 -0.34250766 -0.8600489 -0.957163 0.8290459 0.9966135
-0.29068148 0.31192023 0.8172578 0.23823458 0.15794818 0.072074085 -0.45543543 -0.79295367
0.15955473 0.5007419 0.6022129 0.340232 -0.31204927 0.30207837 -0.6080066 0.43212226
-0.8840676 -0.6287266 0.7078389 -0.043263435 -0.80513656 0.07096398 0.14056389 0.6805013
0.011057483 -0.8964158 0.64848155 0.5144526 0.020439578 0.7858063 0.56608635 0.38186207
-0.19164708 -0.028786182 0.5189075 0.89605224 0.9650689 0.98231065 -0.55155003 -0.6532334
-0.99367696 0.66247267 0.35909688 0.93857634 0.12395712 0.89081055 -0.24716854 0.9191057
-0.4697852 -0.40952715 -0.18497789 -0.1557694 0.31363034 0.8208042 0.18940206 -0.058681965
0.50286376 0.81627524 -0.693407 -0.8021278 -0.9924221 -0.19875006 0.277045 -0.2540784
00000000: e02e 4d3f 3680 723f e89f 223f f570 09bf
00000010: 401c f4bc 365e 053f 1ade 313f c034 163e
00000020: a00a cebd 7787 5e3e 91fa 0dbf 6d06 1b3d
00000030: b0bd 65be b01b 0dbe d8b8 9f3e 020f 6cbf
00000040: fae8 10bf 6133 04bf 6ab7 31bf e84b b4bd
00000050: 221b 053f f953 fd3e 0001 24bf 4c66 d5be
00000060: 5881 a23e c9c3 08be f824 7abf 7e82 733f
00000070: 0032 13bd 731f 423d b78d 8d3e 40db 47be
00000080: b49c 66bf ca1d 693f 9052 f2bd 2ce9 763d
00000090: cf88 723e c09c 3a3f 2424 2cbf 9b5a bf3e
000000a0: 8022 0abc 0fdc 39be 59d4 323e 23c9 4c3e
000000b0: 60a4 a4bd c191 093f 4b67 3f3f e7c5 52bf
000000c0: d674 2d3e e8bd fc3d 5a74 1dbd 7133 90be
000000d0: a955 1e3f 1e6d ae3d 802a 1bbf 2c71 7d3f
000000e0: 2df5 893e 80ae 12bf e472 aabb 2a5d afbe
000000f0: 2a2c 5cbf a208 75bf 5a3c 543f 1022 7f3f
00000100: 34d4 94be 02b4 9f3e cf37 513f c4f3 733e
00000110: 2bbd 213e 949b 933d d52e e9be 03ff 4abf
00000120: 5162 233e 9f30 003f a02a 1a3f e432 ae3e
00000130: ecc4 9fbe 04aa 9a3e 52a6 1bbf 213f dd3e
00000140: 4152 62bf 3af4 20bf ee34 353f 0035 31bd
00000150: 6e1d 4ebf 9055 913d fbef 0f3e 5535 2e3f
00000160: 722a 353c 827b 65bf e302 263f 2ab3 033f
00000170: e770 a73c 9a2a 493f 09eb 103f 6d83 c33e
00000180: 223f 44be 00d1 ebbc 1fd7 043f ae63 653f
00000190: c10e 773f b678 7b3f 6232 0dbf 4e3a 27bf
000001a0: 9d61 7ebf cf97 293f 8cdb b73e 8a46 703f
000001b0: 3bdd fd3d 290c 643f c019 7dbe 834a 6b3f
000001c0: b087 f0be 8bad d1be d86a 3dbe 0382 1fbe
000001d0: 2894 a03e 3920 523f 9df2 413e 805c 70bd
000001e0: aebb 003f 6af7 503f 1f83 31bf 3f58 4dbf
000001f0: 600f 7ebf 2385 4bbe d8d8 8d3e 9016 82be

weight f4 [128, 128]
0.063351616 0.05334457 -0.028717997 -0.068541706 -0.021775149 -0.047038022 0.014420654 0.0013586038
0.063268535 0.060514856 0.007046372 0.059766073 0.009001657 -0.06350217 -0.026521616 0.0032641932
-0.07706407 -0.09177248 0.020064726 -0.10041276 0.049655356 0.023383765 0.08338477 -0.016510278
0.024038972 -0.028688725 0.05925439 0.077666126 -0.07873172 -0.033651717 0.043867923 0.055476688
-0.020005053 -0.0046531386 0.039798312 -0.012399396 -0.019452449 0.038030803 0.044603176 -0.041423906
0.072255604 -0.0819137 -0.05927399 -0.063139394 -0.087491356 -0.0076548 0.07523687 -0.07608176
0.05739921 0.014402026 -0.053658452 -0.051999982 -0.024444584 0.03349385 -0.04529409 -0.063909195
-0.050613586 -0.0158073 0.03134857 -0.01715098 -0.042820483 0.04552626 0.041100178 0.08361594
-0.061729707 0.058091052 -0.060025018 0.0718809 0.07300909 -0.078075066 -0.033234406 0.048849225
-0.01711986 -0.04496715 0.041728195 0.07499549 0.072418205 -0.05380062 0.028833091 -0.047678404
0.0062093562 0.034068182 -0.003916225 0.036593214 0.054777607 -0.07165994 -0.07546678 -0.045304134
0.033760376 -0.04700577 -0.009228953 0.034564964 0.029814554 -0.07469082 0.06584346 0.07321679
0.04529675 0.055197172 0.021948798 0.016669678 0.021204222 -0.0046926555 -0.080191135 -0.0040544122
-0.08522978 -0.07959861 -0.051798094 0.0026592447 -0.04418332 0.040832415 -0.05317025 -0.071045004
-0.061159573 0.0064379703 0.07753853 -0.048356015 -0.017953472 0.0035206305 0.012211453 0.00043664128
-0.03650375 -0.0065426463 0.081713654 -0.04733309 -0.0053523034 0.017513037 0.047458515 -0.07164861
-0.0363983 0.008325757 -0.00549933 0.07648453 -0.03362919 0.05424623 -0.0356554 0.04286182
-0.011897214 -0.008115696 0.05191797 0.02091784 -0.06091544 0.07690101 -0.089249834 0.009274367
-0.07562252 -0.05174164 -0.08188472 0.08573474 0.021785276 0.03523841 0.034475327 0.020845145
-0.07178581 0.04060074 -0.0006920961 0.06870003 -0.08332008 -0.021018349 -0.007484887 0.070082046
-0.05646973 -0.07180365 0.07888927 0.06590146 -0.053551804 -0.011147154 -0.005897619 0.086269446
-0.035669543 -0.064683214 -0.03872867 -0.03201759 0.019602627 0.048991345 -0.029648932 -0.03628576
-0.073793635 -0.03449105 -0.06440795 -0.043273136 -0.09241272 0.06666499 0.06704802 0.00999536
-0.034776527 0.025109693 -0.0129036615 -0.020676684 0.028092397 0.033573627 -0.063642554 -0.05245098
-0.05515479 -0.056586325 0.028663788 -0.03949643 0.044012148 -0.085460275 0.03303999 -0.07775908
-0.03575108 -0.0006239176 0.045298938 -0.088668816 0.070373416 0.02126328 0.04528015 -0.045506395
-0.070891865 -0.0073610675 0.0837419 -0.03582974 0.07714662 -0.007972477 0.051718373 0.040299043
0.03507797 0.018416315 0.02267313 -0.07541968 -0.039851032 -0.05825252 0.021767179 0.0488868
-0.01166171 0.08040043 0.07927226 -0.039733306 -0.04470865 0.003263369 -0.042220045 -0.014066637
0.061791744 -0.00048756503 0.022038357 0.07389514 -0.027228436 0.035922226 -0.0027880445 0.022478672
0.0797428 -0.0612448 0.070471175 -0.012446086 -0.011432621 -0.0007212663 -0.052922867 0.033922784
-0.08022238 -0.062144715 0.041399784 0.08054031 0.037652127 -0.07777406 0.033245265 0.0066445693
00000000: 7ebe 813d d67f 5a3d 0142 ebbc 985f 8cbd
00000010: cc61 b2bc f1aa 40bd 9b44 6c3c 2e13 b23a
00000020: ef92 813d 6dde 773d 41e5 e63b 45cd 743d
00000030: b07b 133c 6d0d 82bd dc43 d9bc 13ec 553b
00000040: c4d3 9dbd 36f3 bbbd c85e a43c 35a5 cdbd
00000050: 6a63 4b3d 4f8f bf3c a2c5 aa3d 9040 87bc
00000060: 61ed c43c 9e04 ebbc bbb4 723d 6b0f 9f3d
00000070: 193e a1bd 62d6 09bd daae 333d 863b 633d
00000080: a3e1 a3bc 5b79 98bb 8e03 233d d626 4bbc
00000090: be5a 9fbc 30c6 1b3d d2b1 363d 1dac 29bd
000000a0: bffa 933d 5fc2 a7bd 49c9 72bd 3a4f 81bd
000000b0: ab2e b3bd 1ed5 fabb ca15 9a3d c1d0 9bbd
000000c0: 6f1b 6b3d 7af6 6b3c f7c8 5bbd effd 54bd
000000d0: 0240 c8bc d930 093d 4c86 39bd d3e2 82bd
000000e0: 3150 4fbd 507e 81bc 5c67 003d 3680 8cbc
000000f0: 8864 2fbd be79 3a3d a958 283d d53e ab3d
00000100: 4ad8 7cbd e2f0 6d3d cbdc 75bd 4b36 933d
00000110: ca85 953d d2e5 9fbd cd20 08bd 2016 483d
00000120: f33e 8cbc 792f 38bd 2feb 2a3d 3c97 993d
00000130: ff4f 943d 0a5e 5cbd 6033 ec3c 6e4a 43bd
00000140: db77 cb3b 148b 0b3d ad53 80bb c4e2 153d
00000150: 7c5e 603d 72c2 92bd 548e 9abd d490 39bd
00000160: 5248 0a3d 1f89 40bd 0935 17bc fe93 0d3d
00000170: a73d f43c 80f7 98bd f0d8 863d aff2 953d
00000180: 1689 393d 6e16 623d f7cd b33c d98e 883c
00000190: 7ab4 ad3c d9c4 99bb 403b a4bd e0da 84bb
000001a0: f38c aebd 9904 a3bd 3d2a 54bd b946 2e3b
000001b0: 92f9 34bd e43f 273d 0cc9 59bd 0b80 91bd
000001c0: 7682 7abd 9cf5 d23b 85cc 9e3d f510 46bd
000001d0: 2913 93bc 61ba 663b 8c12 483c 00ed e439
000001e0: f584 15bd b263 d6bb 7d59 a73d 58e0 41bd
000001f0: 6062 afbb 8077 8f3c dc63 423d 82bc 92bd
00000200: 6216 15bd c268 083c b933 b4bb eca3 9c3d
00000210: c3be 09bd 4b31 5e3d 660b 12bd e08f 2f3d
00000220: 88ec 42bc b2f7 04bc f0a7 543d e45b ab3c
00000230: 7882 79bd 477e 9d3d 9ec8 b6bd 84f3 173c
00000240: fbdf 9abd 0bef 53bd 2db3 a7bd b295 af3d
00000250: 0977 b23c 2756 103d 0036 0d3d 70c3 aa3c
00000260: 7004 93bd f64c 263d c86d 35ba 9ab2 8c3d
00000270: b8a3 aabd ac2e acbc c843 f5bb 2d87 8f3d
00000280: ce4c 67bd cb0d 93bd b390 a13d 58f7 863d
00000290: 2359 5bbd 8da2 36bc d040 c1bb 09ae b03d
000002a0: 3a1a 12bd a278 84bd f4a1 1ebd e024 03bd
000002b0: b095 a03c 26ab 483d 51e2 f2bc 61a0 14bd
000002c0: 1e21 97bd 7d46 0dbd 51e8 83bd 2c3f 31bd
000002d0: e142 bdbd a787 883d 7950 893d 94c3 233c
000002e0: d571 0ebd d8b2 cd3c e169 53bc 2662 a9bc
000002f0: 0722 e63c 8084 093d 0757 82bd d7d6 56bd
00000300: fde9 61bd 10c7 67bd 52d0 ea3c 02c7 21bd
00000310: 1546 343d cc05 afbd f154 073d 2740 9fbd
00000320: b96f 12bd 678e 23ba 618b 393d ff97 b5bd
00000330: f01f 903d 5530 ae3c ae77 393d ea64 3abd
00000340: c12f 91bd 1c35 f1bb e080 ab3d 35c2 12bd
00000350: 0cff 9d3d fe9e 02bc a5d6 533d 9c10 253d
00000360: ebad 0f3d d0dd 963c 00bd b93c a275 9abd
00000370: d63a 23bd 329a 6ebd 1551 b23c 863d 483d
00000380: c210 3fbc fba8 a43d 7f59 a23d 64bf 22bd
00000390: 6b20 37bd 3fde 553b edee 2cbd c077 66bc
000003a0: 5719 7d3d df9f ffb9 c989 b43c 5656 973d
000003b0: 2b0e dfbc 2f23 133d a0b7 36bb 3125 b83c
000003c0: 3150 a33d d4db 7abd 3153 903d abea 4bbc
000003d0: e34f 3bbc 5d13 3dba a6c5 58bd 9ef2 0a3d
000003e0: a24b a4bd 758b 7ebd d292 293d 51f2 a43d
000003f0: 1e39 1a3d 0248 9fbd 302c 083d b0ba d93b

bias f4 [128]
0.0066617304 0.022823114 -0.030407287 -0.050766815 0.07159297 0.0018901825 -0.026608285 -0.04967924
-0.083590664 0.020154323 -0.030514581 -0.07310428 -0.053688027 -0.04967183 0.031138364 0.0703629
0.06561572 0.07355169 -0.033655334 0.07812516 -0.038482588 0.05107983 -0.07300881 0.08115032
0.017626137 0.07381224 -0.016810091 -0.014792484 -0.0049510323 -0.015437406 0.07261506 -0.015229426
0.0186266 -0.059187904 0.061105125 -0.048955206 -0.080098405 -0.061177626 -0.04460765 -0.0071085095
0.054232873 -0.039053943 -0.016039697 0.02069846 -0.09009757 -0.04993913 -0.043403644 0.058829185
0.040158343 -0.06061235 0.06432504 -0.028591566 0.00815441 -0.040062536 -0.0152494535 0.06556283
-0.035006233 0.035013203 -0.001970099 -0.0239792 0.0048928782 0.018695042 -0.01504755 0.054561954
0.07709603 0.06427602 -0.0428852 -0.05356261 0.0069891913 0.0029533058 0.010169392 -0.04038162
0.050064344 -0.050284907 0.07099665 -0.06647442 -0.025771944 0.0027181243 -0.058559157 -0.04496694
-0.052722987 -0.048819475 -0.037001763 -0.03531632 0.0020276792 -0.036178686 -0.009973206 -0.05320578
-0.05740481 -0.010038696 -0.006496531 0.058796156 -0.0423565 0.027320638 -0.042056937 -0.07187833
-0.015308819 -0.01038232 0.07142823 0.04922342 0.081739075 -0.08484539 0.064324826 -0.017743863
-0.057561792 -0.0664903 -0.027485535 0.031591598 -0.065802984 -0.030801851 -0.08395752 -3.4027624e-05
-0.021460988 0.005524815 0.010353467 -0.012031663 0.014821148 -0.029200846 -0.021575846 0.07944195
-0.03227383 -0.005358817 -0.049710006 0.017123349 0.04516224 -0.01716639 0.007908106 0.0099223675
00000000: a54a da3b 8af7 ba3c b418 f9bc ddf0 4fbd
00000010: 569f 923d 00c0 f73a 9ef9 d9bc 757c 4bbd
00000020: 9531 abbd ae1a a53c b7f9 f9bc b2b7 95bd
00000030: fae7 5bbd b074 4bbd e215 ff3c 6d1a 903d
00000040: 8961 863d 45a2 963d 2dda 09bd 1500 a03d
00000050: eb9f 1dbd 1539 513d a585 95bd 2432 a63d
00000060: b064 903c df2a 973d 51b5 89bc 2d5c 72bc
00000070: 453c a2bb 2ced 7cbc 34b7 943d d884 79bc
00000080: d096 983c 046f 72bd 5e49 7a3d 4185 48bd
00000090: a20a a4bd 6495 7abd 83b6 36bd 80ee e8bb
000000a0: 4a23 5e3d 07f7 1fbd af65 83bc d18f a93c
000000b0: 1385 b8bd f98c 4cbd 05c8 31bd dff6 703d
000000c0: 137d 243d a844 78bd d9bc 833d dc38 eabc
000000d0: 139a 053c 9d18 24bd d8d8 79bc ce45 863d
000000e0: b262 0fbd 016a 0f3d c71c 01bb 0770 c4bc
000000f0: 7054 a03b 5826 993c 008a 76bc 5b7c 5f3d
00000100: 86e4 9d3d 25a3 833d 64a8 2fbd 7864 5bbd
00000110: 9605 e53b 408c 413b 869d 263c 3367 25bd
00000120: 4510 4d3d 8cf7 4dbd b166 913d be23 88bd
00000130: af1f d3bc 8f22 323b badb 6fbd 412f 38bd
00000140: 0ff4 57bd eef6 47bd 298f 17bd d8a7 10bd
00000150: d0e2 043b 1a30 14bd a866 23bc 4eee 59bd
00000160: 4e21 6bbd 5879 24bc dae0 d4bb 3dd4 703d
00000170: 027e 2dbd 88cf df3c e543 2cbd f234 93bd
00000180: d7d1 7abc 9b1a 2abc f748 923d 7f9e 493d
00000190: d166 a73d 6bc3 adbd bcbc 833d 945b 91bc
000001a0: eac5 6bbd 112c 88bd 5829 e1bc 3166 013d
000001b0: b7c3 86bd 2a54 fcbc ecf1 abbd e2b8 0eb8
000001c0: f4ce afbc 8209 b53b 97a1 293c 7420 45bc
000001d0: 66d4 723c 9d36 efbc d4bf b0bc 76b2 a23d
000001e0: 9031 04bd 0499 afbb b89c 4bbd 4446 8c3c
000001f0: 0afc 383d 87a0 8cbc 0091 013c 6d91 223c

weight f4 [4, 128]
0.013755727 -0.0018115208 -0.0740625 0.025781967 0.027040875 0.014497049 -0.06926407 0.07626446
-0.04904035 0.010991438 0.07411361 0.017021671 -0.0038693738 0.06629924 0.067224376 0.025847442
-0.052075077 -0.044523075 -0.074002974 0.03674971 0.084347405 0.030228995 0.007611815 0.028723668
-0.05305794 0.05610857 0.037517723 0.07528961 0.028102575 0.001470317 0.07575215 0.08263204
-0.05574082 -0.011094834 0.07359875 -0.0018849522 -0.039650343 -0.026826512 -0.04970886 -0.074427426
-0.06756142 0.08058357 0.018563675 0.06545094 -0.011631408 0.023881095 -0.005813442 -0.07414764
0.040937196 -0.034589287 0.021364719 -0.052536678 -0.034064755 0.06267956 0.007250903 0.06918087
-0.07500494 -0.058345914 0.048747882 -0.017554779 0.08570435 -0.01852157 -0.013951808 -0.037130516
0.08362791 0.034195904 0.002800323 0.0766766 0.057894148 -0.017014027 0.09030576 -0.03314191
0.018503191 0.026802609 -0.0674241 0.0458293 0.07194067 0.029318389 -0.059536017 0.08691456
0.054903984 0.08437053 0.06173516 0.040181287 0.083461 0.04914274 -0.050666876 0.043717425
-0.02977544 0.055147327 0.039461628 -0.035373736 -0.06803437 -0.08519912 0.02104915 -0.08361402
-0.048536617 -0.0066069737 -0.025209244 0.07824286 0.0311828 -0.07801242 0.03266065 -0.047300186
0.037697233 -0.03985864 0.071848184 -0.020886997 0.04510017 0.007526278 -0.026595999 -0.056489263
0.01413174 -0.0038436025 -0.069855936 0.0063165403 0.038603302 0.07881673 -0.04844384 0.0506622
-0.08702202 -0.055610787 0.08728219 0.046305247 0.07283891 0.041014798 0.034666233 0.016500566
-0.04648422 0.0077992957 -0.020995438 -0.011979334 -0.06837876 -0.05585453 0.010950036 0.023976319
0.04831769 -0.033922624 -0.01654155 -0.062440313 -0.07254361 0.04975278 0.06537498 -0.07797107
-0.013087451 0.015372742 -0.035055567 0.0033895853 -0.06479242 0.0651672 -0.067678034 0.038466368
-0.04057379 -0.026296228 -0.06459517 0.023982985 0.04934263 -0.020778758 0.060050063 -0.0014824718
-0.042431444 0.00825488 -0.04918146 0.08021975 -0.02305486 -0.045258887 -0.004298064 0.087054394
-0.03430258 0.064214244 -0.06013024 -0.08096672 0.06349982 0.02386791 -0.047760207 0.062125888
0.07446279 0.031050943 0.04681795 0.0637735 -0.013168139 -0.060194794 -0.03654793 -0.08097477
-0.08807788 0.027461018 0.009021273 -0.062139288 0.026466936 0.062169276 0.070343666 0.034512985
0.04353623 0.047901675 0.02403368 -0.0022988252 0.06827347 0.0016564354 -0.04512394 -4.673004e-05
0.055524014 -0.0039129867 0.023501216 0.06463639 -0.03663325 0.06374906 -0.08236667 0.06864515
-0.034095347 -0.07141316 0.04802113 0.025619023 -0.067109786 -0.050292518 -0.05658898 -0.055518106
0.03946703 -0.053425785 -0.021998461 0.040639848 -0.07268278 0.020470299 0.008543536 -0.061029915
0.08338097 -0.05970404 0.06416318 0.010528401 0.023555283 0.017017663 -0.013061149 -0.016021378
-0.012165204 -0.020638622 -0.08143473 -0.03705355 0.06444889 0.044248674 -0.059326522 -0.026148152
-0.083176605 0.02455915 0.015952606 0.07366599 0.04074095 0.058777485 -0.08743589 -0.07766668
0.05954461 -0.07632554 -0.0705811 0.07873327 -0.0028599277 0.049785428 0.043247946 -0.07414467
00000000: b35f 613c 8d70 edba 14ae 97bd b434 d33c
00000010: d384 dd3c 0885 6d3c 52da 8dbd 8b30 9c3d
00000020: 89de 48bd 6f15 343c e0c8 973d 0871 8b3c
00000030: 5295 7dbb e5c7 873d efac 893d 04be d33c
00000040: ad4c 55bd d45d 36bd df8e 97bd dd86 163d
00000050: 55be ac3d cca2 f73c 886c f93b e64d eb3c
00000060: 4853 59bd 1ad2 653d 2fac 193d 7031 9a3d
00000070: 5f37 e63c a7b7 c03a f123 9b3d fd3a a93d
00000080: 7c50 64bd 1bc7 35bc f1ba 963d 8010 f7ba
00000090: 6668 22bd 46c3 dbbc 859b 4bbd 686d 98bd
000000a0: a45d 8abd 0009 a53d d912 983c 240b 863d
000000b0: a991 3ebc 49a2 c33c b07e bebb b8da 97bd
000000c0: c3ad 273d 7fad 0dbd 1005 af3c b330 57bd
000000d0: 7c87 0bbd 245e 803d fc98 ed3b b3ae 8d3d
000000e0: 319c 99bd 20fc 6ebd dcab 473d 0acf 8fbc
000000f0: c385 af3d 8cba 97bc 2096 64bc 2b16 18bd
00000100: 1c45 ab3d 0111 0c3d a085 373b 9f08 9d3d
00000110: 6a22 6d3d 0061 8bbc 3af2 b83d d0bf 07bd
00000120: 0194 973c 2591 db3c a615 8abd 81b7 3b3d
00000130: a155 933d 1e2d f03c 0adc 73bd 4300 b23d
00000140: 00e3 603d 75ca ac3d 02de 7c3d 2295 243d
00000150: 9aed aa3d e649 493d 1288 4fbd 0b11 333d
00000160: a0eb f3bc 2ae2 613d 84a2 213d 0de4 10bd
00000170: 9b55 8bbd e07c aebd 446f ac3c d43d abbd
00000180: 55ce 46bd 507f d8bb 9e83 cebc cb3d a03d
00000190: 1273 ff3c fac4 9fbd 2cc7 053d d7bd 41bd
000001a0: 6a68 1a3d d042 23bd 2425 933d 351b abbc
000001b0: f5ba 383d ff9e f63b dadf d9bc 4961 67bd
000001c0: d088 673c f3e4 7bbb a110 8fbd fbfa ce3b
000001d0: 7f1e 1e3d aa6a a13d 0c6d 46bd 2b83 4f3d
000001e0: 9a38 b2bd 23c8 63bd 01c1 b23d 92aa 3d3d
000001f0: 912c 953d 22ff 273d 2efe 0d3d 322c 873c
00000200: 3d66 3ebd 3c91 ff3b a0fe abbc f844 44bc
00000210: 2a0a 8cbd b8c7 64bd c867 333c fc69 c43c
00000220: c5e8 453d 73f2 0abd 2582 87bc 6ac1 7fbd
00000230: bf91 94bd 92c9 4b3d 51e3 853d 4caf 9fbd
00000240: c06c 56bc f4dd 7b3c 6d96 0fbd ce23 5e3b
00000250: e3b1 84bd 6276 853d c89a 8abd e98e 1d3d
00000260: b430 26bd 306b d7bc 794a 84bd f777 c43c
00000270: 7f1b 4a3d 3738 aabc 0ef7 753d 804f c2ba
00000280: 98cc 2dbd 7a3f 073c 8072 49bd 414a a43d
00000290: 8cdd bcbc 6261 39bd c6d6 8cbb 9349 b23d
000002a0: dd80 0cbd c282 833d 204b 76bd e1d1 a5bd
000002b0: 320c 823d a386 c33c 35a0 43bd b777 7e3d
000002c0: f27f 983d 8c5e fe3c 2ec4 3f3d ae9b 823d
000002d0: 2ebf 57bc d18e 76bd 48b3 15bd 1ad6 a5bd
000002e0: 2d62 b4bd eef5 e03c f6cd 133c c485 7ebd
000002f0: 30d1 d83c 36a5 7e3d 5710 903d 7d5d 0d3d
00000300: 0c53 323d 8c34 443d 48e2 c43c e3a7 16bb
00000310: f6d2 8b3d c01c d93a e1d3 38bd 0000 44b8
00000320: 266d 633d 8338 80bb 9f85 c03c 1560 843d
00000330: bf0c 16bd de8e 823d dbaf a8bd d495 8c3d
00000340: 90a7 0bbd 1041 92bd ceb1 443d fcde d13c
00000350: db70 89bd 87ff 4dbd d9c9 67bd f466 63bd
00000360: 2ea8 213d ffd4 5abd 1e36 b4bc f875 263d
00000370: b6da 94bd 54b1 a73c 30fa 0b3c 81fa 79bd
00000380: a4c3 aa3d 398c 74bd fc67 833d 507f 2c3c
00000390: 02f7 c03c a068 8b3c 6efe 55bc 443f 83bc
000003a0: 9050 47bc 5412 a9bc 40c7 a6bd 77c5 17bd
000003b0: c8fd 833d 193e 353d 5e00 73bd a634 d6bc
000003c0: 7f58 aabd 4530 c93c 0aaf 823c 32de 963d
000003d0: fbdf 263d a9c0 703d 9711 b3bd b50f 9fbd
000003e0: 0de5 733d 9150 9cbd d38c 90bd e93e a13d
000003f0: a06d 3bbb ceeb 4b3d c224 313d 29d9 97bd

bias f4 [4]
0.02404298 -0.004288745 0.010186539 0.05481229
00000000: c9f5 c43c 9a88 8cbb 71e5 263c da82 603d
