Updated_DQN_model_0.pt (torch, 72631 bytes, 6 tensors)

weight f4 [128, 1]
00000000: cc54 6c3f c02c 133e d88c 35be 0887 c93e
00000010: 388d 2c3e 5043 093e 623d 26bf 3e8a 553f
00000020: d0d4 803d b0f6 d1be 3c35 febe a04f 3c3e
00000030: 2841 b43e 001b 7fbd d004 133e f024 00bf
00000040: fcec aebe c082 81bd 9204 5b3f 7855 5d3e
00000050: b45b 35bf d4b1 da3e d046 803e fc0f b4be
00000060: 2ad2 75bf 18d4 32bf acc3 76bf f437 4cbf
00000070: f88a 6fbf 20ed 92bd 906d 51bf 2e09 4abf
00000080: f82c da3e e078 413d 4094 363e 9cb9 fdbe
00000090: cc95 77bf 4cab ddbe 3a2a 36bf 8066 373d
000000a0: 60a6 97bd 4cd4 4c3f 00d0 723c 2cd2 c5be
000000b0: 622d 24bf 60dc 34bd 080d 783f ba43 593f
000000c0: e0da 003d 907c fcbd 3c39 c1be 0804 70bf
000000d0: 50e8 4ebf 883d 19bf 0852 8e3e dea3 6bbf
000000e0: 505b 7f3f f8b5 64bf f09e 28be dcda dfbe
000000f0: 8019 debc e0d9 55be 1454 dc3e 60b3 643d
00000100: 98b8 aebe b858 573f 8886 02bf 7ce2 033f
00000110: 3818 943e 00d9 413e b862 593e 448e d83e
00000120: 0440 9d3e 52b4 773f c44c 59bf 5a82 173f
00000130: aa15 223f 00b4 c13e 46fd 3cbf 5c7b d93e
00000140: e664 753f d088 5fbe 9043 e7bd 027f 613f
00000150: 9a91 2fbf 183c 583f 34a0 153f 306c 2d3f
00000160: 906d 22be 9c4d 2b3f 68e6 1fbf 86d9 05bf
00000170: f875 70bf 10c4 47be f690 18bf e0ab 473d
00000180: fccd 453f d606 373f 6859 5bbf 726b 60bf
00000190: 38ac 04be 607e 203e bafa 543f 5629 5d3f
000001a0: f40a 193f 025e 053f 4486 783f 9803 e3be
000001b0: a413 34bf c443 61bf d05a 5cbf 9a9c 3bbf
000001c0: 32f2 79bf 54fc e73e 1c31 8abe 105e dfbd
000001d0: e634 243f 84bb ebbe 8447 243f c25e 32bf
000001e0: 682a 76be f02e a0bd 6874 d83e 1880 8d3e
000001f0: 302d fb3d 083c 7dbe 60dc db3e b6d4 66bf
0.9231689 0.1437254 -0.17729509 0.39360833 0.16850746 0.13404584 -0.6493741 0.83414066
0.06290591 -0.4100852 -0.4964999 0.1838975 0.3520596 -0.06228161 0.14357305 -0.5005636
-0.3416518 -0.06323767 0.8555385 0.21614635 -0.7084305 0.42713797 0.25054026 -0.35168445
-0.9602381 -0.6985488 -0.9639232 -0.7977288 -0.93571424 -0.07174134 -0.81807804 -0.7892026
0.42612433 0.047234416 0.1782999 -0.4955567 -0.96712947 -0.43294752 -0.7115818 0.044775486
-0.074047804 0.8001144 0.014820099 -0.3863691 -0.6413175 -0.04415548 0.96894884 0.8486897
0.031458735 -0.12328446 -0.3773898 -0.9375615 -0.8082323 -0.59859514 0.2779696 -0.92046916
0.99748707 -0.8934016 -0.1646688 -0.43721664 -0.027111769 -0.20883894 0.43032897 0.055835128
-0.3412521 0.8411975 -0.5098653 0.5151746 0.28924727 0.18930435 0.21229064 0.4229604
0.30712903 0.9675952 -0.8488276 0.59183276 0.63314307 0.37832642 -0.73823965 0.42476928
0.95857084 -0.21829534 -0.112921834 0.88084424 -0.68581545 0.84466696 0.58447576 0.67743206
-0.15862107 0.669153 -0.6246095 -0.5228504 -0.93930006 -0.19508386 -0.5959619 0.048747897
0.7726743 0.71494806 -0.856833 -0.8766395 -0.12956321 0.15673208 0.8319508 0.863912
0.5978234 0.5209657 0.97079873 -0.4433868 -0.7034247 -0.8799403 -0.8607607 -0.7328583
-0.97635186 0.453097 -0.26990592 -0.10906613 0.64143217 -0.460415 0.64171624 -0.6967584
-0.24039614 -0.078214526 0.4227631 0.2763679 0.12264478 -0.24729931 0.4294157 -0.9016832

bias f4 [128]
00000000: 50a5 56be 02cc 253f 181f 83be 4a25 033f
00000010: 40eb b13d 0c29 013f a8ce 6b3e e040 66be
00000020: dcd7 36bf 409a aabe 1e1b 3f3f e46b 7dbf
00000030: 8c30 803e 00cf 313c 42be 113f d88c 76be
00000040: a065 053e 94de fc3e a09e e43d c086 e93e
00000050: bec6 583f 006b 38bd 4085 7bbf 20b8 8cbe
00000060: 28b9 36bf fa6b 0e3f 9ef2 393f 4051 c83c
00000070: 1862 ab3e 409d 3b3f f67e 23bf 9014 02bf
00000080: 68b8 413e 7a8b 0bbf 5cee 02bf 500b 633f
00000090: c47f 123f f22a 1bbf 60e0 66be d06a dd3e
000000a0: 967a 2d3f 487f d6be 04c2 1b3f 645b a83e
000000b0: 628d 1bbf d22e 5ebf 6cba a7be f863 d23e
000000c0: ecaf 3fbf 1a5b 07bf 489c 113f 006a 6b3d
000000d0: 6c2b 4abf 30d2 ef3e e09b 13bd 0afa 2fbf
000000e0: 107d eebe e428 dd3e 901e c0be 7899 6cbf
000000f0: 7066 edbd c49b afbe 4063 a93d 5ab2 04bf
00000100: c046 73bf 4022 6b3d 8299 38bf b84b 2a3e
00000110: c089 87be a044 013d 2063 67be 24ef c2be
00000120: a09d d33d b03e 95be 106e 1cbe ac8f 53bf
00000130: d0e7 2abe 502c 593f 604a bebd 1a08 1fbf
00000140: 3c1a 293f e029 75bd 24f1 efbe 20a3 06bd
00000150: 7881 7abf 800a 06bf 20b9 fcbd e4ff dd3e
00000160: c0f5 2abe 483d 4a3f 4080 843c 00af 3bbe
00000170: 6e1d 65bf 60ff ca3d 0c67 8f3e a45d e7be
00000180: 68ec 503e f8b5 4a3f 781b 363e e88d 45be
00000190: 301e ed3e c0fb 8e3c 402c 953d 5c80 55bf
000001a0: b4ee 53bf ec24 51bf d493 b0be c85d 01be
000001b0: 2410 5ebf f01d 663f 7aee 14bf 428e 443f
000001c0: 90ec 673f 949d 593f 10fd 1e3f 48ed a6be
000001d0: d414 0bbf f05b 733f 302c e33d d4be 953e
000001e0: 162a 35bf 40ee 3b3d 3cc4 f6be 62fe 1c3f
000001f0: fc77 88be 2af3 043f 1eaf 7ebf a84f bb3e
-0.20961499 0.64764416 -0.2560966 0.51228774 0.086874485 0.5045326 0.23028052 -0.22485685
-0.71423125 -0.33320808 0.7465075 -0.98992753 0.25037038 0.010852575 0.56930935 -0.24077165
0.13027048 0.49388564 0.11163068 0.4561062 0.84678257 -0.04502392 -0.982502 -0.27484226
-0.71376276 0.5563351 0.7263583 0.024452806 0.33473277 0.7328682 -0.638656 -0.50812626
0.18918002 -0.545097 -0.5114496 0.88689137 0.57226205 -0.60612404 -0.2254653 0.43245554
0.67765176 -0.41893983 0.6084292 0.32882226 -0.6076261 -0.8679019 -0.32759416 0.41091895
-0.7487781 -0.52873385 0.5687909 0.057474136 -0.78972507 0.46840048 -0.036037326 -0.68740904
-0.4657979 0.4319526 -0.37523317 -0.92421675 -0.11591804 -0.34298527 0.082708836 -0.5183464
-0.9502983 0.05740571 -0.72109234 0.16630447 -0.26472282 0.031559587 -0.22596407 -0.38073075
0.10332799 -0.2914939 -0.1527636 -0.826411 -0.16689992 0.8483324 -0.0929153 -0.62121737
0.66055655 -0.05985439 -0.46863663 -0.032870412 -0.97853804 -0.5235977 -0.12339997 0.43359292
-0.16695309 0.7899976 0.016174436 -0.18328476 -0.8949803 0.0991199 0.28008306 -0.4518863
0.20402682 0.7918391 0.17783916 -0.19292414 0.46312094 0.017454028 0.07283831 -0.83398986
-0.8278611 -0.81696963 -0.34487784 -0.12633431 -0.8674338 0.8988943 -0.58176386 0.7677957
0.9059534 0.8500607 0.6210489 -0.32602906 -0.54328656 0.9506216 0.110924125 0.29247153
-0.70767343 0.04588151 -0.4819659 0.6132566 -0.2665404 0.5193354 -0.9948596 0.3658421

weight f4 [128, 128]
00000000: 1c39 bb3c daa6 333d 8220 b2bd 48d4 0c3c
00000010: 6a58 77bd a64c 173d 7b16 aa3d be14 563d
00000020: ac7b ee3c b6e1 513d c8bc bc3c 7fad a3bd
00000030: b813 503c 1ccc 0bbd aa83 143d 7644 633d
00000040: 78fa 343c 7e3e 1a3d 363f 363d 6df4 973d
00000050: 4af9 39bd 572a 963d 786a 77bd 59f9 60bd
00000060: 62ac 783d 7e08 403d 3847 48bc 99eb 5fbd
00000070: ad63 8fbd 8815 a2bc 302b 633c 11f2 83bd
00000080: 699c 16bd d6c2 573d 3c7d bf3c f917 adbd
00000090: ced4 533d 3d37 813d 4672 143d 9a92 523d
000000a0: 6760 98bd dc02 8dbd e86e 4abd d88c 133c
000000b0: 86e9 343d d4c4 a0bd 9ad1 8ebd 0a08 313d
000000c0: c52c 9b3d d32d 60bd c1e5 4ebd 8fef 893d
000000d0: b055 283c 223c 7c3d 0858 9cbc 3b21 843d
000000e0: 40bd 1fbb 80ef 0ebc 212f 9b3d 5868 ebbc
000000f0: eb2b a9bd 182a c63c 9404 103d a638 dcbc
00000100: a333 9b3d cc0f b5bc 1e10 793d b62d 3e3d
00000110: 5472 973c 1dc6 13bd 5239 96bd 039f 9a3d
00000120: 8f94 893d a89f 3abd 8517 2dbd 51c3 a2bd
00000130: 662c 333d b0ad 53bc 8138 9f3d e500 983d
00000140: 002a 3f3a 0b62 a2bd 5eb5 9fbd 6884 c1bc
00000150: ecb3 ea3c 240c 813c 92dc 493d c0bb ebbb
00000160: 1eac 00bd 32f9 5f3d 401c 01bb b8a2 3c3c
00000170: 2084 313b 3e39 503d f67d a9bd 40f3 95bc
00000180: cb68 a63d be69 7bbd 6d7f 9cbd 4a5c 3c3d
00000190: 92dc 0d3d b065 83bc 00b4 dcbc 5c83 043d
000001a0: a284 8cbd 2815 023d 2de7 b43d 3cc4 8ebd
000001b0: 1027 9f3b d5b8 973d 4b5f 26bd 1db7 8f3d
000001c0: 00a3 49bb df98 853d f007 08bc 7473 a8bd
000001d0: 4f6c b23d 0ced f13c 5896 a43c 43ff 913d
000001e0: 892b b43d 76de 573d c63d 213d 40e1 8c3c
000001f0: 969a f1bc 92a6 503d a0fe 32bb 87e9 ac3d
00000200: cbd0 6abd 4e4a 1e3d 67a0 5bbd 4920 9c3d
00000210: 82eb 503d d2e0 32bd 32cd a6bd 891f a83d
00000220: 688d 973c e8b2 0bbd 6e8e e5bc 863e 243d
00000230: 2825 1a3c 8d0b 32bd 1b1d 86bd 2015 033c
00000240: e22d 0bbd 87a8 a63d d0c1 043d fa7c 173d
00000250: 33a3 973d 7678 263d c4ac 99bc c5df 65bd
00000260: 93b6 68bd d355 6ebd 248f dbbc d069 983c
00000270: 321f 223d 0c4b b03c e6bc 6dbd e9c5 20bd
00000280: c8e4 5c3c 40af 33bd 5246 f7bc 6500 8d3d
00000290: 6727 813d aa70 19bd 9a39 2c3d bd50 38bd
000002a0: a159 af3d 222d 2c3d ace0 11bd a21c 1a3d
000002b0: 4679 1fbd da4f 113d ee94 94bd 00a4 f43a
000002c0: 26f7 0c3d 6243 aebd d021 833c d7c8 a03d
000002d0: 08d0 003d ba5d 4cbd 5a0b 3d3d 63a8 9a3d
000002e0: e0ca 083b 14bd cb3c 9895 ad3c e999 933d
000002f0: f631 2e3d 1cc5 b5bc 0493 17bd 4ca1 e23c
00000300: 4ea1 01bd 88f7 88bd 4695 a8bd f92c 34bd
00000310: d74b ae3d b014 ac3b 2ca8 4ebd 990d aabd
00000320: 182d c7bc 3a83 06bd 8263 3b3d f1a4 48bd
00000330: 9409 ccbc 80b2 f9bc 32aa 4e3d 90cc e7bb
00000340: a43a f9bc e3f0 a33d 980d 53bc 17fd 4abd
00000350: cd08 81bd ddfb a63d 604e f4bc 8676 173d
00000360: 2597 8ebd 804b d4ba 5166 60bd c626 34bd
00000370: 7180 11bd 53fe 923d 80de fb3a ad87 803d
00000380: feb7 65bd 95be 863d 1ac5 7e3d 43b1 b33d
00000390: 5414 b4bc 7b09 acbd 2ae3 723d 0598 8f3d
000003a0: b0b7 c73c b3b7 a2bd b8d0 aebc 11be 22bd
000003b0: dd45 893d b3f5 7cbd a852 0c3c 3cf5 e7bc
000003c0: d6e7 06bd 2def 05bd 1383 9f3d 0d44 89bd
000003d0: b37e 8abd 58e5 a9bc f92f b43d d8e0 213c
000003e0: 4e17 56bd 95ea 993d e410 d03c 5ff4 07bd
000003f0: 3cd6 5cbd 6a0b 273d aba8 a2bd deab 613d
0.02285438 0.043860294 -0.086976066 0.008595534 -0.060387053 0.036938332 0.08305069 0.052265875
0.029111706 0.051240645 0.023039237 -0.07992076 0.012700014 -0.0341302 0.036258377 0.05548521
0.0110460445 0.037657253 0.044493876 0.074196674 -0.045403756 0.073322944 -0.06040427 -0.054925296
0.060711272 0.0468831 -0.012224011 -0.054668043 -0.070014335 -0.019785658 0.013865277 -0.06442655
-0.036770258 0.052676044 0.023375146 -0.08451838 0.05171662 0.06309364 0.036241792 0.05140934
-0.07440262 -0.06885311 -0.049422175 0.009005748 0.044168018 -0.07850042 -0.06973572 0.043220557
0.075768985 -0.0547312 -0.05051208 0.06735145 0.010274336 0.061580785 -0.019084945 0.06451651
-0.0024374276 -0.008724093 0.075773485 -0.028736278 -0.0826033 0.024189994 0.035160616 -0.02688248
0.07578208 -0.02210226 0.060806386 0.046430312 0.018487133 -0.036077607 -0.07335152 0.0754986
0.067177884 -0.045562416 -0.042258758 -0.0794741 0.043743514 -0.012919828 0.07774449 0.074220456
0.000729233 -0.079288565 -0.07798265 -0.023622707 0.028650247 0.01575286 0.049282618 -0.0071940124
-0.031414144 0.05468101 -0.0019700676 0.011513405 0.002708681 0.05083584 -0.08275978 -0.018304467
0.081254564 -0.06138014 -0.07641492 0.04598645 0.03463418 -0.0160397 -0.0269413 0.032351837
-0.06861235 0.031758457 0.08833156 -0.069710225 0.0048569515 0.07408301 -0.040618222 0.07017348
-0.0030767322 0.065232985 -0.008302674 -0.08225146 0.087120645 0.029531978 0.02009122 0.071287654
0.08797366 0.05270239 0.039365552 0.017197251 -0.029492658 0.050940104 -0.0027312413 0.08442979
-0.057328027 0.03864508 -0.05361977 0.076233454 0.051005848 -0.043671437 -0.08144607 0.0820914
0.018500045 -0.034106165 -0.028022017 0.04009869 0.009408273 -0.043468047 -0.0654852 0.008000642
-0.033979304 0.08137613 0.032411397 0.03698442 0.07404175 0.040642224 -0.018759139 -0.056121606
-0.05681474 -0.058187317 -0.026801653 0.018605143 0.03958053 0.02152016 -0.058041476 -0.03925124
0.01348228 -0.043868303 -0.030184899 0.06884841 0.063063435 -0.03746096 0.04204712 -0.044998873
0.08562017 0.04203523 -0.035614654 0.037624963 -0.038934015 0.035476543 -0.072549686 0.0018664598
0.034415387 -0.08508946 0.016007334 0.07850807 0.031448394 -0.049894072 0.046153404 0.075516485
0.0020872876 0.024870433 0.021189496 0.072070904 0.042528115 -0.022188716 -0.03700544 0.027664803
-0.031647973 -0.06687838 -0.08231597 -0.0439882 0.08510559 0.0052514896 -0.05045335 -0.08303375
-0.024313495 -0.03283999 0.045749195 -0.048985425 -0.024906911 -0.030480623 0.05045528 -0.0070739463
-0.03042347 0.0800493 -0.012881659 -0.04955777 -0.06300507 0.08153508 -0.029822528 0.036978267
-0.06962422 -0.0016196817 -0.054785077 -0.04398229 -0.035522882 0.07177415 0.001921609 0.06275878
-0.05608367 0.065793194 0.06219969 0.08774044 -0.02198235 -0.08400246 0.05929867 0.07011417
0.024379581 -0.07945194 -0.02133976 -0.039732043 0.067027785 -0.061757755 0.008564629 -0.028315179
-0.03293594 -0.0326988 0.07788672 -0.06702433 -0.06762447 -0.020739242 0.087982126 0.009880267
-0.05226832 0.07515446 0.02539868 -0.033192035 -0.053915247 0.04078237 -0.07942327 0.055095546

bias f4 [128]
00000000: f245 533d 4cd8 f93c f11c b0bd fe4f 3dbd
00000010: 04a4 b0bd 9072 aa3b fa64 3f3d cabd 4b3d
00000020: 686a 5cbc 6a88 e2bc e2ff 523d 6aa0 7abd
00000030: b754 a3bd 62f5 243d 7494 023d 4066 f2bc
00000040: 795f 94bd 0888 a0bc 2adc 39bd dcf4 f93c
00000050: 4dd3 42bd 6654 243d 7ab0 0dbd 9cac 83bd
00000060: 8d56 98bd 92da 75bd dc68 8e3c be16 89bd
00000070: 0860 0a3c e0f1 0bbd 505a e0bb 423a 9bbd
00000080: 00dc 643c 8403 063d af15 25bd 9884 82bd
00000090: e099 a6bd 00ed 79ba fa62 81bd 2424 dcbc
000000a0: 7d4e 74bd 30d3 be3b eddd 9fbd 907f 663c
000000b0: 688e 33bc de2b 7b3d e0de 4d3c 60d8 25bc
000000c0: 807f 0bbc 2042 24bd b4bc 85bd 804c a9bb
000000d0: 928b 613d be86 633d 94c6 023d 0085 393c
000000e0: 14f8 d83c 40fe db3c 14e7 82bc ef43 8f3d
000000f0: a0dd 7e3b b151 b43d 0846 7d3c 4477 c43c
00000100: 3c86 bfbc 833f 843d 56a3 5b3d 2ce2 b23c
00000110: 1785 8a3d 6347 9cbd a8aa 00bd c0d4 30bc
00000120: 3f12 9fbd edeb 73bd 5528 893d 2a1e 22bd
00000130: a531 983d 26b7 3b3d 04b7 debc daa5 253d
00000140: 4a2c 503d b048 ccbc c230 383d dc1d bd3c
00000150: e133 b43d 6e73 5e3d b44f a4bc 0ddf 15bd
00000160: 091d a43d cb55 96bd 8448 91bc d001 d93b
00000170: 5c0f eb3c d584 9b3d f0df 183c d414 f53c
00000180: 67bb 2dbd a4ed d03c 4545 9d3d 9523 73bd
00000190: 0aba 6e3d fcdf a2bc 38a1 c93c 702a 453c
000001a0: 9cbc 5dbd 41a9 9b3d 63ac 12bd 572d a43d
000001b0: c0ce 85ba f5bd b33d 5328 a53d 1159 9b3d
000001c0: 4012 9cba e079 893c 7fa0 ae3d c2a0 493d
000001d0: 00c8 bc39 58b0 de3c 4b96 50bd a952 853d
000001e0: c33f a33d 0e14 2ebd 190f 66bd 70c4 f53b
000001f0: 8990 87bd 1a0e 683d 7ec7 363d 4f11 3cbd
0.051580377 0.030498646 -0.0859927 -0.046218865 -0.086250335 0.005201645 0.046727158 0.049741544
-0.013453104 -0.027652938 0.05151356 -0.06118814 -0.079751424 0.040273078 0.031879857 -0.029589772
-0.072447725 -0.019596115 -0.04537598 0.030512266 -0.047564793 0.04011955 -0.03459213 -0.06429407
-0.07438383 -0.060022898 0.017383985 -0.06693791 0.008445747 -0.034166217 -0.0068467036 -0.07579471
0.013968468 0.032718197 -0.040303882 -0.063729465 -0.08134818 -0.0009533912 -0.063177064 -0.026872702
-0.059645165 0.0058235154 -0.07806001 0.014068499 -0.010959245 0.061321132 0.012565345 -0.010122389
-0.008514285 -0.040102124 -0.06530133 -0.00516659 0.055064745 0.055548422 0.03192766 0.011323214
0.02648548 0.026854634 -0.015979327 0.06995379 0.0038889423 0.08804644 0.015458591 0.023982652
-0.023379438 0.064574264 0.053622566 0.021836363 0.06763666 -0.076308034 -0.03141275 -0.010792911
-0.07767152 -0.05955117 0.06697146 -0.039579548 0.07431344 0.04582896 -0.027186878 0.04044137
0.050823487 -0.024937004 0.044968374 0.023085527 0.087989576 0.0543093 -0.020057537 -0.03658967
0.080133505 -0.073405825 -0.017734773 0.0066225305 0.028693847 0.07593695 0.009330735 0.029917158
-0.04241505 0.02550394 0.07679228 -0.059360106 0.05828289 -0.019882195 0.024613008 0.012034044
-0.05413495 0.07600642 -0.035808932 0.080164604 -0.0010208711 0.08776466 0.08064332 0.075853474
-0.0011907294 0.016781747 0.08526706 0.049225576 0.00036007166 0.027183697 -0.05092458 0.06509907
0.07971146 -0.042499594 -0.056166742 0.007500224 -0.06619365 0.056654073 0.044623844 -0.045914944

weight f4 [4, 128]
00000000: 6077 abbc c2f4 443d 9a61 253d 7fcc a73d
00000010: 6474 c1bc 9397 993d 4dd0 84bd d88a e1bc
00000020: 3e1b 4d3d 01d6 49bd 6ee3 633d a841 2c3c
00000030: 02e1 713d da2a 253d e8ad 54bc 80cd b1bb
00000040: f6d5 783d 2009 1a3c 8cc7 073d 503c 9bbc
00000050: e4ad d1bc e99f 12bd 9859 81bd 00e2 a2ba
00000060: dcb2 8ebd 4091 013d 204f a23b 68ed 59bc
00000070: 6200 403d 1dcb 93bd 5892 02bc f095 473c
00000080: a056 7dbb 9631 1b3d 220b 7c3d feb7 7f3d
00000090: 7e45 723d b9bd 94bd 40c0 973b 2423 efbc
000000a0: 60f3 e93c e061 debc fb60 29bd 561c 623d
000000b0: 8e91 583d ef94 923d 323b f8bc 2229 4cbd
000000c0: 0ab3 243d 3a63 4d3d f4f4 d1bc a02f f23c
000000d0: 4820 b53c 012d 813d 87c5 7cbd 00ca de39
000000e0: 26b9 dbbc b30f 31bd 28bf d23c 10aa 9e3c
000000f0: 20a8 62bc 408b 32bc e5b5 8a3d fd2a a53d
00000100: 20be 77bb 800f 173a 43b9 8d3d b8dd 0e3d
00000110: 16d4 77bd 0633 1c3d 5165 b23d dfc2 44bd
00000120: c4e3 093d 2d48 9e3d 1091 ee3b ffa6 20bd
00000130: 1454 84bd 7b86 20bd c956 a73d e422 eb3c
00000140: 601e 083d 3112 14bd 706d dcbb 5c25 8dbc
00000150: b64e 553d e07b 18bb 5046 1b3c c842 043c
00000160: a8c0 41bc 70df b6bc 3a36 63bd 1aba 043d
00000170: 12ea 083d 87e7 45bd 91f8 a83d 2e40 7bbd
00000180: 78e1 a93c 5089 81bc 31ab 993d 390b b1bd
00000190: 6bfd 2bbd edfa aebd 106c ea3c 009b 483a
000001a0: 984e a13c d5e5 893d 4458 953c 76f4 35bd
000001b0: 5481 c23c 8035 49bb f443 79bd 7c66 a43c
000001c0: 4ebc 3b3d 1f06 ad3d b8bc f13c 2a21 7a3d
000001d0: e627 193d de30 053d a14e a13d 9ede 1b3d
000001e0: c4fa 0f3d 8a0e 24bd 9749 92bd 7033 c83c
000001f0: 7e83 30bd 429d 793d 0017 b139 74a4 b5bc
00000200: 8077 8f3b 957f a83d 9aa7 1a3d 20de a3bc
00000210: ac72 39bd 80c7 8aba 65d3 963d e8a7 81bd
00000220: 5e9f 633d 923c 4d3d f497 f5bc 39d1 abbd
00000230: 10b5 9f3b 8c71 d73c 9266 16bd 4ecf 2b3d
00000240: ee60 063d 7040 ab3b b576 8fbd 98f5 50bc
00000250: 145a d93c 1394 9e3d 1c38 08bd 661c 313d
00000260: 9fa4 0bbd d79d 8e3d eb78 45bd 80e9 5cbc
00000270: f6aa 423d 40e9 e0ba 689a 79bc 6fe7 963d
00000280: 477e 8d3d 648f e23c 7961 a63d 8518 acbd
00000290: eca2 0fbd aa0e 26bd 8006 58bd 20b5 81bb
000002a0: f846 0c3d 12b4 483d c209 733d 07ef b0bd
000002b0: 066d 4f3d 77ab 863d 7840 c53c 3052 1abd
000002c0: fd01 a6bd 2a7d 3ebd c02b 733b 00ca 9d39
000002d0: 25ab a23d c006 a63c 209c 2e3b 66c7 593d
000002e0: 3ffb 6bbd ca92 163d aea8 2e3d f918 81bd
000002f0: bf13 9b3d 5ec4 453d b66a 2b3d 8846 acbd
00000300: ea68 503d 97d8 8a3d 91bc 92bd 0cad c93c
00000310: 77dc 833d a0d7 5d3b 83af 8c3d 0260 3b3d
00000320: 58af 19bd 5e1c 5abd b9e6 ad3d 6c09 b0bc
00000330: 55b7 9abd 4abd 353d 1dfb aa3d 6528 0bbd
00000340: 80d4 3c3a 5ff5 43bd 06d5 6e3d 0aed 623d
00000350: b817 103d 08ad 3d3c 1b6d a03d 2889 413c
00000360: a606 713d f243 183d a637 3ebd 18b8 4f3c
00000370: 6fee b23d da07 29bd 94bd a43c 4f34 b2bd
00000380: f431 c83c 2aa2 573d cb10 ae3d 9ba1 9d3d
00000390: bea5 15bd 578e 96bd 0e6e 6ebd 9022 a43b
000003a0: 2e58 7cbd 90f6 c7bb ee2a 393d 1b2d 8c3d
000003b0: 1696 383d f64e 193d 6a8d 743d 5e44 003d
000003c0: 941b 9cbc 18a0 7e3c d8d8 0d3c aec0 49bd
000003d0: 2d82 913d 8bf3 00bd 0aca 1c3d 20f3 98bc
000003e0: 2d6e 953d ae70 6b3d 89d0 8cbd 2828 e73c
000003f0: 5a66 6a3d 0368 8fbd 2cca aa3c 804f 0dbc
-0.020930946 0.04808498 0.040376283 0.081933014 -0.02361507 0.074996136 -0.06485043 -0.027532026
0.05007481 -0.049276356 0.055636816 0.010513701 0.059052475 0.04032407 -0.012980916 -0.005426109
0.060750924 0.00940159 0.033149287 -0.018949658 -0.025595613 -0.035797033 -0.06315917 -0.0012426972
-0.069677085 0.03163266 0.00495328 -0.013301231 0.046875365 -0.07216475 -0.007969461 0.012181744
-0.003865637 0.037889086 0.061534055 0.062431328 0.059148304 -0.07262749 0.0046310723 -0.029191561
0.028558433 -0.02714628 -0.041352253 0.055202805 0.052873187 0.07157313 -0.030301664 -0.049843915
0.040209807 0.050143458 -0.025629498 0.029563725 0.02211012 0.06307412 -0.061711814 0.0004249364
-0.026821684 -0.043227863 0.025725916 0.019368201 -0.013834029 -0.010897458 0.06772975 0.0806484
-0.0037802532 0.00057625026 0.069201015 0.034879416 -0.060504995 0.038134597 0.08710731 -0.048037406
0.03366448 0.0772861 0.0072804764 -0.03922176 -0.06461349 -0.03919075 0.0817085 0.02870316
0.033232093 -0.03615016 -0.006726913 -0.017229728 0.052077018 -0.0023267195 0.009477213 0.0080725625
-0.011825718 -0.02232334 -0.055471636 0.032404043 0.03342635 -0.048316505 0.08250535 -0.061340503
0.020737395 -0.015812546 0.07503355 -0.08644719 -0.041989725 -0.08543954 0.028615981 0.00076524913
0.019690797 0.0673329 0.018230565 -0.04442259 0.02374331 -0.0030702055 -0.06085582 0.0200684
0.04583388 0.08448433 0.029508933 0.061066784 0.037391566 0.032517307 0.078763254 0.0380541
0.035151258 -0.040052928 -0.071429424 0.02443859 -0.04309415 0.06094099 0.00033777207 -0.022173144
0.004378259 0.08227459 0.037757494 -0.020003378 -0.045275375 -0.001058802 0.07364539 -0.06330854
0.055571906 0.050106592 -0.029979683 -0.083895154 0.0048738793 0.02629926 -0.036718912 0.041945748
0.032807283 0.0052261874 -0.070050634 -0.012753867 0.02653221 0.07743087 -0.033256635 0.043239973
-0.03409254 0.06963699 -0.04821102 -0.013483405 0.047526322 -0.0017159358 -0.015234567 0.07368361
0.06908851 0.027656265 0.0812406 -0.08403114 -0.035067484 -0.04054133 -0.052740574 -0.0039583594
0.03424737 0.048999853 0.059335478 -0.08639341 0.050641082 0.06575673 0.024078593 -0.037676036
-0.08105848 -0.046506085 0.0037104934 0.00030095875 0.079427995 0.02026689 0.002664335 0.053168677
-0.057612654 0.036761083 0.042641334 -0.06303591 0.07572126 0.048282973 0.041849814 -0.0841189
0.050881304 0.067795925 -0.071648724 0.024618648 0.06438535 0.0033850446 0.06869414 0.045745857
-0.037520736 -0.05324971 0.084912725 -0.021488868 -0.07554499 0.044369973 0.08348677 -0.03397407
0.0007203296 -0.047841426 0.058308624 0.05540184 0.03517887 0.011576898 0.0783331 0.011812486
0.05884423 0.037174173 -0.04643979 0.012678169 0.08736884 -0.041267253 0.02010993 -0.08701383
0.024437882 0.052644886 0.08499297 0.076968394 -0.036535017 -0.07351368 -0.058210425 0.005009003
-0.061607532 -0.0061023906 0.045206957 0.06844541 0.045065008 0.03742882 0.059705175 0.0313152
-0.019056119 0.015541099 0.008657657 -0.04925602 0.07104907 -0.03148226 0.038278617 -0.018670619
0.07296405 0.057480507 -0.068757124 0.02821739 0.057226516 -0.070022605 0.020848356 -0.008624911

bias f4 [4]
00000000: feb9 133d 6ae1 793d e4e9 993c d2b7 86bd
0.036066048 0.061005987 0.018788286 -0.0657803
